demo/data/example/models/model_dim10_lay2.pth (torch, 3535 bytes, 7 tensors)

linear.weight f4 [10, 1]
0	0x3f1a6181	0.6030503
1	0x3f3960e9	0.724135
2	0x3f242a63	0.64127177
3	0x3e66a5fa	0.22524253
4	0xbebfea7c	-0.37483585
5	0x3f3288f8	0.6974025
6	0xbeee237a	-0.4651144
7	0xbdcb485f	-0.09925913
8	0x3f1cf689	0.6131368
9	0xbf04b684	-0.51840997

linear.bias f4 [10]
0	0xbe2a6e2f	-0.16643594
1	0xbd5ac0f6	-0.05340668
2	0x3f40f998	0.7538085
3	0x3f0409a2	0.515772
4	0xbf15c49e	-0.5850314
5	0x3f844225	1.0332686
6	0x3c1304c6	0.008973306
7	0xbe5160fd	-0.20447154
8	0xbecef3a0	-0.40420246
9	0xbf2ab2b3	-0.66678923

conv_0.weight f4 [10, 10]
0	0xbf01a888	-0.50647783
1	0x3f06ed67	0.52706
2	0x3edb733a	0.42861348
3	0x3d85729d	0.065160014
4	0xbd6e0f53	-0.058120083
5	0xbe372479	-0.17885007
6	0xbe8b0546	-0.2715246
7	0xbe9e7baa	-0.30953723
8	0xbe2d5a4a	-0.16928974
9	0x3d04fc4b	0.032467168
10	0xbe25b4e1	-0.16182281
11	0x3e60e2ba	0.2196149
12	0xbe7ac3c5	-0.24488743
13	0x3ed4fc44	0.41598713
14	0x3e82d3ee	0.25552315
15	0xbf1c5e36	-0.61081254
16	0x3e8c8101	0.27442172
17	0xbd465385	-0.048419494
18	0xbec0ac69	-0.3763154
19	0x3f24bdbe	0.64352024
20	0xbe92eeb5	-0.28697744
21	0x3ed249cb	0.41071925
22	0xbf1985fb	-0.5997006
23	0x3ed2798b	0.41108355
24	0x3f0d1a91	0.5511866
25	0x3d2dc8b2	0.042427726
26	0xbd14a2f4	-0.036288217
27	0x3f0fa142	0.56105435
28	0xbd35d529	-0.04439274
29	0x3ea47c37	0.32126018
30	0xbe75bfc9	-0.23998941
31	0x3f0cb910	0.5496988
32	0x3e923bd3	0.28561267
33	0x3f181541	0.5940743
34	0x3f25d467	0.64777225
35	0xbf00bf88	-0.50292253
36	0xbe2ebd07	-0.17064296
37	0x3efa4742	0.4888249
38	0xbf2bc408	-0.67095995
39	0x3f18e157	0.5971884
40	0x3e9e1549	0.30875614
41	0x3e0b8c29	0.13627686
42	0x3d4d652c	0.050145313
43	0xbe6ee7e6	-0.2333065
44	0xbe2bf596	-0.16792902
45	0xbd74e7b9	-0.0597913
46	0x3e8e056e	0.27738518
47	0xbcc61c24	-0.02418334
48	0x3e1f8e6e	0.15581676
49	0x3e555754	0.20834094
50	0xbf172fcd	-0.59057313
51	0x3f0c37df	0.5477275
52	0x3e88a7ce	0.26690525
53	0x3ebb7abd	0.3661708
54	0x3e9f0b73	0.31063423
55	0xbb6bac19	-0.0035960732
56	0xbe8221af	-0.25416324
57	0x3f15e1ac	0.5854747
58	0xbee0a5f7	-0.4387662
59	0xbddc17dc	-0.10746738
60	0x3ead7eaf	0.33885714
61	0x3d8621e1	0.06549431
62	0x3dc89a65	0.097950734
63	0xbf01b8be	-0.5067252
64	0xbf1f5e7a	-0.62253535
65	0x3f309a2c	0.6898525
66	0x3daff762	0.085921064
67	0xbf113180	-0.56716156
68	0x3e98e103	0.2985917
69	0xbf1aa007	-0.6040043
70	0xbdc3a04a	-0.09552057
71	0x3de63b03	0.11241724
72	0x3f0c2ef8	0.5475917
73	0xbf1e6b0e	-0.618821
74	0xbe6673fb	-0.2250518
75	0x3ee404d8	0.44534945
76	0xbe22d011	-0.15899684
77	0xbd3bbe0e	-0.045835547
78	0x3afd163b	0.0019308993
79	0x3cad10e8	0.021126226
80	0xbf015d9e	-0.50533473
81	0xbe8927c0	-0.2678814
82	0x3dc8b9fd	0.098010994
83	0xbe0835e5	-0.13301809
84	0x3e962406	0.2932436
85	0x3d90ae38	0.070644796
86	0x3e205b7d	0.156599
87	0x3e800025	0.2500011
88	0xbcbf7008	-0.02336885
89	0x3ec91f71	0.392818
90	0xbea1b304	-0.3158189
91	0x3d00f132	0.03148002
92	0xbea9dd22	-0.33176523
93	0xbe153bb2	-0.14573553
94	0x3eafa02b	0.34301886
95	0x3f12b49a	0.57306826
96	0x3e819fda	0.2531727
97	0x3d9dbf34	0.07702485
98	0x3eef3f90	0.46728182
99	0xbdfb51b3	-0.12271442

conv_0.bias f4 [10]
0	0xbdf9e50d	-0.12201891
1	0x3e195bda	0.14976445
2	0xbda66f31	-0.08126677
3	0x3e2015b8	0.15633285
4	0x3e215f99	0.15759124
5	0xbe1ce048	-0.15319932
6	0xbe0f5efa	-0.14001074
7	0x3e0304a1	0.12794735
8	0xbdfdaeea	-0.12386878
9	0x3e522290	0.20520997

layers.0.weight f4 [10, 10]
0	0x3ef1d389	0.472317
1	0x3f04bd70	0.5185156
2	0x3e318d80	0.17339134
3	0xbec03b7d	-0.37545386
4	0xbec35f37	-0.3815858
5	0xbf32241a	-0.69586337
6	0x3e850c2b	0.25985846
7	0xbe853604	-0.26017773
8	0x3e1a9563	0.15096049
9	0xbec2a3f0	-0.380157
10	0xbdf35204	-0.118808776
11	0xbe373a2c	-0.17893285
12	0x3dc3742c	0.095436424
13	0x3ec0ee3d	0.3768176
14	0x3f1f5c75	0.62250453
15	0x3f1c54c0	0.6106682
16	0x3ea7a147	0.32740232
17	0x3df3ca8c	0.11903867
18	0xbeccce26	-0.4000103
19	0xbe3ecb41	-0.18632223
20	0x3e94384a	0.28949195
21	0x3e77d5d6	0.24202666
22	0x3e99bb78	0.3002584
23	0xbe4ae961	-0.1981559
24	0x3eb47614	0.35246336
25	0xbecc1d04	-0.39865887
26	0x3e087934	0.13327485
27	0x3e5616ee	0.20907184
28	0xbeee3de9	-0.4653161
29	0x3e209d7c	0.15685076
30	0x3e395af7	0.18101107
31	0xbd5a90df	-0.053360816
32	0xbf03fd9e	-0.51558864
33	0x3f1debf3	0.61688155
34	0x3d00252b	0.031285446
35	0x3ec27c34	0.37985384
36	0xbeef15f9	-0.4669645
37	0x3ece776e	0.40325493
38	0x3df0c9b1	0.117572196
39	0xbf250f41	-0.644764
40	0x3e439d58	0.1910299
41	0xbe72fee1	-0.23730041
42	0xbe2e27ec	-0.17007416
43	0x3ec05a60	0.3756895
44	0x3f09ef0d	0.5388039
45	0x3f3ad2e4	0.72978044
46	0x3e3cf53f	0.18452929
47	0xbe5cebf9	-0.21574391
48	0x3f15a8eb	0.58460873
49	0x3e0f3a0a	0.13986984
50	0xbd583784	-0.05278732
51	0x3e80deb3	0.25169906
52	0xbba01138	-0.004884865
53	0xbed25131	-0.4107757
54	0x3e9691f6	0.29408234
55	0x3e072806	0.13198861
56	0x3e525c2f	0.20542978
57	0xbed2fed6	-0.4121005
58	0xbef68962	-0.4815169
59	0xbd4d55fe	-0.050130837
60	0x3efe171a	0.49627
61	0x3e336dce	0.17522356
62	0x3e3c078e	0.18362257
63	0xbde84661	-0.11341549
64	0xbf08cfff	-0.53442377
65	0xbf10a323	-0.56498927
66	0x3f1bd69a	0.6087433
67	0xbf2c011f	-0.6718921
68	0x3eca5183	0.39515314
69	0xbd308b02	-0.04310132
70	0xbe3e8d66	-0.18608627
71	0xbeb64033	-0.35595855
72	0xbf03cccc	-0.5148437
73	0xbe4cc181	-0.19995691
74	0x3f13e6bf	0.57773966
75	0xbdf0f091	-0.117646344
76	0xbec46df4	-0.38365138
77	0x3e9a1af2	0.30098683
78	0x3df24759	0.11830015
79	0xbe9a7e86	-0.30174655
80	0x3e9d043b	0.3066729
81	0x3f020202	0.50784314
82	0x3ed09d26	0.40744895
83	0xbf149e4c	-0.5805404
84	0xbf14f1a4	-0.58181214
85	0xbebd6716	-0.3699271
86	0x3f1af8b4	0.6053574
87	0xbf31e438	-0.6948886
88	0xbe617b3f	-0.22019671
89	0xbe3fd5be	-0.1873388
90	0x3e0a50d4	0.13507396
91	0xbf14ec09	-0.5817266
92	0x3e46236d	0.19349451
93	0x3ede79d1	0.43452314
94	0xbe54f37a	-0.20796004
95	0x3efd2c22	0.49447733
96	0xbe47c02b	-0.195069
97	0x3ec3adc3	0.38218507
98	0xbe8ff22f	-0.2811446
99	0xbf1ad4d3	-0.60480994

layers.0.bias f4 [10]
0	0xbdba0fde	-0.09085058
1	0xbdee09d6	-0.1162297
2	0xbd745ffb	-0.059661847
3	0x3dee1686	0.1162539
4	0x3e0c5cdf	0.13707303
5	0x3e0dcb4b	0.13847081
6	0xbdea128f	-0.11429321
7	0x3e109caa	0.14122263
8	0x3daa3946	0.08311705
9	0xbe19c93b	-0.1501817

predict.weight f4 [1, 10]
0	0x3de39118	0.11111659
1	0x3eb891d3	0.36048755
2	0x3df75c87	0.12078195
3	0xbeef5949	-0.46747807
4	0xbe4f30ed	-0.20233507
5	0xbe7c3cda	-0.24632588
6	0x3e4fdb10	0.2029841
7	0xbe5527c5	-0.20815952
8	0xbd547378	-0.051867932
9	0x3e312f25	0.1730314
