demo/data/example/models/model_dim8_lay4.pth (torch, 4609 bytes, 11 tensors)

linear.weight f4 [8, 1]
-0.028967889 -0.794097 -0.9054064 -1.2681022 -0.6145085 0.7807777 -0.6738254 1.2646137
00000000: 114e edbc f149 4bbf b7c8 67bf 2c51 a2bf
00000010: 6e50 1dbf 0ce1 473f d27f 2cbf ddde a13f

linear.bias f4 [8]
0.85529906 0.219531 -0.4305628 -1.1840442 -1.0175555 -0.7150586 -1.1973197 -0.87083095
00000000: e1f4 5a3f bccc 603e ba72 dcbe c38e 97bf
00000010: 423f 82bf 150e 37bf c641 99bf c7ee 5ebf

conv_0.weight f4 [8, 8]
-0.006091598 0.34564447 0.022041202 0.11804199 0.2977733 0.51165974 -0.16252573 0.01781664
0.09413152 -0.0012670257 -0.5310204 -0.62599546 -0.6650167 1.1065434 -0.10726118 -0.5921706
0.85942894 0.3015111 0.2006823 -0.54297674 -0.011450166 0.34532022 0.36582038 -0.7123926
0.72629327 0.17624953 0.95106894 -0.23543757 -0.77612257 -0.048357774 0.5596485 -0.41913527
0.33749655 -0.035294004 0.46892452 -0.2444742 -0.42081997 -0.076855004 0.6784197 -0.2830821
-0.08600153 -0.52240294 0.581537 0.57166976 0.28167558 -1.0774128 -0.33474794 -0.44066462
-0.23155169 -0.4104481 0.55353284 -0.03397251 -0.892041 -0.26884565 0.6019966 -0.6953698
0.7602632 -0.77322334 0.41104457 1.0886635 0.62108 -0.5755519 0.562644 -0.34736624
00000000: 079c c7bb 50f8 b03e c08f b43c 00c0 f13d
00000010: be75 983e 22fc 023f 256d 26be 34f4 913c
00000020: 07c8 c03d 5412 a6ba f4f0 07bf 3d41 20bf
00000030: 893e 2abf 37a3 8d3f c0ab dbbd 7e98 17bf
00000040: 8903 5c3f aa5f 9a3e a97f 4d3e 8600 0bbf
00000050: 7a99 3bbc d0cd b03e cf4c bb3e 5d5f 36bf
00000060: 5bee 393f c27a 343e 4179 733f 8c16 71be
00000070: f8af 46bf cd12 46bd 2045 0f3f e698 d6be
00000080: 59cc ac3e 7290 10bd e016 f03e 7257 7abe
00000090: b775 d7be 2866 9dbd eaac 2d3f 23f0 90be
000000a0: 9221 b0bd 33bc 05bf 9cdf 143f f358 123f
000000b0: c837 903e aae8 89bf 1564 abbe cb9e e1be
000000c0: e31b 6dbe 4126 d2be 54b4 0d3f c226 0bbd
000000d0: cd5c 64bf 23a6 89be 731c 1a3f c103 32bf
000000e0: 9ca0 423f f7f1 45bf 6f74 d23e 5359 8b3f
000000f0: 19ff 1e3f 5f57 13bf 7009 103f fdd9 b1be

conv_0.bias f4 [8]
-0.3859247 0.02592672 -0.4265398 0.052677955 0.23946084 0.5390776 -0.19022058 0.17456211
00000000: ec97 c5be 4664 d43c 6d63 dabe d7c4 573d
00000010: 3935 753e fd00 0a3f 2fc9 42be 69c0 323e

layers.0.weight f4 [8, 8]
0.3498597 -0.40347078 0.50329566 -0.22827248 0.24779479 -0.6380097 0.5481564 -0.14815359
-0.08081713 -0.44773626 -0.63612306 -0.52399963 -0.15789832 0.06135688 -0.09000872 -0.88847095
0.5936355 -0.22223839 -0.5297838 0.26749286 -0.53107786 -0.6132181 -0.009288804 -0.85514903
0.1858759 0.40782055 0.5854437 -0.10264738 0.35332805 -0.3245981 -0.16366322 1.0179071
0.89563507 -0.5385929 0.7287184 0.88485724 0.26916552 1.1399785 -0.36500567 0.46829244
-0.95734453 -0.8365739 -1.0295049 -0.8363356 -0.61976224 0.893421 0.25188562 -0.98587906
-0.5450133 0.44464085 -0.43359217 0.2706683 0.36057785 -0.5388136 0.118023306 0.19731759
0.12340759 -0.71559584 0.56219953 0.24806078 0.38174924 0.5860372 0.15323949 0.3752164
00000000: d020 b33e b993 cebe fcd7 003f 43c0 69be
00000010: ebbd 7d3e 9b54 23bf fa53 0c3f 93b5 17be
00000020: 7483 a5bd b03d e5be f6d8 22bf d724 06bf
00000030: 19b0 21be 5a51 7b3d 7e56 b8bd d572 63bf
00000040: 7ff8 173f 7692 63be e99f 07bf d3f4 883e
00000050: b8f4 07bf ddfb 1cbf 1130 18bc 0ceb 5abf
00000060: 4056 3e3e dbcd d03e a3df 153f ca38 d2bd
00000070: 6ae7 b43e b931 a6be 5597 27be c84a 823f
00000080: 5748 653f 39e1 09bf 4a8d 3a3f 0186 623f
00000090: 10d0 893e d1ea 913f 06e2 babe 07c4 ef3e
000000a0: 8814 75bf b529 56bf d1c6 83bf 171a 56bf
000000b0: bda8 1ebf 3db7 643f 27f7 803e 9262 7cbf
000000c0: fe85 0bbf f7a7 e33e cbff ddbe 0995 8a3e
000000d0: a99d b83e b0ef 09bf 34b6 f13d 9f0d 4a3e
000000e0: 1ebd fc3d 4a31 37bf 4fec 0f3f a503 7e3e
000000f0: a374 c33e 8906 163f d0ea 1c3e 5d1c c03e

layers.0.bias f4 [8]
-0.12759116 -0.45182878 -0.09119679 -0.14772134 -0.045405004 0.40849537 -0.104258135 0.11927989
00000000: 42a7 02be 1a56 e7be 62c5 babd 4344 17be
00000010: 99fa 39bd 4e26 d13e 4a85 d5bd 0449 f43d

layers.1.weight f4 [8, 8]
0.70966357 -0.6681386 0.84935415 0.91778034 0.06611495 0.7994483 -0.5540979 -0.2130863
0.2644837 -0.010567998 0.33613086 0.55066985 0.4392922 0.66052496 -0.9850876 -0.5850776
0.5495169 -0.20833738 -0.2846133 0.71005833 0.15604001 0.61604017 -0.0006812765 0.2078846
0.8771459 -0.49050656 -0.123491816 -0.078736156 0.69856733 0.76630604 -0.6003889 -0.46989432
-0.032748923 0.42320678 -0.28263336 0.20062475 0.66978145 -0.28468186 -0.5099479 0.19021417
0.22503494 0.7106714 -0.5622554 0.32695982 0.08957703 0.2648064 0.95789605 -0.29193032
0.3222515 0.21947639 0.056910492 -0.16243707 0.34760424 0.2636098 -0.38855886 -0.45924145
0.545266 -1.2572466 -0.04792807 0.6521222 0.3230193 0.94181514 -1.3738259 -0.56398296
00000000: 83ac 353f 220b 2bbf 466f 593f a7f3 6a3f
00000010: 4667 873d a5a8 4c3f 5cd9 0dbf 4c33 5abe
00000020: 686a 873e 6525 2dbc 5819 ac3e b3f8 0c3f
00000030: e8ea e03e 2a18 293f b32e 7cbf a5c7 15bf
00000040: 24ad 0c3f 6556 55be d6b8 91be 62c6 353f
00000050: f4c8 1f3e cfb4 1d3f b197 32ba b3df 543e
00000060: a28c 603f ad23 fbbe 47e9 fcbd 6c40 a1bd
00000070: 4fd5 323f a22c 443f 16b3 19bf fd95 f0be
00000080: bc23 06bd 8fae d83e 52b5 90be 9370 4d3e
00000090: cc76 2b3f d2c1 91be f28b 02bf 81c7 423e
000000a0: 8f6f 663e 90ee 353f f8ef 0fbf 4767 a73e
000000b0: 2974 b73d b494 873e ad38 753f e477 95be
000000c0: 26fe a43e 6bbe 603e fa1a 693d e755 26be
000000d0: 2ff9 b13e ddf7 863e 30f1 c6be b221 ebbe
000000e0: 8d96 0b3f 75ed a0bf 3950 44bd 7bf1 263f
000000f0: c962 a53e cc1a 713f 87d9 afbf 3061 10bf

layers.1.bias f4 [8]
-0.25324127 0.42008793 -0.3225591 -0.35212412 -0.11878547 -0.27604493 0.3937479 -0.022857955
00000000: d7a8 81be c415 d73e 7726 a5be 9d49 b4be
00000010: cc45 f3bd c355 8dbe 5399 c93e 9b40 bbbc

layers.2.weight f4 [8, 8]
-0.3370385 0.38803765 0.32565278 -0.75137746 0.12825301 0.7075915 0.009123695 -0.14113125
0.64294136 -0.83371633 -0.43129432 0.59955436 0.041609734 -0.8229354 0.6789335 -1.1055394
-0.21038012 0.79916656 0.9372018 -0.80471706 -0.47812682 0.795835 -0.43944237 0.7173272
-0.011043185 0.90877795 0.770541 -0.06097143 -0.63007 0.123305514 -0.30775994 -0.10072135
-0.8167539 -0.09555785 0.35754925 -0.81664544 -0.77373046 0.044285312 -0.6350132 0.85020816
-0.15380192 0.21549334 -0.08947959 -0.7730407 -0.5756328 0.44135913 -0.22567154 0.6962243
1.0345845 -0.66269845 -0.50614923 1.10114 0.28966907 -1.0824436 0.51748395 -0.69476765
0.13832372 -0.28380167 -0.1036575 -0.41228217 -0.27029127 0.3090837 0.28388247 -0.08331999
00000000: 4f90 acbe dfac c63e f6bb a63e 465a 40bf
00000010: c254 033e b724 353f 8d7b 153c b684 10be
00000020: ce97 243f 6f6e 55bf 9cd2 dcbe 657c 193f
00000030: f86e 2a3d e5ab 52bf 96ce 2d3f 5182 8dbf
00000040: e36d 57be 2e96 4c3f 75ec 6f3f f001 4ebf
00000050: 0acd f4be d8bb 4b3f 97fe e0be c1a2 373f
00000060: 7aee 34bc aca5 683f 2d42 453f 2ebd 79bd
00000070: 444c 21bf 9a87 fc3d b692 9dbe ff46 cebd
00000080: c916 51bf d6b3 c3bd b210 b73e ad0f 51bf
00000090: 3313 46bf 8464 353d 3a90 22bf 3ea7 593f
000000a0: 407e 1dbe 49aa 5c3e 1341 b7bd ffe5 45bf
000000b0: ac5c 13bf d3f9 e13e 7116 67be c13b 323f
000000c0: 446d 843f 9ba6 29bf ff92 01bf 28f2 8c3f
000000d0: 814f 943e 838d 8abf d479 043f 4bdc 31bf
000000e0: bca4 0d3e 744e 91be 624a d4bd a616 d3be
000000f0: 9e63 8abe 3840 9e3e 0b59 913e aca3 aabd

layers.2.bias f4 [8]
0.4017572 -0.3167537 -0.34938458 0.27114236 0.26961905 -0.26776406 0.3992949 -0.34510806
00000000: 1fb3 cd3e 8a2d a2be 89e2 b2be 2cd3 8a3e
00000010: 820b 8a3e 5f18 89be 6270 cc3e 01b2 b0be

predict.weight f4 [1, 8]
0.43784776 -0.5606532 -0.5060499 0.7624363 0.75246525 -0.79328364 0.436215 -0.5036698
00000000: 952d e03e f886 0fbf 7c8c 01bf 062f 433f
00000010: 90a1 403f a314 4bbf 9357 df3e 81f0 00bf
