demo/data/example/models/model_dim4_lay4.pth (torch, 3841 bytes, 11 tensors)

linear.weight f4 [4, 1]
00000000: 6c0d ecbe f0fd 0ebf 1e07 173f 4c5b 673f
-0.4610399 -0.5585623 0.58995235 0.9037368

linear.bias f4 [4]
00000000: c6c9 793f a474 313f 8805 a1be a4d9 1d3f
0.97573507 0.69318604 -0.31449533 0.6166022

conv_0.weight f4 [4, 4]
00000000: ed56 543f 410a 13bf 6b85 20be 6088 07bf
00000010: 44cf df3e 551b 1c3f c3ef b43e c4da ec3e
00000020: b4c0 99be fe1f 1cbe ca9f 10bf 999b 253f
00000030: 4483 22be cd3c 55bf aec3 d4be c94e 21bf
0.8294514 -0.5743752 -0.15675895 -0.52942467 0.4371282 0.60979205 0.35339174 0.46260655
-0.30029833 -0.15246579 -0.5649382 0.6469055 -0.15870386 -0.832959 -0.41555542 -0.6301084

conv_0.bias f4 [4]
00000000: 0000 0000 0000 0000 0000 0000 0000 0000
0.0 0.0 0.0 0.0

layers.0.weight f4 [4, 4]
00000000: 8e24 ce3e 1509 0f3f 40cd 33bb ba65 a23e
00000010: 5809 233f ef92 b7be cc5e b43e a8f0 de3e
00000020: 58f9 c9bd a4e7 b9be 24b0 28be 8bf6 1dbe
00000030: 1f02 f03c 503d 463f 9720 9fbd 8b4c 02bf
0.40262264 0.55873233 -0.002743557 0.31718236 0.6368613 -0.3585429 0.35228574 0.4354298
-0.09862012 -0.3630954 -0.16473442 -0.1542608 0.029297886 0.77437305 -0.07769888 -0.50898045

layers.0.bias f4 [4]
00000000: 0000 0000 0000 0000 0000 0000 0000 0000
0.0 0.0 0.0 0.0

layers.1.weight f4 [4, 4]
00000000: 3724 ddbe d78e 993e 0dd3 133f 8753 4bbf
00000010: 2250 e6be f77f ccbe 9a8d 88bd 112f 05be
00000020: 8a26 a63e 0090 05bf 4cea 563e 27df e23e
00000030: 505d 353f 6887 c1be 5c54 49bf 49a1 b3be
-0.43191692 0.2999179 0.5774391 -0.7942433 -0.4498301 -0.3994138 -0.06667633 -0.13006236
0.32451278 -0.5217285 0.20987815 0.44310877 0.7084551 -0.3779862 -0.7864435 -0.35083988

layers.1.bias f4 [4]
00000000: 0000 0000 0000 0000 0000 0000 0000 0000
0.0 0.0 0.0 0.0

layers.2.weight f4 [4, 4]
00000000: e203 2c3f 5203 363f a278 913e 9944 953e
00000010: 9049 1b3f 5bfa 533f 6ab6 6d3d c573 a7be
00000020: 9ba4 92be 4c32 a8be 4f07 2a3f cfda 3bbf
00000030: 834e ca3e d0b0 a23e 9591 bfbe 7325 08bf
0.67193425 0.71098816 0.28412348 0.29153898 0.6065912 0.8280389 0.05803529 -0.32705513
-0.2864121 -0.32850873 0.664174 -0.7338075 0.39513025 0.31775522 -0.37415758 -0.5318214

layers.2.bias f4 [4]
00000000: 0000 0000 0000 0000 0000 0000 0000 0000
0.0 0.0 0.0 0.0

predict.weight f4 [1, 4]
00000000: c049 fcbc 68cf 06be 184c 85be 5436 fcbe
-0.030796885 -0.13165057 -0.26034617 -0.492602
