demo/data/example/models/model_dim16_lay1.pth (torch, 3159 bytes, 5 tensors)

linear.weight f4 [16, 1]
-0.48650527 -0.44981432 -0.601338 0.6411513 0.18062747 0.8170494 -0.49295127 0.18943417
-0.6813048 0.9942982 -0.75086415 0.26450408 -0.20575893 0.6278131 -0.13337803 -0.18622124
00000000: 3817 f9be 104e e6be 4af1 19bf 7e22 243f
00000010: 68f6 383e 262a 513f 1c64 fcbe 08fb 413e
00000020: fe69 2ebf 548a 7e3f a238 40bf 146d 873e
00000030: 78b2 52be 5cb8 203f 4094 08be c8b0 3ebe

linear.bias f4 [16]
-0.13613284 0.66756034 0.54911613 0.9110987 0.9801835 0.0033011436 0.7776511 -0.6540309
-0.69605243 0.99357617 0.52700305 -0.2776307 -0.6698017 0.74971724 0.9350778 0.86945987
00000000: 6866 0bbe 3ce5 2a3f e092 0c3f c43d 693f
00000010: 4eed 7a3f 0058 583b 2414 473f 926e 27bf
00000020: 7e30 32bf 025b 7e3f ace9 063f 9c25 8ebe
00000030: 2078 2bbf 78ed 3f3f 4261 6f3f ec94 5e3f

conv_0.weight f4 [16, 16]
0.24530797 0.2111919 0.13268575 0.061834097 -0.15616564 -0.22951695 0.15565817 -0.40597785
-0.2147591 0.18376298 -0.42238504 -0.16165441 0.28956643 0.25989735 -0.3436976 -0.43227392
-0.17779876 0.3024032 -0.12357575 0.10321602 -0.00094173953 -0.12237188 -0.029682964 -0.21376872
-0.034102697 0.29085246 0.007981144 -0.3735764 0.15580225 0.05321969 0.39961004 -0.08955202
-0.3208916 -0.08975458 -0.39755303 0.36378178 -0.0039231577 0.06661728 -0.23816817 -0.25330967
0.4163451 -0.30626726 0.18551783 -0.03486057 0.4244225 -0.38089558 0.04694079 -0.3219609
-0.40888488 -0.4036921 -0.2568943 -0.035908595 0.053010322 0.16720507 -0.07062674 0.23058558
-0.21826032 -0.10046049 -0.3149548 0.37196758 -0.337304 0.296741 0.08969738 -0.2202319
0.26454735 -0.3011879 0.029167496 0.2684305 0.31632742 -0.15625034 0.19845854 0.42479417
-0.1005294 0.26503918 -0.42762184 0.32301903 -0.3884277 0.22715615 -0.40716615 0.21550933
-0.110782824 -0.20095314 -0.09237554 0.24431796 -0.30124447 -0.05137797 -0.35013032 -0.297385
-0.13906871 0.4317866 -0.11762515 -0.08436936 -0.20751445 -0.42245597 -0.1737931 -0.13363786
0.022757484 0.14618385 -0.18068829 -0.008485773 0.059789516 0.1890352 -0.38494435 0.114816494
0.42517406 -0.37752703 0.41064256 0.112695 -0.21926028 0.026336238 0.14841126 0.3500371
-0.020855008 0.19939353 0.058644447 -0.21072061 0.059322674 -0.41186583 0.20535083 0.3827713
0.39033437 -0.034063675 0.19372316 0.41624174 0.023577144 0.24316898 0.3079614 -0.07749235
-0.055226333 0.13576685 0.40823862 -0.08894607 -0.17474693 0.06663272 -0.041947413 0.017351102
0.07910757 0.20336556 -0.006964041 -0.2936959 0.00054189767 0.21351868 0.037014067 -0.32207274
-0.36937168 -0.31220323 0.31597024 -0.306439 -0.07422863 -0.10062474 -0.08428543 0.01772916
0.20729677 -0.0724601 -0.13743295 0.055522267 -0.019151578 -0.16537966 -0.31036052 -0.15742442
-0.2990778 -0.37738663 -0.00052806374 -0.3645332 -0.14521599 -0.29765183 -0.3057632 -0.40914178
0.30926743 0.08309297 -0.39122015 0.36991414 0.14636023 -0.0925831 0.15042116 -0.24347703
-0.39019436 0.13504878 0.4099358 0.3399707 0.3072053 0.33184606 0.39213267 0.04622122
-0.073395446 -0.12184217 0.16173948 0.42290643 0.39390215 -0.25388262 0.16960923 -0.06970947
0.014391364 -0.046379846 0.1126537 0.057427216 0.34410802 -0.07441569 -0.16045277 -0.07069875
0.2037909 -0.38557604 -0.2580803 -0.36135682 -0.14445703 -0.108610325 0.26407477 0.115985356
0.38429058 -0.36376107 -0.14759402 0.2476043 0.094732314 -0.09580986 -0.3370275 0.0148744155
0.20972979 -0.38163817 -0.10600464 0.41910553 0.2198684 -0.07620492 0.35519096 -0.13139047
-0.21230677 0.10239322 0.37506706 0.310527 -0.008931349 0.110170305 -0.07932514 -0.4264647
-0.08313355 0.18068628 -0.0468694 -0.39674386 0.269835 -0.25371802 0.2271847 -0.2612048
-0.25723812 -0.28446284 0.23838213 0.2674008 0.17438018 0.27398494 0.39021513 -0.37689236
-0.34506464 -0.28047732 -0.33700585 0.0103899 0.11260265 0.30817616 -0.18764666 -0.25657606
00000000: 0332 7b3e b042 583e c6de 073e c045 7d3d
00000010: e3e9 1fbe 7e06 6bbe db64 1f3e 54dc cfbe
00000020: cfe9 5bbe 5d2c 3c3e da42 d8be bc88 25be
00000030: 0d42 943e 4411 853e 22f9 afbe 0253 ddbe
00000040: e110 36be 98d4 9a3e 4815 fdbd ec62 d33d
00000050: 12df 76ba 1c9e fabd b029 f3bc 30e6 5abe
00000060: 45af 0bbd 9dea 943e 58c3 023c 6845 bfbe
00000070: a08a 1f3e e4fc 593d b099 cc3e 0d67 b7bd
00000080: e74b a4be 40d1 b7bd 128c cbbe 9b41 ba3e
00000090: d58d 80bb a46e 883d 5be2 73be ceb1 81be
000000a0: 2f2b d53e 10cf 9cbe 63f8 3d3e f5c9 0ebd
000000b0: e84d d93e bf04 c3be fc44 403d 0fd8 a4be
000000c0: 5c59 d1be bbb0 cebe a687 83be e414 13bd
000000d0: 5a21 593d ce37 2b3e c1a4 90bd a01e 6c3e
000000e0: a27f 5fbe 3bbe cdbd c141 a1be 8972 be3e
000000f0: 1cb3 acbe 70ee 973e 43b3 b73d 7984 61be
00000100: c072 873e 4d35 9abe acf0 ee3c b96f 893e
00000110: abf5 a13e 1700 20be b738 4b3e 9f7e d93e
00000120: 5ce2 cdbd 37b3 873e 40f1 dabe c062 a53e
00000130: ffdf c6be 9f9b 683e 1578 d0be 7aae 5c3e
00000140: 1be2 e2bd a9c6 4dbe 632f bdbd 7d2e 7a3e
00000150: b73c 9abe b571 52bd 4844 b3be d942 98be
00000160: 0768 0ebe 2213 dd3e 74e5 f0bd d8c9 acbd
00000170: ab7e 54be 264c d8be d2f6 31be 5dd8 08be
00000180: e76d ba3c 38b1 153e 5a06 39be e907 0bbc
00000190: dae5 743d 7292 413e 6d17 c5be e924 eb3d
000001a0: 6ab0 d93e 394b c1be be3f d23e a3cc e63d
000001b0: c485 60be 18bf d73c 1ff9 173e 1038 b33e
000001c0: 1fd8 aabc d12d 4c3e 2935 703d 25c7 57be
000001d0: 55fc 723d 14e0 d2be 7d47 523e 9afa c33e
000001e0: e8d9 c73e 5a86 0bbd 5d5f 463e a31d d53e
000001f0: db24 c13c 4a01 793e 1ead 9d3e 4fb4 9ebd
00000200: 0235 62bd 7706 0b3e a704 d13e 5b29 b6bd
00000210: dcf0 32be bc76 883d 0dd1 2bbd e623 8e3c
00000220: 2603 a23d 103f 503e 9c32 e4bb 4f5f 96be
00000230: 230e 0e3a a4a4 5a3e 109c 173d b8e6 a4be
00000240: 491e bdbe 1ad9 9fbe dac6 a13e 93e5 9cbe
00000250: 2e05 98bd 5814 cebd d79d acbd be3c 913c
00000260: 9b45 543e f665 94bd 39bb 0cbe 516b 633d
00000270: c5e3 9cbc 4959 29be 93e7 9ebe de33 21be
00000280: ba20 99be d238 c1be c26d 0aba 18a4 babe
00000290: 80b3 14be d265 98be ff8c 9cbe 087b d1be
000002a0: 4d58 9e3e a62c aa3d 024e c8be 6365 bd3e
000002b0: 75df 153e 359c bdbd 0108 1a3e 0b52 79be
000002c0: 8ec7 c7be 3a4a 0a3e 1be3 d13e a410 ae3e
000002d0: 034a 9d3e bae7 a93e 9dc5 c83e 7652 3d3d
000002e0: 5a50 96bd 6388 f9bd 099f 253e 3187 d83e
000002f0: 8bad c93e e7fc 81be 0bae 2d3e d7c3 8ebd
00000300: c1c9 6b3c cbf8 3dbd fcb6 e63d cd38 6b3d
00000310: ed2e b03e 4167 98bd bb4d 24be 82ca 90bd
00000320: 90ae 503e 396a c5be 1a23 84be c303 b9be
00000330: 8bec 13be 176f debd cf34 873e bb89 ed3d
00000340: bcc1 c43e e43e babe e322 17be fb8b 7d3e
00000350: 0403 c23d f637 c4bd de8e acbe d2b3 733c
00000360: 68c3 563e 1466 c3be f618 d9bd 0095 d63e
00000370: 2f25 613e 5311 9cbd 97db b53e 398b 06be
00000380: f266 59be 89b3 d13d ca08 c03e 65fd 9e3e
00000390: cb54 12bc f8a0 e13d 3875 a2bd 9559 dabe
000003a0: ec41 aabd d305 393e 21fa 3fbd 0322 cbbe
000003b0: d027 8a3e 54e7 81be 1ba3 683e a3bc 85be
000003c0: b7b4 83be 1da5 91be 721a 743e c2e8 883e
000003d0: b890 323e c147 8c3e 47ca c73e 09f8 c0be
000003e0: 50ac b0be b99a 8fbe 088c acbe 663a 2a3c
000003f0: 389c e63d 44c9 9d3e 7226 40be f05d 83be

conv_0.bias f4 [16]
0.0 0.0 0.0 0.0 0.0 0.0 0.0 0.0
0.0 0.0 0.0 0.0 0.0 0.0 0.0 0.0
00000000: 0000 0000 0000 0000 0000 0000 0000 0000
00000010: 0000 0000 0000 0000 0000 0000 0000 0000
00000020: 0000 0000 0000 0000 0000 0000 0000 0000
00000030: 0000 0000 0000 0000 0000 0000 0000 0000

predict.weight f4 [1, 16]
0.12166363 0.09739891 0.20304576 -0.05317402 6.4879656e-05 -0.15034917 -0.0033223033 -0.15694672
-0.079679996 0.039696097 0.17396736 -0.1658625 0.22859818 0.05383733 0.09161615 -0.2407577
00000000: c82a f93d 1479 c73d 3aeb 4f3e 00cd 59bd
00000010: 0010 8838 22f5 19be 00bb 59bb a4b6 20be
00000020: 442f a3bd 6098 223d 8024 323e dcd7 29be
00000030: a415 6a3e 8884 5c3d 40a1 bb3d 3089 76be
