demo/data/example/models/model_dim4_lay4.pth (torch, 3841 bytes, 11 tensors)

linear.weight f4 [4, 1]
0	0xbf9de3d6	-1.2335155
1	0x3c83d3dc	0.016092233
2	0x3f91271e	1.1340063
3	0xbe1c740e	-0.15278646

linear.bias f4 [4]
0	0xbf343082	-0.7038652
1	0x3fac6354	1.3467813
2	0x3e038efc	0.12847513
3	0x3e8de5c2	0.27714354

conv_0.weight f4 [4, 4]
0	0xbf825f89	-1.0185405
1	0xbde64969	-0.112444706
2	0x3f7c01d3	0.98440284
3	0xbf35c339	-0.7100101
4	0xbe34c2be	-0.17652413
5	0xbf877499	-1.0582458
6	0xbf149ed7	-0.5805487
7	0x3f72c59e	0.9483279
8	0x3f207ecd	0.6269348
9	0xbf1e2475	-0.6177438
10	0x3e4b2c46	0.19841108
11	0xbe04b544	-0.12959772
12	0x3ea6fabf	0.3261318
13	0xbf2f2493	-0.6841518
14	0xbf07c4c3	-0.5303461
15	0xbeed42af	-0.46339938

conv_0.bias f4 [4]
0	0x3e9182b8	0.28420043
1	0xbe8e1c30	-0.2775588
2	0xbe9954a1	-0.2994738
3	0x3ea2befb	0.31786332

layers.0.weight f4 [4, 4]
0	0x3f40336d	0.7507847
1	0x3f31f749	0.6951795
2	0xbd9c7812	-0.07640089
3	0x3f1c2863	0.60999125
4	0xbee37482	-0.44424826
5	0x3d85a791	0.065261014
6	0xbea8454d	-0.32865372
7	0x3dd6894f	0.10475408
8	0xbf4acc2d	-0.792178
9	0xbf0eecdd	-0.55830175
10	0x3edfa4d4	0.4368044
11	0xbf77d17c	-0.9680402
12	0x3f6a747d	0.91583997
13	0xbe602b58	-0.21891534
14	0x3f5a9945	0.8539012
15	0x3f801c98	1.0008726

layers.0.bias f4 [4]
0	0x3e7eda81	0.2488804
1	0x3e8c0832	0.27350003
2	0x3e3dd548	0.18538392
3	0x3e8f9936	0.28046578

layers.1.weight f4 [4, 4]
0	0x3f8d620b	1.1045545
1	0xbe50a051	-0.20373656
2	0x3deb1e7f	0.11480426
3	0xbf785dbe	-0.9701804
4	0x3eefda6e	0.46846336
5	0xbf4b9669	-0.7952638
6	0x3b8c07b3	0.0042733788
7	0x3ebd075d	0.3691968
8	0x3eaeb7d7	0.34124634
9	0xbf7f5c45	-0.9975017
10	0x3f113997	0.567285
11	0xbf76d563	-0.9641935
12	0x3e9c1200	0.30482483
13	0xbedf0bda	-0.4356373
14	0xbec27433	-0.37979278
15	0xbf464d54	-0.77461743

layers.1.bias f4 [4]
0	0x3e8aef15	0.2713553
1	0xbe532367	-0.20618974
2	0xbd5819b1	-0.052758876
3	0xbe5fe6b1	-0.21865346

layers.2.weight f4 [4, 4]
0	0x3e7a718a	0.24457374
1	0xbf65a86b	-0.8971011
2	0xbf7a79d9	-0.97842175
3	0xbf00cd6a	-0.50313437
4	0xbe7ba7fc	-0.245758
5	0x3f62c08a	0.8857504
6	0x3f6af7db	0.9178445
7	0xbf02f975	-0.5116189
8	0x3f1cb9fd	0.61221296
9	0x3f2a3919	0.66493374
10	0x3f118caa	0.5685526
11	0x3e591f9d	0.21203466
12	0x3d88bd5a	0.06676741
13	0x3dd6e653	0.104931496
14	0x3f7200d2	0.945325
15	0xbf179fcd	-0.5922821

layers.2.bias f4 [4]
0	0x3e5365b0	0.2064426
1	0xbe47efe5	-0.19525106
2	0xbe4f1ea2	-0.20226529
3	0x3e07b660	0.13253164

predict.weight f4 [1, 4]
0	0xbf078f81	-0.52953345
1	0x3f116bbb	0.5680501
2	0x3f00ab96	0.5026182
3	0xbde21a49	-0.1104017
