demo/data/example/models/model_dim32_lay4.pth (torch, 20609 bytes, 11 tensors)

linear.weight f4 [32, 1]
0	0xbe923d50	-0.28562403
1	0xbf7ba294	-0.9829495
2	0xbe265950	-0.16245008
3	0x3f4fa0ba	0.81104624
4	0x3f5d1ed4	0.86375165
5	0xbedb33f0	-0.42813063
6	0x3f7ba414	0.9829724
7	0x3f3fde14	0.7494824
8	0xbe9c0e44	-0.30479634
9	0xbd0d1ba0	-0.034450173
10	0xbe2399c8	-0.15976632
11	0xbf63c52e	-0.8897275
12	0x3f61382e	0.8797635
13	0x3f200740	0.6251106
14	0x3e8bad3c	0.27280605
15	0x3e22b188	0.15888035
16	0x3f6b7816	0.9198011
17	0xbf18c714	-0.5967877
18	0x3efa0db8	0.48838592
19	0x3e5ab308	0.21357358
20	0xbf24b9e0	-0.6434612
21	0x3e56a7f0	0.209625
22	0x3f0f3b7a	0.5595013
23	0x3f50b7a0	0.8153019
24	0x3f4bc5be	0.79598606
25	0xbf40b884	-0.7528155
26	0x3f1d807e	0.6152419
27	0x3de433b0	0.11142671
28	0xbecf764c	-0.4051994
29	0x3e98d688	0.29851174
30	0xbf07294c	-0.5279739
31	0xbf1cad36	-0.612018

linear.bias f4 [32]
0	0xbe758380	-0.23975945
1	0xbf22d60a	-0.6360785
2	0x3e1be338	0.15223396
3	0x3bd02100	0.00635159
4	0xbd6d3120	-0.057908177
5	0xbe826a40	-0.25471687
6	0xbf6a510c	-0.9152992
7	0x3f30f4a0	0.6912327
8	0xbef82810	-0.48468065
9	0xbee9aa0c	-0.45637548
10	0xbf2205c8	-0.6329007
11	0x3f271a8c	0.6527488
12	0x3e47b7a0	0.19503641
13	0xbeac68b4	-0.33673632
14	0x3f603072	0.8757392
15	0xbdd2cd10	-0.10293019
16	0x3ef19558	0.47184253
17	0x3f1e576a	0.61852133
18	0xbf2514d4	-0.64484906
19	0xbe505940	-0.20346546
20	0xbee5edd4	-0.4490801
21	0x3ebf60ac	0.37378442
22	0xbf08f9b6	-0.5350603
23	0x3ee8378c	0.4535488
24	0xbe9b41ec	-0.30323732
25	0x3e758590	0.23976731
26	0xbf58f11c	-0.84742904
27	0x3f246b3e	0.6422614
28	0x3f480364	0.78130174
29	0xbd7f82e0	-0.06238067
30	0xbf640580	-0.8907089
31	0xbf32a29e	-0.69779384

conv_0.weight f4 [32, 32]
0	0xbe1a88f4	-0.15091306
1	0xbe76609a	-0.24060288
2	0xbe3fe2fa	-0.18738928
3	0x3e671074	0.2256487
4	0x3dbcc8cc	0.092179865
5	0xbe32be25	-0.17455347
6	0xbe592bda	-0.21208134
7	0x3d8145da	0.06312151
8	0xbe4b89b8	-0.19876754
9	0xbe16f305	-0.14741142
10	0x3e8154cc	0.25260007
11	0x3dddf9b2	0.10838641
12	0x3e29aa25	0.16568811
13	0xbe959e6e	-0.29222435
14	0xbd6db36a	-0.05803243
15	0x3e034437	0.1281899
16	0xbe65788e	-0.22409269
17	0x3b41b54f	0.0029557531
18	0xbe9c8026	-0.3056652
19	0x3e7c36b2	0.2463024
20	0x3c05fe32	0.008178281
21	0x3d9ab2aa	0.07553609
22	0xbe6e201e	-0.23254439
23	0xbdb5b189	-0.08871753
24	0xbcc0c2a8	-0.02353032
25	0x3e13a3c1	0.14417936
26	0x3e9b2999	0.30305174
27	0x3d5ba56b	0.05362455
28	0x3d8d86f1	0.06910504
29	0xbe65d321	-0.2244382
30	0x3e505fbc	0.2034902
31	0xbe44d409	-0.1922151
32	0xbe987d39	-0.29783037
33	0x3d2b958e	0.041890673
34	0xbe1b7306	-0.15180597
35	0x3e0dc913	0.13846235
36	0xbdd7a10d	-0.10528765
37	0x3e10bfa7	0.1413561
38	0x3e925d08	0.28586602
39	0xbdd08528	-0.101816475
40	0xbe2b4c7d	-0.16728397
41	0x3e85a54d	0.26102677
42	0xbdf5f063	-0.12008741
43	0x3e2a29ce	0.1661751
44	0xbe62845a	-0.221208
45	0x3e47342d	0.19453497
46	0x3ddeb0ee	0.108735904
47	0xbce84598	-0.028353497
48	0x3dd953b4	0.10611668
49	0x3e1bdcf2	0.15221003
50	0xbe381d49	-0.17979921
51	0xbe825b69	-0.25460365
52	0xbe8d9089	-0.27649334
53	0x3e2a498d	0.1662962
54	0xbe555249	-0.2083217
55	0x3dd3780a	0.1032563
56	0xbe0139d3	-0.12619714
57	0x3d4020fe	0.046906464
58	0xbd18cef7	-0.037306752
59	0xbe8e3c98	-0.27780604
60	0x3d57f42f	0.052723106
61	0x3e1cc2c7	0.15308677
62	0xbd9a19b4	-0.07524434
63	0xbe808fa4	-0.2510959
64	0x3d9c440e	0.07630168
65	0xbdf2b7e7	-0.11851483
66	0xbe8d1d8e	-0.2756161
67	0xbdc20690	-0.09473908
68	0xbe7c51e1	-0.2464061
69	0xbd6b60f4	-0.05746551
70	0x3de296de	0.11063932
71	0x3e787cd0	0.24266362
72	0xbd8daf03	-0.069181465
73	0xbe701829	-0.23446716
74	0xbe1d75ed	-0.15377016
75	0xbcbaa991	-0.022785934
76	0xbd80149a	-0.062539294
77	0x3d9ea9a2	0.07747199
78	0xbdcb4ab9	-0.099263616
79	0xbd35e084	-0.044403568
80	0x3e99abc3	0.30013856
81	0x3dcab6a9	0.09898121
82	0x3e189b9f	0.14903115
83	0x3e911e1c	0.28343284
84	0x3d5077d7	0.05089554
85	0x3c0f344a	0.008740494
86	0x3e430091	0.19043185
87	0x3dc77ae3	0.09740236
88	0x3e4178de	0.18893763
89	0xbd83fcf4	-0.06444731
90	0x3e8373c3	0.25674257
91	0x3e69a32a	0.22816148
92	0x3e20acd7	0.15690933
93	0xbd604288	-0.05475095
94	0xbddb9b10	-0.10722935
95	0xbccd4f8c	-0.025062345
96	0xbddc36f8	-0.10752672
97	0xbe3fd700	-0.1873436
98	0xbd892338	-0.066961706
99	0x3e1ee5aa	0.15517297
100	0xbdf85b3f	-0.12126779
101	0x3e2add2e	0.16685936
102	0xbe0a9c6b	-0.13536231
103	0xbd980220	-0.0742228
104	0xbe868215	-0.2627112
105	0xbdd2f4dc	-0.103006095
106	0xbd085e2b	-0.03329293
107	0x3d84e343	0.06488659
108	0xbe623041	-0.2208872
109	0xbe583e31	-0.21117474
110	0xbe2de364	-0.16981274
111	0xbe989495	-0.2980086
112	0xbe7f2b3c	-0.24918836
113	0xbe2a699d	-0.16641851
114	0x3d80df8c	0.06292638
115	0x3d2e6597	0.042577352
116	0x3dcc5285	0.09976677
117	0x3e1a066f	0.15041517
118	0x3e9a6184	0.30152524
119	0x3e42dbf0	0.19029212
120	0x3e96dfbd	0.29467574
121	0xbe7f867a	-0.24953642
122	0xbe99e904	-0.3006059
123	0xbdf18421	-0.1179278
124	0xbe2f5175	-0.17120917
125	0x3df31e97	0.11871069
126	0x3e6f6c8f	0.23381256
127	0xbd58afe0	-0.052902102
128	0xbc578ff2	-0.013156878
129	0xbe88728b	-0.2664989
130	0x3b0df678	0.00216618
131	0x3e0b8770	0.13625884
132	0xbe48393b	-0.19553082
133	0xbde45446	-0.111488864
134	0xbbfdfe52	-0.0077512646
135	0xbd1c433b	-0.038150053
136	0xbe09035b	-0.13380186
137	0x3e8a1985	0.26972595
138	0x3e0246db	0.12722342
139	0xbe0e6a52	-0.13907745
140	0x3e50a551	0.20375563
141	0x3e4f3d32	0.20238188
142	0xbdb95c3a	-0.09050794
143	0xbc950e3b	-0.018195262
144	0xbe90b92c	-0.28266275
145	0xbe694692	-0.22780827
146	0xbe094d2d	-0.13408346
147	0x3dedbf6e	0.11608778
148	0xbdd17e11	-0.102291234
149	0xbe8b1be0	-0.27169704
150	0xbce6a1d0	-0.02815333
151	0x3d2a3e0d	0.041563082
152	0x3e4de60e	0.2010729
153	0xbdd9011c	-0.10595915
154	0x3d1e0230	0.038576305
155	0x3dd420d3	0.10357823
156	0x3dc10f08	0.09426695
157	0xbe82bc44	-0.2553426
158	0x3e81ffc5	0.2539045
159	0xbc36fccf	-0.011168673
160	0x3d0bb07c	0.034103855
161	0xbdd53d4b	-0.10412081
162	0x3c35deae	0.011100454
163	0x3cd2b8bb	0.025722852
164	0x3e6f0841	0.23342992
165	0xbd4b03c8	-0.049564153
166	0x3db5dcab	0.0887998
167	0xbe4663a5	-0.19373949
168	0xbe30ab09	-0.17252745
169	0xbe694aab	-0.2278239
170	0x3e87c604	0.2651826
171	0x3e7be94f	0.24600719
172	0x3a616b88	0.0008599092
173	0x3e1d41b3	0.15357094
174	0x3e47269f	0.19448327
175	0x3e885dde	0.26634115
176	0x3b6fc351	0.0036584924
177	0x3dc98125	0.098390855
178	0xbe8acb45	-0.27108207
179	0xbe4c323d	-0.1994104
180	0xbe800eda	-0.2501133
181	0x3e1469e0	0.14493513
182	0x3e4fe831	0.20303418
183	0x3cdbc4a6	0.026827168
184	0x3c48ddfd	0.012259957
185	0x3e6a3def	0.22875188
186	0x3e12b651	0.1432736
187	0xbdadc917	-0.084856205
188	0xbd5b9040	-0.053604364
189	0x3e765737	0.24056707
190	0xbe91a88f	-0.28448913
191	0xbc770c9a	-0.015078688
192	0xbdc0c762	-0.09413029
193	0xbe8d88e9	-0.27643517
194	0x3e0f5d5b	0.14000456
195	0xbe0efbe7	-0.1396328
196	0x3d3d9532	0.046284862
197	0xbe893b9a	-0.26803285
198	0xbe83fac8	-0.25777268
199	0x3e738b8e	0.23783705
200	0xbe4038d1	-0.18771674
201	0xbcf876bf	-0.03033006
202	0xbe0c834e	-0.13721964
203	0x3e878006	0.26464862
204	0xbe1fbe06	-0.15599832
205	0x3e9c271c	0.30498588
206	0x3de0767c	0.10960099
207	0x3d1d6010	0.03842169
208	0x3d815f66	0.06317024
209	0x3d41bf6a	0.047301687
210	0xbde790e3	-0.11306932
211	0x3d3ce85b	0.04612003
212	0x3e6af5ee	0.22945377
213	0xbc6bf72d	-0.014402193
214	0x3d801f79	0.06256003
215	0x3e80fc5d	0.25192538
216	0x3d3b0fb8	0.045669287
217	0xbd039837	-0.032127585
218	0xbe529565	-0.20564802
219	0x3e3b4cd0	0.1829102
220	0xbb0e33b5	-0.00216983
221	0xbd33fe4f	-0.0439437
222	0x3d627b32	0.05529327
223	0xbe5edb0a	-0.21763244
224	0xbe15a267	-0.14612733
225	0x3dfc8db1	0.12331713
226	0x3cba4473	0.022737717
227	0x3e3d488b	0.18484704
228	0xbe56e4a9	-0.20985664
229	0x3e79f947	0.24411498
230	0xbd197aed	-0.037470747
231	0xbcdf97fc	-0.027294151
232	0xbe7a2137	-0.24426733
233	0x3e302912	0.17203167
234	0x3e8b9637	0.27263042
235	0x3e96790d	0.2938923
236	0x3e204861	0.1565261
237	0xbdcb5d70	-0.09929931
238	0x3c5bfc39	0.013426834
239	0xbe0d9332	-0.13825682
240	0xbdb31c9d	-0.08745692
241	0xbe64f718	-0.22359884
242	0x3c1dfc99	0.0096427435
243	0x3e716c37	0.23576437
244	0x3d26342d	0.040577102
245	0xbcde5691	-0.027140887
246	0x3e425c22	0.18980458
247	0xbe8e3eed	-0.27782384
248	0xbe6204ee	-0.22072193
249	0x3d898950	0.067156434
250	0xbe111ab4	-0.14170343
251	0x3e04be20	0.12963152
252	0xbe834921	-0.2564173
253	0xbe072880	-0.13199043
254	0x3e46a251	0.19397856
255	0xbe8b2720	-0.27178288

conv_0.bias f4 [32]
0	0x00000000	0.0
1	0x00000000	0.0
2	0x00000000	0.0
3	0x00000000	0.0
4	0x00000000	0.0
5	0x00000000	0.0
6	0x00000000	0.0
7	0x00000000	0.0
8	0x00000000	0.0
9	0x00000000	0.0
10	0x00000000	0.0
11	0x00000000	0.0
12	0x00000000	0.0
13	0x00000000	0.0
14	0x00000000	0.0
15	0x00000000	0.0
16	0x00000000	0.0
17	0x00000000	0.0
18	0x00000000	0.0
19	0x00000000	0.0
20	0x00000000	0.0
21	0x00000000	0.0
22	0x00000000	0.0
23	0x00000000	0.0
24	0x00000000	0.0
25	0x00000000	0.0
26	0x00000000	0.0
27	0x00000000	0.0
28	0x00000000	0.0
29	0x00000000	0.0
30	0x00000000	0.0
31	0x00000000	0.0

layers.0.weight f4 [32, 32]
0	0x3e6e7208	0.23285687
1	0xbd18e3d3	-0.037326645
2	0xbe92d2cd	-0.28676453
3	0xbe8a1348	-0.26967835
4	0x3ce63123	0.028099602
5	0x3e8c4a6e	0.27400535
6	0x3e31033d	0.17286392
7	0xbdf980c8	-0.12182766
8	0x3e4c8866	0.19973907
9	0x3cd42f5a	0.025901485
10	0x3e110acb	0.14164273
11	0x3e788818	0.24270666
12	0x3e865c49	0.26242283
13	0xbe13cb2a	-0.1443297
14	0xbcbe55dd	-0.023234302
15	0x3e5f1ee6	0.2178913
16	0x3d6e92bd	0.05824541
17	0x3e20e29a	0.15711442
18	0xbe563188	-0.20917332
19	0x3e658394	0.22413474
20	0xbe5633bc	-0.20918173
21	0x3e73597c	0.23764604
22	0x3de8c834	0.11366311
23	0xbc8cfd4f	-0.01721063
24	0xbdc62c5c	-0.0967643
25	0x3c38b93d	0.011274633
26	0xbe88680d	-0.26641884
27	0xbe105bc5	-0.14097507
28	0xbe604a76	-0.21903405
29	0x3e7e6bd2	0.24845818
30	0xbdf975cc	-0.12180671
31	0xbd1c3efc	-0.038146004
32	0x3d846b33	0.06465759
33	0x3e9121d2	0.28346115
34	0xbe1369c2	-0.14395812
35	0x3e21c1b2	0.15796545
36	0xbd8cf49f	-0.06882595
37	0xbd8a18ea	-0.06743033
38	0x3e0b7d86	0.13622102
39	0xbe871806	-0.26385516
40	0xbe8c615d	-0.27418032
41	0xbe3fb728	-0.18722212
42	0x3d062600	0.032751083
43	0x3e8f6f3b	0.2801455
44	0x3cdd734d	0.027032519
45	0x3e28a8d3	0.16470651
46	0x3d115ffb	0.035491925
47	0x3e303d8e	0.17210981
48	0xbe3aeeb0	-0.18255115
49	0x3e973f58	0.29540515
50	0x3e52afee	0.20574924
51	0x3d038a53	0.032114338
52	0xbd38feef	-0.045165
53	0xbc2548a4	-0.01008812
54	0x3e3de3fe	0.18544003
55	0x3dd571ab	0.10422071
56	0xbdb99850	-0.090622544
57	0x3e61bf6b	0.22045676
58	0x3dcc9dd8	0.09991044
59	0x3d8274d3	0.06369939
60	0xbbdf2f93	-0.006811091
61	0xbe8d8458	-0.27640033
62	0xbe86ff3f	-0.26366612
63	0xbbf1b095	-0.0073757865
64	0x3d479079	0.048721764
65	0xbd794db0	-0.060865104
66	0x3e4e95d8	0.20174348
67	0xbde07934	-0.10960618
68	0x3e8f123e	0.27943605
69	0x3e81ae1d	0.2532815
70	0xbe247769	-0.16061176
71	0xbe61b6eb	-0.22042434
72	0xbe52a301	-0.20569994
73	0x3e39aec5	0.18133076
74	0x3e475f15	0.19469865
75	0xbe5a8f42	-0.21343711
76	0xbd5dfcd1	-0.054196183
77	0xbdf42fbf	-0.11923169
78	0x3d9dd5ec	0.07706818
79	0x3d7c31b3	0.061570834
80	0xbe9ac0a8	-0.3022511
81	0xbe878f77	-0.26476642
82	0x3dc983d8	0.098396
83	0x3e34f953	0.17673235
84	0xbe2aaf6a	-0.16668478
85	0x3e048b85	0.12943847
86	0xbe8aae96	-0.27086323
87	0xbe6205e1	-0.22072555
88	0x3e26fd2f	0.1630752
89	0x3e755921	0.23959781
90	0x3d228a71	0.03968281
91	0x3e641259	0.22272624
92	0x3e6d9d52	0.23204544
93	0xbd9eb795	-0.07749859
94	0x3e537cb6	0.20653042
95	0xbd15d0ed	-0.0365762
96	0x3e582081	0.2110615
97	0x3ae3bc4f	0.0017374846
98	0xbe676454	-0.22596866
99	0x3dfc6375	0.123236574
100	0x3d8b9ea1	0.068173654
101	0x3e785bdc	0.24253792
102	0x3dc79bb5	0.09746496
103	0x3e2acdd0	0.16680074
104	0xbe391307	-0.18073665
105	0xbda78a2a	-0.081806496
106	0xbe35aa61	-0.17740776
107	0x3cfaf4ea	0.030634362
108	0x3e381d4e	0.17979929
109	0x3d8e1452	0.069374695
110	0xbe7ba520	-0.24574709
111	0xbe883e2e	-0.2660994
112	0x3ce232dc	0.027612142
113	0x3cc3ceab	0.023902258
114	0xbe0f6d65	-0.14006574
115	0xbe759fc1	-0.23986723
116	0x3e7ef44d	0.24897881
117	0x3e965e96	0.29369038
118	0xbd08bf89	-0.033385787
119	0x3dfc1a73	0.12309732
120	0xbdccf6d4	-0.10008016
121	0xbe8f9b97	-0.28048393
122	0xbd7e8348	-0.06213692
123	0xbd8ba14a	-0.06817873
124	0x3b517c85	0.0031965089
125	0xbde619b7	-0.112353735
126	0xbe77721d	-0.24164625
127	0x3e24930b	0.16071717
128	0x3e57b88d	0.21066494
129	0xbd9aaf5f	-0.07552981
130	0x3e5f4808	0.21804821
131	0x3df0cc12	0.11757673
132	0xbd379796	-0.044822298
133	0x3e7eaa8f	0.2486975
134	0xbe48c585	-0.19606598
135	0xbe053e11	-0.13011958
136	0xbe4bf973	-0.19919376
137	0x3dc01ab2	0.09380092
138	0x3e01ba93	0.12668829
139	0x3a0cceb1	0.00053713756
140	0xbd528537	-0.051396575
141	0x3e05c9cf	0.13065265
142	0xbe0cbe2d	-0.13744421
143	0xbdbbfd3e	-0.091791615
144	0xbe1533bd	-0.14570518
145	0x3dd506f7	0.10401719
146	0x3e60aa4a	0.2193996
147	0xbe42a3d4	-0.19007808
148	0xbdd6c7ee	-0.10487352
149	0x3d1fb713	0.038992953
150	0xbe836553	-0.25663242
151	0xbe6e1131	-0.23248746
152	0x3e499990	0.19687486
153	0x3dae88db	0.08522197
154	0xbd1be644	-0.038061395
155	0xbe869ac4	-0.26289952
156	0xbe0e2477	-0.13881098
157	0x3c1dcc87	0.009631283
158	0xbdf95f29	-0.121763535
159	0x3e176003	0.1478272
160	0x3e272cdb	0.16325705
161	0x3e24ba01	0.1608658
162	0x3c4d8449	0.012543746
163	0xbe4883bb	-0.19581501
164	0xbdce283b	-0.10066267
165	0xbe787df8	-0.24266803
166	0xbd4dd3ef	-0.050250944
167	0xbe5108cc	-0.20413512
168	0xbe09f782	-0.13473323
169	0x3d8e3eff	0.06945609
170	0x3e802507	0.2502825
171	0xbad4f512	-0.0016247353
172	0x3e859174	0.26087534
173	0x3e1b1a42	0.15146735
174	0xbdfe9976	-0.12431614
175	0x3d3970fd	0.04527377
176	0x3e21fed7	0.1581987
177	0xbe8d5c3b	-0.2760943
178	0xbe0b476d	-0.13601466
179	0xbe8c9536	-0.2745759
180	0x3e782495	0.24232705
181	0xbd90fe6c	-0.07079777
182	0x3e16b200	0.14716339
183	0x3df554c9	0.11979062
184	0x3c1af1d0	0.009457067
185	0x3e9c160f	0.3048558
186	0x3e081164	0.13287884
187	0xbca12761	-0.019672098
188	0x3e5ce786	0.21572694
189	0xbe538e42	-0.20659736
190	0xbdce7164	-0.10080221
191	0x3e797e61	0.24364616
192	0xbe1b75ec	-0.15181702
193	0x3d8400a0	0.06445432
194	0x3e881f09	0.26586178
195	0x3e1f3b45	0.15549953
196	0x3e51c786	0.20486268
197	0xbe96d036	-0.29455727
198	0xbe718a54	-0.23587924
199	0xbda22471	-0.07917107
200	0xbe825c65	-0.25461116
201	0x3e8dbc13	0.27682552
202	0xbd3dc872	-0.046333738
203	0xbddf0f9e	-0.108916506
204	0x3e9bada9	0.3040593
205	0x3e3f61cc	0.1868965
206	0x3d1d707b	0.038437348
207	0xbe7d0cac	-0.24711865
208	0xbdf663ea	-0.12030776
209	0xbe1d24d0	-0.15346074
210	0xbdb001d9	-0.085941024
211	0x3e7acc2e	0.24491951
212	0x3e8e77f5	0.27825895
213	0x3e65f4d2	0.22456673
214	0x3d50f80e	0.051017813
215	0x3e98e4eb	0.2986215
216	0xbda1fb6a	-0.079092816
217	0x3e92df31	0.28685907
218	0xbcdc24a3	-0.026872938
219	0x3e3979ed	0.18112917
220	0xbe3f4453	-0.18678407
221	0x3e57c551	0.21071364
222	0xbdee48d5	-0.11634985
223	0xbe0ff2e2	-0.14057496
224	0x3e0a1dc8	0.13487923
225	0x3e98a4d5	0.29813257
226	0x3e22f464	0.1591354
227	0x3ddd49a8	0.108050644
228	0x3e9619f8	0.29316688
229	0xbd9efa99	-0.077626415
230	0x3e945378	0.28969932
231	0x3db17090	0.08664048
232	0x3e89d109	0.26917294
233	0x3ba084a4	0.0048986245
234	0x3dc4ac93	0.096032284
235	0xbe8d062a	-0.27543765
236	0x3e966ea1	0.29381278
237	0xbda68cc7	-0.0813232
238	0x3e7a2fe2	0.24432328
239	0xbe74d9ba	-0.23911181
240	0xbe209b3e	-0.1568422
241	0x3e5e5cc4	0.21715075
242	0xbdd6a9ec	-0.10481629
243	0x3d96a2bd	0.073552586
244	0xbe36c059	-0.17846812
245	0x3e0a9e1d	0.13536878
246	0x3c8f2437	0.017473323
247	0x3d919a31	0.07109488
248	0xbe7c46b9	-0.24636354
249	0x3d5cb76a	0.053885855
250	0xbbf687b8	-0.007523503
251	0xbe2adc8d	-0.16685696
252	0xbdca8ced	-0.09890161
253	0xbe6ae326	-0.22938213
254	0x3badad4d	0.0053002
255	0xbe80f6da	-0.25188333

layers.0.bias f4 [32]
0	0x00000000	0.0
1	0x00000000	0.0
2	0x00000000	0.0
3	0x00000000	0.0
4	0x00000000	0.0
5	0x00000000	0.0
6	0x00000000	0.0
7	0x00000000	0.0
8	0x00000000	0.0
9	0x00000000	0.0
10	0x00000000	0.0
11	0x00000000	0.0
12	0x00000000	0.0
13	0x00000000	0.0
14	0x00000000	0.0
15	0x00000000	0.0
16	0x00000000	0.0
17	0x00000000	0.0
18	0x00000000	0.0
19	0x00000000	0.0
20	0x00000000	0.0
21	0x00000000	0.0
22	0x00000000	0.0
23	0x00000000	0.0
24	0x00000000	0.0
25	0x00000000	0.0
26	0x00000000	0.0
27	0x00000000	0.0
28	0x00000000	0.0
29	0x00000000	0.0
30	0x00000000	0.0
31	0x00000000	0.0

layers.1.weight f4 [32, 32]
0	0xbe2552c8	-0.1614486
1	0x3dd1d4c2	0.102456585
2	0xbe83ce3e	-0.25743288
3	0xbdaa5f63	-0.08318975
4	0x3e89c9ce	0.26911777
5	0x3dd89577	0.10575383
6	0xbded6b27	-0.11592703
7	0x3e8f3c21	0.27975562
8	0xbdb63321	-0.08896471
9	0x3d44fd10	0.0480929
10	0xbcff5059	-0.031166242
11	0x3e0af9ca	0.1357185
12	0x3e64aa2b	0.22330539
13	0xbd3bd3cb	-0.04585628
14	0xbe726cde	-0.23674342
15	0xbe38d4fa	-0.18049994
16	0xbe5b7809	-0.21432509
17	0xbe058a90	-0.13041139
18	0x3dce1efd	0.10064504
19	0xbe8eeeeb	-0.27916655
20	0x3dea16bb	0.11430117
21	0xbe7723b3	-0.24134712
22	0x3e7d7e11	0.24755122
23	0x3d6ff33c	0.058581576
24	0x3dbdc378	0.09265798
25	0xbe64d57b	-0.22347061
26	0x3da579ab	0.08079847
27	0xbd7ed3cf	-0.062213715
28	0x3e211a40	0.1573267
29	0x3d1000ab	0.035156887
30	0xbe89d68c	-0.269215
31	0x3c462e24	0.012095962
32	0x3e1b1b5e	0.15147159
33	0x3e94f746	0.29094905
34	0xbe816fbb	-0.25280556
35	0xbdab0f01	-0.08352471
36	0xbe1275da	-0.1430277
37	0x3da397f6	0.079879686
38	0x3e300296	0.17188486
39	0xbe2f4614	-0.17116576
40	0xbe99e23c	-0.30055416
41	0x3e1bcdaa	0.15215173
42	0xbc566a29	-0.013086834
43	0xbe712505	-0.23549278
44	0xbda77b69	-0.081778355
45	0xbd1db978	-0.038506955
46	0xbd6d1c15	-0.05788811
47	0xbd4ab0ff	-0.049485203
48	0x3d5c67bb	0.053809863
49	0xbe63cd96	-0.22246394
50	0x3e8a4ce3	0.27011785
51	0x3df9bc34	0.121941
52	0xbe697c42	-0.22801307
53	0x3d81039a	0.06299515
54	0x3e3cfa64	0.18454891
55	0xbe6fb0b5	-0.23407252
56	0xbd6b48fe	-0.057442658
57	0xbe8eb28a	-0.2787059
58	0x3dd4ab60	0.1038425
59	0xbd8eeef0	-0.069791675
60	0x3e0f1418	0.13972509
61	0x3e41d8b4	0.18930322
62	0xbe8b109d	-0.27161112
63	0x3e102f49	0.14080538
64	0x3d0171b2	0.03160257
65	0x3e95b527	0.2923977
66	0xbd90eadd	-0.070760466
67	0xbdb01f17	-0.0859968
68	0x3e4f985a	0.20272961
69	0xbe104510	-0.14088845
70	0x3e3ac3d5	0.18238766
71	0x3dbad47d	0.0912256
72	0xbe40b686	-0.18819627
73	0xbe5b2d67	-0.21404038
74	0xbdc2efe1	-0.095184095
75	0xbe20278b	-0.15640084
76	0x3e8ea4fa	0.27860242
77	0xbe338c50	-0.17533994
78	0x3e73ac82	0.23796275
79	0xbe92063b	-0.28520378
80	0xbdf11387	-0.11771303
81	0xbe8759a4	-0.26435578
82	0xbe26a3a3	-0.1627336
83	0xbcc7dc68	-0.02439709
84	0x3d8caa1a	0.06868382
85	0xbe5393d9	-0.20661868
86	0x3e88cf4a	0.2672065
87	0xbe8f326c	-0.27968156
88	0xbe2621dc	-0.16223854
89	0xbe5e329e	-0.21698996
90	0x3e1ac974	0.15115911
91	0x3d12265a	0.035681106
92	0xbe0d3161	-0.13788368
93	0xbdb41541	-0.08793116
94	0xbe950400	-0.29104614
95	0xbd059796	-0.032615267
96	0xbe258b04	-0.16166312
97	0x3dc36e38	0.09542507
98	0x3dedddc3	0.11614563
99	0x3e51ebd6	0.2050012
100	0x3e6b1de3	0.2296062
101	0xbe1bc42a	-0.1521155
102	0xbdd79414	-0.105262905
103	0x3dc1466e	0.094372615
104	0x3e352631	0.1769035
105	0xbe518597	-0.20461117
106	0xbe2b136c	-0.16706628
107	0x3e6185dd	0.22023721
108	0x3d1ced82	0.038312443
109	0x3ce803c4	0.028322108
110	0xbbe8eefe	-0.007108568
111	0x3e989ba9	0.2980626
112	0x3e5f4913	0.2180522
113	0x3e8a4f96	0.27013844
114	0xbded5328	-0.115881264
115	0xbe2ff5d5	-0.17183621
116	0xbe7dbcbb	-0.24779026
117	0xbe1de42e	-0.15419075
118	0x3e727fae	0.23681518
119	0xbdf72a49	-0.12068612
120	0x3e651577	0.2237147
121	0xbd92e82a	-0.07173188
122	0xbe83e08e	-0.2575726
123	0xbdf8156a	-0.121134594
124	0x3e86182b	0.26190314
125	0x3da7655e	0.08173631
126	0xbe5a51e7	-0.21320306
127	0x3e0cf388	0.13764775
128	0xbcef728f	-0.02922943
129	0xbe6865ab	-0.22695033
130	0xbe1c5edb	-0.1527056
131	0xbe8fd41a	-0.28091508
132	0x3cc2e1d5	0.023789326
133	0x3d2e2b42	0.042521723
134	0xbe96c5e5	-0.29447857
135	0xbe4bdeed	-0.19909258
136	0xbe873d6b	-0.26414046
137	0xbd9f4145	-0.07776121
138	0xbe63d650	-0.22249722
139	0x3e9a07cd	0.30084077
140	0xbe35ace5	-0.17741735
141	0x3e9c8750	0.30571985
142	0x3d14ed02	0.03635884
143	0xbe315a7b	-0.17319672
144	0x3dc926ba	0.0982184
145	0xbc6958a1	-0.014242322
146	0x3e962376	0.2932393
147	0xbe410af0	-0.18851829
148	0xbe7a3f53	-0.24438219
149	0x3e563640	0.20919132
150	0x3e27039e	0.16309974
151	0x3e4a0bf7	0.19731127
152	0x3e4f82d5	0.20264752
153	0x3e8ea335	0.27858892
154	0xbe16492e	-0.14676353
155	0xbe5fbb35	-0.21848758
156	0x3c70e8a5	0.014703904
157	0xbdf4e1c1	-0.11957122
158	0x3e459652	0.19295624
159	0xbe736d0f	-0.23772071
160	0x3e908879	0.2822912
161	0x3dcadde4	0.099056035
162	0xbe913a96	-0.2836501
163	0x3e0cd331	0.13752438
164	0xbe82e7b7	-0.2556741
165	0x3e884e4e	0.26622242
166	0x3cb43a70	0.022000521
167	0x3e2a8277	0.16651331
168	0x3d1c724f	0.03819495
169	0xbe5fdd0f	-0.21861671
170	0x3ca050e5	0.019569824
171	0xbd9135b0	-0.07090318
172	0xbe24b598	-0.16084898
173	0xbe77090e	-0.24124548
174	0x3db341d0	0.08752787
175	0xbe1a74bf	-0.15083598
176	0x3d8e1551	0.069376595
177	0xbe113683	-0.14180951
178	0x3da05232	0.078281775
179	0xbe824556	-0.25443524
180	0xbc03d90d	-0.008047354
181	0xbe8d2d46	-0.27573603
182	0x3e2ff590	0.17183518
183	0x3dcfd524	0.10148075
184	0xbe19cde0	-0.15019941
185	0xbcdbde10	-0.026839286
186	0x3de66373	0.11249437
187	0x3e0a849d	0.1352715
188	0xbe322c0c	-0.17399615
189	0xbd664953	-0.05622227
190	0x3e6eb7e4	0.23312336
191	0x3d08f2a1	0.033434514
192	0xbd33ea7c	-0.043924794
193	0xbe86f767	-0.26360628
194	0xbc239517	-0.009984276
195	0x3e98f88b	0.29877123
196	0x3e80b788	0.25140023
197	0x3e98afac	0.29821527
198	0x3e382043	0.17981057
199	0x3ddc6458	0.107613266
200	0x3d40553c	0.046956286
201	0x3e5acc32	0.21366957
202	0xbe348e4e	-0.1763241
203	0xbdd7877c	-0.105238885
204	0xbe0fa109	-0.14026274
205	0x3d1a0c05	0.03760912
206	0x3e2f631c	0.17127651
207	0x3e4966b8	0.1966809
208	0x3e95925d	0.2921323
209	0x3e78c036	0.24292073
210	0x3cd7079d	0.026248747
211	0xbe6dc3fc	-0.23219293
212	0x3d805b86	0.06267457
213	0xbe8c7664	-0.27434075
214	0x3cc238e5	0.02370877
215	0xbd771ff8	-0.060333222
216	0xbe845c3e	-0.25851625
217	0xbddcc7aa	-0.107802704
218	0xbddefd7a	-0.108881906
219	0xbdff74d8	-0.12473458
220	0xbe8f5f5a	-0.28002435
221	0xbe49ae4d	-0.19695397
222	0xbd2f8958	-0.04285559
223	0xbe8fa956	-0.2805888
224	0xbdc25cf2	-0.09490384
225	0x3e6c424e	0.23072168
226	0xbdd3faf9	-0.103506036
227	0xbd794054	-0.060852364
228	0xbe02ea77	-0.12784754
229	0x3e0a861e	0.13527724
230	0xbda6f13f	-0.08151483
231	0x3e925bc5	0.2858564
232	0x3e085295	0.13312753
233	0xbde262f3	-0.11054029
234	0xbe816cd6	-0.25278348
235	0xbe4674eb	-0.19380538
236	0x3e1f573d	0.15560623
237	0xbe38fdff	-0.18065642
238	0x3cc32791	0.023822578
239	0xbe550e17	-0.20806156
240	0x3db5bbc1	0.08873702
241	0x3e79f863	0.24411158
242	0x3e226364	0.15858227
243	0xbd901a41	-0.070362575
244	0x3e252918	0.16128957
245	0x3e8e5990	0.27802706
246	0xbe253ff6	-0.1613768
247	0x3e829fd1	0.25512555
248	0x3e372fa0	0.17889261
249	0xbd92841f	-0.07154106
250	0x3d161862	0.036644347
251	0x3e55938a	0.20857063
252	0xbd2ea6ff	-0.04263973
253	0x3de6432f	0.11243283
254	0xbe9984be	-0.29984087
255	0xbe226a08	-0.1586076

layers.1.bias f4 [32]
0	0x00000000	0.0
1	0x00000000	0.0
2	0x00000000	0.0
3	0x00000000	0.0
4	0x00000000	0.0
5	0x00000000	0.0
6	0x00000000	0.0
7	0x00000000	0.0
8	0x00000000	0.0
9	0x00000000	0.0
10	0x00000000	0.0
11	0x00000000	0.0
12	0x00000000	0.0
13	0x00000000	0.0
14	0x00000000	0.0
15	0x00000000	0.0
16	0x00000000	0.0
17	0x00000000	0.0
18	0x00000000	0.0
19	0x00000000	0.0
20	0x00000000	0.0
21	0x00000000	0.0
22	0x00000000	0.0
23	0x00000000	0.0
24	0x00000000	0.0
25	0x00000000	0.0
26	0x00000000	0.0
27	0x00000000	0.0
28	0x00000000	0.0
29	0x00000000	0.0
30	0x00000000	0.0
31	0x00000000	0.0

layers.2.weight f4 [32, 32]
0	0x3e80888f	0.25104186
1	0x3e2c6c81	0.16838266
2	0x3e17041b	0.1474766
3	0xbe6a6ec0	-0.2289381
4	0xbe09f996	-0.13474116
5	0xbe918098	-0.28418422
6	0x3d3668bb	0.044533473
7	0x3dfb5401	0.12271882
8	0xbe53d6f8	-0.20687473
9	0xbcfe97a5	-0.03107817
10	0x3e6c655b	0.23085539
11	0x3d2ce50e	0.04221063
12	0xbe99ef6c	-0.30065477
13	0x3e4731eb	0.19452636
14	0x3e193745	0.1496249
15	0x3e59b247	0.21259414
16	0x3bd6dd22	0.006557123
17	0x3d2d6b5c	0.042338714
18	0x3e902a94	0.28157485
19	0xbde2e19d	-0.110781886
20	0xbe4046c4	-0.18776995
21	0x3ddf5eff	0.10906791
22	0x3e3d45a0	0.18483591
23	0x3e5b3575	0.21407111
24	0x3e8dd2b4	0.27699816
25	0x3e4162e3	0.18885379
26	0xbe88b826	-0.26702994
27	0xbe1b3470	-0.15156722
28	0xbd69865d	-0.057012904
29	0x3e8681a8	0.26270795
30	0xbd0c8080	-0.034302235
31	0x3e5a0bcc	0.21293563
32	0xbe059fb1	-0.13049199
33	0x3dec3869	0.11534197
34	0xbe857e74	-0.2607304
35	0xbe95786b	-0.29193434
36	0x3e45ca64	0.19315487
37	0x3e1bbb97	0.15208279
38	0x3c46c7b1	0.012132571
39	0x3e267127	0.16254102
40	0xbe8d7be2	-0.27633578
41	0xbe41deb6	-0.18932614
42	0xbe3d0b1b	-0.18461268
43	0xbe949fae	-0.29028076
44	0x3e51e4c9	0.20497431
45	0x3e9c64dd	0.30545703
46	0xbe8da812	-0.2766729
47	0x3c431bb3	0.0119084595
48	0xbe1be99d	-0.15225835
49	0x3e97695c	0.2957257
50	0x3e850242	0.25978285
51	0x3e505720	0.20345736
52	0x3d961548	0.07328278
53	0x3db87ad1	0.090078
54	0xbda86cb9	-0.08223862
55	0xbe8979cd	-0.2685074
56	0xbe93fa08	-0.28901696
57	0xbe228c5d	-0.15873857
58	0xbe606a02	-0.21915439
59	0xbe0fdded	-0.14049502
60	0xbe8eaadc	-0.2786473
61	0x3e71a197	0.23596798
62	0xbe70a227	-0.23499356
63	0x3d953d5d	0.07287095
64	0x3e994b94	0.29940474
65	0xbdf13c1e	-0.117790446
66	0x3e499516	0.19685778
67	0xbe44c87f	-0.19217108
68	0x3dd1a705	0.102369346
69	0xbd3bfe77	-0.045896973
70	0xbd83d5ea	-0.06437285
71	0x3e6a9829	0.22909607
72	0xbe814a4d	-0.25252
73	0xbb31464f	-0.0027049964
74	0xbde2d7aa	-0.11076291
75	0xbe083def	-0.13304876
76	0x3c7d1a0f	0.015448107
77	0x3e31cfa7	0.1736437
78	0x3e601a20	0.21884966
79	0xbe84c1ce	-0.2592911
80	0xbd8987f9	-0.06715388
81	0x3e6909ba	0.22757617
82	0x3e7129b0	0.23551059
83	0xbe6f3f50	-0.23363996
84	0xbe2327f4	-0.1593321
85	0xbe9c8e37	-0.3057725
86	0xbe924b14	-0.28572905
87	0x3ded53ce	0.1158825
88	0xbd292bfa	-0.041301705
89	0xbe921b77	-0.2853658
90	0xbe8f0a44	-0.2793752
91	0x3af14daf	0.0018409992
92	0xbe9c0276	-0.30470628
93	0x3d1afb9d	0.037837613
94	0x3e939bae	0.28829712
95	0x3e4cffc6	0.20019445
96	0xbe85929a	-0.2608841
97	0xbe894117	-0.26807472
98	0x3dbd717d	0.09250162
99	0x3d1a8222	0.03772176
100	0xbdb2e6cd	-0.08735428
101	0xbe7305cf	-0.23732685
102	0x3d09fa69	0.033686075
103	0xbd5b0bca	-0.05347804
104	0x3e8872e0	0.26650143
105	0x3e18f755	0.149381
106	0x3e0c4772	0.13699129
107	0xbe5d7ba0	-0.2162919
108	0xbdc1794c	-0.09446964
109	0xbde1e7b1	-0.1103052
110	0xbe3a53bb	-0.18196003
111	0xbe32c814	-0.17459136
112	0x3e2ea87b	0.17056458
113	0xbdb0bcb3	-0.086297415
114	0x3e92e752	0.28692108
115	0x3e6d2099	0.23156966
116	0xbd070598	-0.03296432
117	0xbd5a72bc	-0.053332075
118	0xbb49a79c	-0.003077007
119	0xbd7231d5	-0.059129555
120	0xbe8720b6	-0.26392144
121	0xbddc9ded	-0.107723095
122	0x3e883a62	0.26607043
123	0xbdb18325	-0.08667592
124	0xbd02c6ac	-0.03192775
125	0x3e34d991	0.1766112
126	0xbd325a9b	-0.04354344
127	0x3e78efc4	0.24310213
128	0xbd7b8f31	-0.061415855
129	0x3e908acb	0.2823089
130	0xbe780f26	-0.24224529
131	0xbe83c8fe	-0.25739282
132	0xbe4bc794	-0.19900352
133	0x3e802600	0.25028992
134	0xbd2011b5	-0.039079387
135	0x3e89193a	0.2677706
136	0x3d43939c	0.047748193
137	0x3e80573f	0.25066563
138	0x3d4d1816	0.0500718
139	0xbe66248c	-0.22474879
140	0x3e93c782	0.2886315
141	0xbc149733	-0.009069252
142	0xbd034f7f	-0.032058235
143	0x3e797fb8	0.24365127
144	0x3e2bae51	0.16765715
145	0x3e56751b	0.2094311
146	0xbe822d16	-0.25425023
147	0xbe8c071e	-0.2734918
148	0x3e6c099f	0.23050545
149	0xbd4cf035	-0.050033767
150	0xbd2687d7	-0.04065689
151	0x3e0427de	0.12905833
152	0xbe9554bc	-0.2916621
153	0xbe0c49b9	-0.13699998
154	0x3e7f31ca	0.24921337
155	0xbe2a8cd1	-0.1665528
156	0xbdc88cc0	-0.09792471
157	0xbe3a5fac	-0.18200558
158	0x3d377d8f	0.044797476
159	0xbd3505b5	-0.044194896
160	0xbddff79c	-0.109358996
161	0xbe604fc8	-0.21905434
162	0x3e8cf53c	0.2753085
163	0xbc26779d	-0.010160354
164	0x3bdcabf9	0.006734368
165	0x3d542f15	0.051802713
166	0x3e824d8a	0.25449783
167	0xbca987c1	-0.020694615
168	0xbe8bed10	-0.27329302
169	0xbe316b3f	-0.17326067
170	0x3e19902b	0.14996402
171	0x3cb8f540	0.022577882
172	0xbe1fdc3b	-0.15611355
173	0x3ddde384	0.10834411
174	0xbd8a0ad9	-0.0674035
175	0x3da76f47	0.08175521
176	0xbe4484e0	-0.19191313
177	0xbe639771	-0.22225739
178	0x3e8bf7e5	0.27337566
179	0x3e269a51	0.16269805
180	0xbe8d7727	-0.2762997
181	0x3c5e47cb	0.013566921
182	0x3e613128	0.21991408
183	0x3dc22b67	0.094809346
184	0xbe2048bc	-0.15652746
185	0xbe81c79f	-0.2534761
186	0xbe62fde1	-0.2216716
187	0xbe37a299	-0.1793312
188	0xbe8df718	-0.2772758
189	0x3e472154	0.19446307
190	0x3e904760	0.28179455
191	0xbd54e61b	-0.05197726
192	0xbd8e9ebd	-0.06963871
193	0xbb03b984	-0.002009959
194	0x3e38d871	0.18051316
195	0x3e34fc74	0.17674428
196	0xbcf2c849	-0.029636519
197	0xbe397b66	-0.18113479
198	0x3e6db723	0.23214392
199	0xbe85a072	-0.26098973
200	0x3dfd8588	0.12378985
201	0xbe921518	-0.28531718
202	0x3e688a9d	0.22709127
203	0xbe6dfbdb	-0.23240606
204	0x3d8c1de8	0.06841642
205	0xbe07423d	-0.13208862
206	0xbd4a6cd5	-0.049420197
207	0x3e067d46	0.13133726
208	0x3e3d0e1f	0.18462418
209	0x3b5cda83	0.003369958
210	0x3e446d74	0.19182378
211	0x3e6ffc5a	0.23436108
212	0xbd459713	-0.04823978
213	0x3dfcc036	0.12341349
214	0xbe0ff3bc	-0.14057821
215	0xbe78cdf6	-0.24297318
216	0x3e896a0e	0.26838726
217	0xbd4c3991	-0.049859587
218	0x3e731bd8	0.2374109
219	0x3e31baae	0.17356369
220	0xbe2281b7	-0.15869795
221	0x3dc614d2	0.0967194
222	0x3d909d3f	0.07061242
223	0x3e6fc95f	0.2341666
224	0x3e8227f7	0.25421116
225	0x3bd52af6	0.0065053655
226	0x3e95f5fb	0.2928923
227	0xbdbd97db	-0.0925748
228	0xbe327dc7	-0.17430793
229	0x3e0c7da1	0.13719799
230	0x3e3c31e5	0.18378408
231	0x3e61876a	0.22024313
232	0xbda161eb	-0.078800045
233	0x3e8794e1	0.26480773
234	0xbe2eacfa	-0.17058173
235	0xbd3cdca5	-0.04610886
236	0xbc78708b	-0.015163551
237	0x3e574838	0.21023643
238	0xbe762686	-0.24038133
239	0xbdb99c1a	-0.09062977
240	0x3e5076b1	0.20357777
241	0xbd64d7af	-0.055869754
242	0xbcdb0c18	-0.026739165
243	0x3e83ab65	0.257167
244	0xbdbdc472	-0.092659846
245	0x3df922eb	0.12164863
246	0xbe85b812	-0.26116997
247	0xbdcccb63	-0.099997304
248	0xbe09f54f	-0.13472484
249	0xbdf18c03	-0.11794283
250	0x3e1b419f	0.15161751
251	0x3ddf249c	0.108956546
252	0x3e957e33	0.29197845
253	0xbc247f7a	-0.010040158
254	0x3e86902c	0.2628187
255	0xbe59ce94	-0.2127021

layers.2.bias f4 [32]
0	0x00000000	0.0
1	0x00000000	0.0
2	0x00000000	0.0
3	0x00000000	0.0
4	0x00000000	0.0
5	0x00000000	0.0
6	0x00000000	0.0
7	0x00000000	0.0
8	0x00000000	0.0
9	0x00000000	0.0
10	0x00000000	0.0
11	0x00000000	0.0
12	0x00000000	0.0
13	0x00000000	0.0
14	0x00000000	0.0
15	0x00000000	0.0
16	0x00000000	0.0
17	0x00000000	0.0
18	0x00000000	0.0
19	0x00000000	0.0
20	0x00000000	0.0
21	0x00000000	0.0
22	0x00000000	0.0
23	0x00000000	0.0
24	0x00000000	0.0
25	0x00000000	0.0
26	0x00000000	0.0
27	0x00000000	0.0
28	0x00000000	0.0
29	0x00000000	0.0
30	0x00000000	0.0
31	0x00000000	0.0

predict.weight f4 [1, 32]
0	0xbcb28690	-0.02179268
1	0xbcd4f222	-0.025994364
2	0xbdc62582	-0.09675123
3	0xbd73a956	-0.059487663
4	0x3d85b992	0.06529535
5	0x3dc4590a	0.09587295
6	0x3c01e193	0.007927316
7	0xba0359c1	-0.0005010628
8	0x3d893eb9	0.067014165
9	0x3cad83df	0.021181045
10	0x3df0a4ec	0.11750206
11	0x3ae59c5f	0.0017517916
12	0xbe0b8477	-0.1362475
13	0x3dd126e6	0.102124974
14	0xbe12331e	-0.14277312
15	0x3bba912c	0.0056935754
16	0x3e2578d2	0.1615937
17	0xbc8d72ce	-0.017266657
18	0x3d68697d	0.056741226
19	0x3d63989a	0.055565454
20	0x3d0c38ce	0.03423386
21	0x3da49dc3	0.08037903
22	0xbe150d14	-0.1455577
23	0xbe000b44	-0.12504297
24	0xbdd37eb6	-0.103269026
25	0x3bdd6a63	0.006757067
26	0x3d4c366a	0.04985658
27	0x3dfc06e0	0.12305999
28	0x3d6ea9f5	0.058267552
29	0x3e1fb6ff	0.15597151
30	0x3e20d919	0.15707816
31	0x3d9c93f6	0.07645409
