demo/data/example/models/model_dim16_lay4.pth (torch, 7873 bytes, 11 tensors)

linear.weight f4 [16, 1]
000000 a1 a8 a6 3f 7c a6 06 3d e3 63 93 bf ac 13 17 3f
       1.3020211 0.032873616 -1.1514858 0.5901439
000010 e0 a1 2f bf a3 42 73 3f eb 7a f3 3e d9 6e 84 3c
       -0.68606377 0.95023555 0.47554716 0.016166138
000020 5c 81 8d 3f 42 52 21 bf 0b fd 11 bf 4f 2d 83 be
       1.1055102 -0.6301614 -0.5702674 -0.25620505
000030 70 af 90 bf 81 82 82 3f a3 87 50 3f c9 f2 39 3f
       -1.1303539 1.0196077 0.81456965 0.72636086

linear.bias f4 [16]
000000 bf 82 60 3f bd 24 6a 3f 07 a4 3c bf 3b 7c 92 3f
       0.876995 0.9146231 -0.73687786 1.1444162
000010 94 48 af 3e a4 e8 91 3e d5 13 4e 3f e8 85 08 3f
       0.3423506 0.28497803 0.8049901 0.53329325
000020 ce a1 4b 3f 8b 40 63 bf ea 98 23 3f 54 d0 f3 3e
       0.7954377 -0.8877036 0.63905203 0.4761988
000030 c4 47 49 3f 7e 22 81 bf 88 57 05 3f f5 ab 7b bf
       0.7862513 -1.0088651 0.5208669 -0.9830926

conv_0.weight f4 [16, 16]
000000 7c 39 f9 bd 56 0e 12 bd 3e 06 c9 be 79 21 e4 bd
       -0.121691674 -0.035658203 -0.39262575 -0.11139197
000010 00 40 88 3c ee 21 40 3e a4 20 dd 3e eb f4 e5 be
       0.01663208 0.18762943 0.43188965 -0.4491342
000020 6f 8e ee be 28 27 90 bd d5 b7 6a bd 17 c6 d6 3e
       -0.46593043 -0.070387185 -0.057304222 0.41948006
000030 e0 b3 2b 3f 5f 3e b8 3d ee ba 18 3e e3 5a 50 be
       0.6707134 0.08996271 0.14915058 -0.2034717
000040 f6 0a 32 3e c2 3c 78 3e 50 60 57 be a4 e8 01 3e
       0.17386994 0.24241927 -0.21032834 0.12686402
000050 d8 c4 33 3e cb 6d ee be 9a 3d 28 3e dc 84 20 3e
       0.17555559 -0.4656814 0.16429749 0.15675682
000060 f9 e3 9a bd 09 d2 c5 ba 83 81 05 3f 4b 75 06 3f
       -0.075630136 -0.0015092503 0.52150744 0.52522725
000070 1e e0 b4 be 24 16 0f bf b0 fa 2d 3e ab a0 06 be
       -0.35327238 -0.5589316 0.16990161 -0.13147227
000080 32 ca d0 be f6 d2 93 be 4a 32 4b 3d 42 5b a5 bd
       -0.40779263 -0.28871888 0.049608506 -0.08074047
000090 b7 b2 9d be 2e e5 a0 3e 2f d4 20 bf 7c 3e ec 3d
       -0.3080041 0.3142485 -0.62823766 0.115353554
0000a0 ce 5a 36 3d 5d 16 95 3e 15 55 92 be 69 2d de 3c
       0.04452019 0.29118624 -0.28580537 0.027121263
0000b0 74 42 28 bf 31 40 f1 3e 9b 75 a5 3d 02 1c 84 be
       -0.657264 0.47119287 0.08079072 -0.25802618
0000c0 b8 94 7b be 97 02 45 3d 76 99 f8 bd ad aa f1 be
       -0.2456845 0.048098173 -0.12138645 -0.47200528
0000d0 f8 19 1a 3f 97 81 fa be a8 f2 1b 3f a3 d0 0a be
       0.60195875 -0.48926994 0.6091714 -0.13556151
0000e0 ad 7d 23 3e c9 05 bd be bc c5 cb 3e 4a 88 0d 3f
       0.1596591 -0.36918476 0.39799297 0.55286086
0000f0 57 38 ba 3e ff fa 31 3d 0c 9c f8 be 31 72 2b 3e
       0.3637111 0.04345226 -0.48556554 0.1674278
000100 a1 46 39 3f c7 cf b9 be fb de cc be b8 3d 95 be
       0.72373396 -0.36291334 -0.4001387 -0.2914865
000110 68 c7 d7 3e 36 f3 18 3e d0 aa 24 bf cc 78 ff 3e
       0.42144322 0.14936528 -0.6432314 0.49896848
000120 05 6a 1e 3e e0 19 0a bf 3c 4b e4 bc d4 8d 2c 3f
       0.1547013 -0.5394573 -0.027867906 0.6740391
000130 9e 75 1b be 7f b7 36 3e 74 21 d2 ba 4d b8 3c 3e
       -0.15181586 0.17843436 -0.0016031698 0.1842968
000140 49 bd ce bc 15 88 3e 3f b4 8e 82 be 55 2b ab be
       -0.025236743 0.74426395 -0.254995 -0.33431497
000150 64 62 8a 3e 55 ce e3 3e db 0c d8 3e 7e a3 68 3e
       0.2702819 0.44493356 0.42197308 0.22718617
000160 55 93 03 bf 83 6c 30 3e 4d bb bb be 0c ef c9 be
       -0.51396686 0.17228894 -0.36666337 -0.3944019
000170 cc 81 13 3f 45 b1 ea 3d ce 47 fe bd b8 6f f7 be
       0.5761993 0.11459593 -0.124160394 -0.48327422
000180 e3 e8 25 3d 79 35 e6 3e bf 0c 01 bf 25 c4 06 bf
       0.0405053 0.4496267 -0.50410074 -0.5264304
000190 80 6c 20 3f fd cf eb be 31 63 04 3e 9e 72 88 be
       0.6266556 -0.4605712 0.12928464 -0.26649946
0001a0 eb 4f 23 3d b2 7d a3 3e f7 bd 61 3d 2c b2 59 3e
       0.039871138 0.31931835 0.055112805 0.21259373
0001b0 f6 20 ac 3e e4 ed 83 bd 6f 51 8c 3e 36 11 bb be
       0.33618897 -0.064418584 0.2740588 -0.36536568
0001c0 06 87 11 3f 42 49 0e 3f 86 f6 1c 3e 44 76 83 3e
       0.56846654 0.5558053 0.15328416 0.25676167
0001d0 df 2c 7d bd 57 ae e7 be 07 a0 c3 3e e7 eb c2 be
       -0.06181037 -0.45250198 0.3820803 -0.38070604
0001e0 59 71 92 3e 05 d5 ae bd 27 fe 0b be d1 f7 cd 3e
       0.28602102 -0.08536724 -0.1367117 0.4022813
0001f0 1a df af be 3b 41 1c be bd 68 91 3d e0 f0 d7 bd
       -0.343499 -0.15259258 0.07100055 -0.1054399
000200 d1 10 ce be db 0c 27 bd d3 b5 d0 be 96 19 a8 be
       -0.40247205 -0.040783744 -0.4076372 -0.3283202
000210 45 c7 01 3e da cf b6 be b4 52 1f 3f 14 2b c7 3d
       0.12673672 -0.35705453 0.6223557 0.097250134
000220 d4 49 09 bf d0 36 70 be 37 a7 b6 3e 26 bc a4 bd
       -0.5362828 -0.2345841 0.3567445 -0.08043699
000230 c2 92 9b 3e 7b 6a 63 be 33 4a c2 3e 67 01 e2 be
       0.30385405 -0.22208588 0.37947235 -0.44141695
000240 46 82 4f be 94 4c a1 be cc cd ab be c0 a7 ef 3d
       -0.20264539 -0.31503737 -0.33555448 0.11701918
000250 89 90 19 bf e6 f8 d3 bd 37 28 f9 be 95 3d 5d 3e
       -0.5998617 -0.10350208 -0.48663494 0.21605523
000260 19 a6 b1 3e 6c da 34 3e ab 41 fd be 8e 4a 84 3d
       0.34697035 0.17661446 -0.49464163 0.06459533
000270 e7 af af 3c 8f 71 ed 3e e7 13 5a bd d6 95 0c 3f
       0.021446181 0.463757 -0.053241637 0.5491613
000280 8d 1c a8 3e 82 3e 0f bd 30 b2 0f bf f4 ef cc be
       0.32834283 -0.03497172 -0.5613127 -0.4002682
000290 36 4d b6 3e 01 ee 37 3d 06 2d ae be 8f 42 c5 bd
       0.35605782 0.044904713 -0.34018725 -0.09631836
0002a0 fa 56 90 be a7 57 8d be 69 c9 3b be 9f 9d 4b bd
       -0.28191358 -0.27605936 -0.1833855 -0.049710866
0002b0 97 d6 1c bf 9b bc a3 be 1f 3f 06 bf 4f 8d 54 bd
       -0.6126494 -0.31979832 -0.52440065 -0.051892575
0002c0 20 68 20 be 2e 21 86 be af 9a 05 bf a0 97 32 be
       -0.1566472 -0.2619719 -0.52189153 -0.17440653
0002d0 ee d2 3a 3e 8e 9b 89 3e 5d 0b d3 3e 78 b0 02 3e
       0.18244526 0.2687649 0.41219607 0.1276263
0002e0 9f 29 f1 3d b1 f1 24 3d 42 a0 19 3f b9 dc 37 be
       0.11775517 0.040269557 0.6001016 -0.17955293
0002f0 1d 7d b2 be ea 5e 31 3e 52 01 eb be 1f 54 e3 bd
       -0.3486108 0.17321363 -0.45899445 -0.11100029
000300 40 2b 1f 3f 4b 6b db be 85 d3 7a bd f9 90 bd be
       0.6217537 -0.42855296 -0.061236877 -0.37024668
000310 1e 69 b2 be 30 33 37 bb 32 ad 9a be 07 36 80 be
       -0.34845823 -0.0027954094 -0.30210263 -0.2504122
000320 99 3d 8c 3e a8 f3 e0 bd 81 dc 22 3f 9e 26 c2 3e
       0.27390745 -0.10983974 0.6361771 0.37920088
000330 11 0c 3c bf f6 97 b1 be 50 c8 ff be 69 69 a6 3e
       -0.7345591 -0.3468625 -0.49957514 0.32502297
000340 0b 99 2d bf 1e 9d e5 bd f2 c8 f7 3e af 44 4f 3e
       -0.6781165 -0.11211608 0.48395497 0.20241044
000350 8a b4 05 bf 91 12 76 be 15 5a 0b 3e 14 ed f3 3d
       -0.52228606 -0.2403052 0.13608582 0.119104534
000360 c0 a2 bc 3e aa 07 1c 3f 2e 37 0a bf c6 a4 83 be
       0.36842918 0.60949194 -0.5399045 -0.2571165
000370 e4 4e e2 3e e4 92 0e 3e 11 e9 b2 3e 1a 68 57 be
       0.44200814 0.13923222 0.3494344 -0.21035805
000380 a6 23 c3 bd 5d b2 d8 3e 09 78 bf 3e 95 f1 29 3d
       -0.09528284 0.4232358 0.37396267 0.041490156
000390 e1 ae 14 3f bc 98 70 3e d4 06 f8 3c 77 a4 73 be
       0.58079344 0.23495764 0.030276693 -0.23793207
0003a0 74 ac bf 3b f5 a7 0c be 43 83 5a 3e 1a 48 ca bd
       0.0058494154 -0.13735946 0.21339135 -0.098770335
0003b0 36 01 b0 3e 6b b8 d2 be a1 77 c0 be ff 27 6b be
       0.34375924 -0.41156325 -0.3759127 -0.22964476
0003c0 f1 00 12 bf 15 32 38 3e 95 b7 a2 3e b6 a2 f5 3e
       -0.57032686 0.17987855 0.31780687 0.479757
0003d0 bb 44 e4 be cf b2 0c 3e c6 41 38 be 63 13 ec be
       -0.44583687 0.13740085 -0.1799384 -0.4610854
0003e0 7f a5 9c 3e 95 ec 9c 3e a5 cf 13 bf 4f 42 2b bf
       0.30595013 0.30649248 -0.57738715 -0.66898054
0003f0 81 8e 09 bd d4 54 81 3e e1 8b 0d 3f a4 6b dd 3e
       -0.033583168 0.2526003 0.55291563 0.43246186

conv_0.bias f4 [16]
000000 f6 02 4b 3e f2 5f 68 3e 41 11 24 be 69 39 2c be
       0.19825348 0.2269285 -0.16022207 -0.16818775
000010 26 62 2b 3e f0 67 2c be 49 73 00 3e d6 70 bb 3d
       0.1673666 -0.16836524 0.12543978 0.09152381
000020 70 97 22 be 88 c7 3b be 64 86 6d 3e b8 1d 72 3e
       -0.15878081 -0.18337834 0.23195797 0.2364415
000030 7e 05 cc bd 14 92 2e be 4e e5 43 be fc 4d 06 be
       -0.09961985 -0.17047912 -0.19130442 -0.13115686

layers.0.weight f4 [16, 16]
000000 15 0e 0b bf c6 78 fc be 30 68 c2 3e 30 a9 14 3f
       -0.5431836 -0.49310893 0.37970114 0.5807066
000010 2f 65 e7 3d 06 0c 41 bd ba 85 ab be 09 ec 0a 3f
       0.11298596 -0.047130607 -0.33500463 0.5426641
000020 b1 c2 63 be 60 8b bd 3e 52 07 0a be 05 5c 71 3e
       -0.22242238 0.37020397 -0.13479355 0.23570259
000030 e3 af 0c be a9 8f 5e 3d 4d 3f 05 bf 61 91 f4 be
       -0.1373897 0.054336224 -0.52049714 -0.47767165
000040 d4 21 e7 3e 2f d0 a4 bd 2b ee 96 bd 6a c7 30 be
       0.45142996 -0.0804752 -0.07369646 -0.1726357
000050 19 ab 21 3e 62 65 92 3c 0b 58 04 3f 9d 40 d3 3e
       0.15787925 0.017870609 0.5169684 0.41260234
000060 c5 2e 5b be fd df f2 3e d5 b6 c7 be cd f3 db bc
       -0.2140456 0.47436514 -0.39006677 -0.026849652
000070 28 67 1a 3f df d2 b4 3d 5f 74 9f 3e 44 92 3d 3f
       0.60313654 0.08829283 0.31143472 0.7405131
000080 87 02 a6 3d 83 ab b0 3e d9 2b d0 be 28 66 d5 be
       0.08105951 0.34505853 -0.40658453 -0.41679502
000090 f1 43 4c be 5a b6 3c be b5 0b bb 3e 84 8b 69 be
       -0.19947793 -0.18428937 0.3653237 -0.22807127
0000a0 b7 a5 a2 be 75 72 05 be 94 e4 a2 3e d0 c2 77 3e
       -0.31767055 -0.13031943 0.31815016 0.24195409
0000b0 9d e5 a9 3e d7 1c 0a be 67 52 50 3e 32 aa 00 be
       0.33182994 -0.13487564 0.20343934 -0.12564924
0000c0 5e f2 44 be 6e 02 8d be 6a 15 10 bf f2 c3 15 3e
       -0.1923308 -0.27540916 -0.56282675 0.14625528
0000d0 14 e1 a9 be 4a 47 23 be d1 df 1e 3e 7e d8 c5 bd
       -0.33179533 -0.15945163 0.15515067 -0.09660433
0000e0 14 32 c7 bd bf 2b c4 be c6 43 56 3e 33 4d 06 bf
       -0.097263485 -0.38314626 0.20924291 -0.52461547
0000f0 4a e5 91 3e a8 a1 d0 be f9 27 a5 bd 98 10 64 be
       0.28495246 -0.40748334 -0.08064265 -0.22271955
000100 57 b0 6d 3d fb d4 1f be ff eb 53 3e 7d 62 d1 bd
       0.0580295 -0.1560859 0.20695494 -0.10223863
000110 53 89 16 bf 25 b6 8d 3e 06 3d a5 bd 95 ea 8c 3e
       -0.5880329 0.27678028 -0.0806828 0.27522722
000120 a6 7f ff 3d 0a 15 1e 3f 83 4a 47 3e dd 55 d8 bd
       0.12475519 0.61750853 0.19462018 -0.10563252
000130 2d 1f a6 3e 50 bc 06 3e 83 3c ae 3e 4e 64 85 3e
       0.3244566 0.13157773 0.34030542 0.2605309
000140 d2 4d 7f 3e f1 dc 36 be 5e c3 52 bd b5 31 c9 be
       0.2493203 -0.1785772 -0.051455848 -0.39295736
000150 a4 0c d9 3e f5 04 80 3e 2c f7 95 be 01 4d 5b be
       0.42392457 0.25003782 -0.2929014 -0.21416093
000160 62 d0 7b 3e c3 ef 98 be 91 d6 86 3e ab 33 19 be
       0.2459121 -0.29870424 0.26335576 -0.14961116
000170 b0 91 69 be 38 bb 08 bf 48 e5 94 3d 4b a7 a0 bd
       -0.22809482 -0.53410673 0.072702944 -0.078444086
000180 da f2 ed 3e b5 68 fd 3d 95 6f 59 be 27 81 02 3f
       0.46474344 0.12373487 -0.21233971 0.5097832
000190 d3 8b e1 bd 32 85 4a be 7d d5 21 3f 76 4c 16 3e
       -0.110129975 -0.19777372 0.6321638 0.14677605
0001a0 08 d9 ee be 4f 8e b7 3e 97 1d 8b 3d da bc d6 3d
       -0.46649957 0.3585076 0.06792753 0.10485239
0001b0 3f 94 ba 3e 11 90 c1 3c f3 b4 55 3e b0 24 18 3f
       0.36441228 0.023628267 0.20869808 0.5943098
0001c0 3a d2 12 3b dd f1 96 be 5e 0a 5d be 1f 2f eb 3c
       0.0022403137 -0.29481402 -0.21585986 0.028708993
0001d0 98 7c 30 bd 90 8c bc be 68 cc 01 3c 47 bb 97 3e
       -0.04308757 -0.3682599 0.007922269 0.2963507
0001e0 df 02 cd 3e cc 02 14 be 12 07 7f be fa 5e df 3e
       0.40041253 -0.14454192 -0.24905041 0.4362715
0001f0 13 25 d0 be 13 2b 20 bc a8 45 b6 be 14 1e f0 be
       -0.40653285 -0.009775895 -0.35600019 -0.46897948
000200 25 57 00 be 50 a6 f6 3e 90 8d f7 be bf 08 9f be
       -0.12533243 0.4817376 -0.4835019 -0.3106136
000210 40 3b 92 3e 24 9e b1 3e 11 3a 04 bf a9 ad 6b bd
       0.2856083 0.34690964 -0.516511 -0.057538662
000220 f6 5a cd 3e 02 00 04 bf 70 1c 23 3e 2c a5 0f 3d
       0.4010846 -0.5156251 0.15928817 0.03506963
000230 04 20 54 3e 42 7b 8d 3e 99 ee a8 be fd f9 28 3c
       0.20715338 0.276331 -0.32994536 0.010313508
000240 f2 29 2e 3e 50 b5 f3 bd 75 ef d0 be e0 2d 95 be
       0.17008188 -0.11899817 -0.4080769 -0.29136562
000250 1f 00 41 3c a4 07 b4 be 3f 37 19 be f4 b9 d5 be
       0.011779814 -0.3516208 -0.14962481 -0.41743433
000260 81 a3 67 be 13 c1 15 be 98 23 b4 3e 08 d1 5a 3d
       -0.22620966 -0.14624433 0.35183406 0.053422004
000270 80 11 7a bd bb 9c 44 3e cd 0c 4d 3e cd 3b 0f bc
       -0.061051846 0.19200413 0.20024414 -0.008742285
000280 87 20 12 be d8 46 a1 be 94 47 33 3e fc 2a fc 3e
       -0.1427022 -0.31499362 0.17507774 0.49251544
000290 97 d2 3c be ba 2e 94 be 15 b4 91 bd 0e a8 aa bd
       -0.18439709 -0.289419 -0.07114426 -0.08332835
0002a0 15 ef 10 bf 19 21 ea 3e 77 d8 35 be ca e7 bb 3e
       -0.5661481 0.45728377 -0.17758356 0.3670028
0002b0 4d df 9d 3e c7 bd 87 3e 26 de cb bc 5c be 2d be
       0.30834427 0.26511976 -0.024886202 -0.16967148
0002c0 18 de 56 3e 67 f2 97 3d 58 5e 77 3e 1f 2f 19 3f
       0.2098316 0.074192815 0.24157083 0.59837526
0002d0 c9 66 d2 be a8 24 8d 3e 0e 3e 90 bd 35 1f 9a 3e
       -0.41094044 0.2756703 -0.07043086 0.30101934
0002e0 d1 98 a2 be 33 b5 b3 3e 6a 76 74 3d fa 32 6c 3e
       -0.31757215 0.35099182 0.05968324 0.23066321
0002f0 61 5e ea 3e 09 6e f9 3d 1e 4b 11 be d7 33 cd be
       0.4577513 0.12179191 -0.14188811 -0.40078613
000300 0c ed 11 3e f7 e4 91 3e 38 cb 18 3d eb b8 3c bf
       0.14250582 0.28495 0.03730318 -0.7371966
000310 6f d3 22 be dc e3 3c be 13 08 18 3e b0 f5 0d bf
       -0.15900968 -0.18446296 0.1484683 -0.55453014
000320 1e 53 74 be 99 87 bb 3d 1b 1e 6a be ab 63 1a bf
       -0.23859832 0.091567226 -0.22863047 -0.6030833
000330 0d 5c b2 3e 64 92 8f be ac 9d 01 3f 48 ca 38 3f
       0.34835854 -0.28041375 0.50631213 0.72183657
000340 fa 28 7d bd f4 5c 8c 3e 57 f2 91 be bb e4 1e 3e
       -0.061806656 0.27414668 -0.28505203 0.15516941
000350 b0 f8 bb 3e 14 94 bf 3e e7 a4 8c bd b0 3b 96 be
       0.3671317 0.37417662 -0.0686739 -0.29342413
000360 a3 ec da 3e b0 67 77 3e 43 fd af be 07 7f a2 be
       0.42758664 0.24160647 -0.3437291 -0.3173754
000370 b7 be db be 70 f6 aa be e1 8e 66 be 25 78 9a bd
       -0.4291894 -0.33391142 -0.22515441 -0.07542447
000380 45 a9 bd 3d 93 f9 be be 24 a2 ac be 01 54 e3 bc
       0.09260801 -0.37299785 -0.33717453 -0.027750017
000390 9a 40 a4 bd e7 ba 5d 3d 04 84 0b be 55 c8 c6 be
       -0.08020134 0.054133322 -0.13624579 -0.38824716
0003a0 bf a5 c3 be d5 56 18 3e 7a 62 d2 3d b0 23 74 be
       -0.38212392 0.14876874 0.10272689 -0.23841739
0003b0 a4 84 d8 be 44 80 af be 9c 63 e9 3e da ad 02 3f
       -0.42288697 -0.34277546 0.45583808 0.51046526
0003c0 7a 6d 9d be 68 4a d3 3e 39 6e 5d be 25 e9 ef 3c
       -0.30747586 0.41267705 -0.21624078 0.029285977
0003d0 f3 39 c0 3e 63 1c b3 3e 6a 90 ab be 2e e0 01 bf
       0.37544212 0.34982595 -0.33508617 -0.50732696
0003e0 ea f1 ab 3e 94 0c 96 be 0c bd 88 be fe 14 b6 3e
       0.33583003 -0.2930647 -0.2670673 0.3556289
0003f0 2a f8 92 be 23 e0 31 3e 1e 0a f9 be d0 31 51 3e
       -0.2870496 0.17370658 -0.4864053 0.20429158

layers.0.bias f4 [16]
000000 95 0f d1 bd 32 1f 8d bd 1f c5 4b 3e 49 c1 35 3e
       -0.1020805 -0.06890716 0.19899414 0.17749514
000010 f1 df 38 be 06 58 3e bd c4 f9 d2 bd 7a 71 35 3e
       -0.18054177 -0.046470664 -0.10301545 0.17719069
000020 cd 95 d0 bd be 33 58 3e 48 19 c2 bc 6f 75 72 3e
       -0.10184822 0.21113488 -0.023693696 0.2367761
000030 18 46 f0 3d 77 cc 52 3e 0a 06 7b bd 93 86 a7 bd
       0.11732119 0.2058581 -0.061285056 -0.08179965

layers.1.weight f4 [16, 16]
000000 42 07 f1 be 85 5c b2 3e 07 f8 30 3e b2 2d 20 bf
       -0.4707585 0.34836212 0.17282115 -0.62569726
000010 16 9b 33 be dc 88 27 3f 16 7b 9f be 46 ec 8a bd
       -0.1753963 0.65443206 -0.31148595 -0.06783347
000020 51 b0 d6 be 7a 33 8a bc 4c 3b 68 bd af df 3c bf
       -0.41931394 -0.016870249 -0.056697175 -0.73778814
000030 7b f0 db 3e 0b 56 9d 3e 95 a8 37 bf 26 e6 ac 3e
       0.4295691 0.30729708 -0.7174161 0.3376934
000040 ae 2e a2 be 2f 89 95 bc c1 49 0d 3e 93 3d 20 3e
       -0.3167624 -0.01825389 0.13797666 0.15648489
000050 19 b7 00 3e d7 a8 8a be 6f 93 81 bd f5 8f 13 bf
       0.12569846 -0.2708194 -0.06326949 -0.57641536
000060 96 ea 3b 3e 06 c2 72 be 0f f4 90 3e ad 2b a8 3c
       0.18351206 -0.23706827 0.28311202 0.020528639
000070 e8 f6 54 3d f3 eb b4 be ee 4a 20 3d ff 96 15 3c
       0.05199328 -0.35336265 0.03913396 0.009130239
000080 1e a8 ec 3e 5a ad cc 3c 44 15 44 3e bb e2 0a 3f
       0.46222013 0.024985004 0.19148737 0.54252213
000090 68 7d f0 3e 34 c9 e6 be f6 c5 84 3e 95 2f 21 3f
       0.46970677 -0.4507538 0.25932282 0.6296323
0000a0 59 4a 96 3e 82 ea 04 bf 09 41 b7 3d 0d a0 11 be
       0.29353598 -0.5192033 0.08947951 -0.14221211
0000b0 e8 30 9d 3e 7a 6a b1 3e 19 e8 53 3e 58 5f a5 bd
       0.30701375 0.34651548 0.20694007 -0.08074826
0000c0 5a 68 2a 3e 85 38 fe be f2 cb 9b be c9 5d 72 3e
       0.1664137 -0.49652496 -0.30429035 0.23668589
0000d0 57 93 a7 3c ef a1 db be 9b c1 2b 3e 4a 2c 18 3f
       0.020456 -0.42896983 0.16773073 0.5944258
0000e0 08 b5 1c 3f 77 d4 05 bf 18 24 9c 3e 1d 87 fa 3d
       0.6121373 -0.5227732 0.30496287 0.12232802
0000f0 90 61 a3 be 0c fb 8e 3e 0b a6 08 3f 76 de 89 3e
       -0.31910372 0.2792591 0.5337836 0.26927537
000100 b4 22 8a be 1a 3e 8e 3e 5c ab 15 3d 66 94 d3 be
       -0.269796 0.27781755 0.036540374 -0.41324157
000110 cb ed 99 be d2 32 9a be 45 3e 3f bd 8c 5b 28 3d
       -0.30064234 -0.30116898 -0.046690244 0.04110293
000120 66 9e 25 bd b7 59 9e bd b8 e9 4a 3e fe 06 bc be
       -0.040434264 -0.077319555 0.19815719 -0.36724085
000130 82 28 9c 3e 38 2a a6 be 4f fb a3 be 94 9d 84 bc
       0.30499655 -0.32454085 -0.3202767 -0.01618842
000140 51 b4 90 be d3 43 ce 3d 87 20 d5 3e 23 51 c3 3e
       -0.2826257 0.1007153 0.4162638 0.3814784
000150 4a e4 a9 be d4 20 a0 be f1 40 0c be 28 75 ac be
       -0.33181983 -0.31275046 -0.13696648 -0.33683133
000160 75 ad d1 bd e5 e8 8a be 08 e0 a6 be 0b 35 ac be
       -0.102381624 -0.2713081 -0.32592797 -0.3363422
000170 ac a0 d7 bc 99 60 bc 3e 21 3c eb 3e 36 ab a6 be
       -0.026321732 0.36792448 0.45944312 -0.325525
000180 f1 37 1b 3d a8 9d 25 3f 20 e5 b4 3d f3 51 0f be
       0.037895147 0.6469369 0.088327646 -0.13996105
000190 64 dd 4a be ff d9 ec 3e 1d c2 12 3e db 79 f4 be
       -0.19811016 0.46260068 0.14331861 -0.47749218
0001a0 fe 1f 09 bc 9e 62 a4 3d e5 54 76 be 92 38 cb be
       -0.008369444 0.08026622 -0.24055822 -0.39691597
0001b0 4c c1 17 3e 73 90 95 be 34 fb 0e bf c8 61 98 3e
       0.1481983 -0.29211769 -0.55852056 0.297621
0001c0 e6 21 e5 3e df ff f7 3d fc 80 54 be 92 db ef 3e
       0.44752425 0.121093504 -0.20752329 0.46847206
0001d0 cb 55 00 be 8a 1a 8c 3e c1 58 56 3d 65 84 1b 3f
       -0.12532727 0.27363998 0.052330736 0.60748893
0001e0 0a b7 9b 3e 91 b6 e6 be fd aa d5 3e d1 53 47 3e
       0.30413085 -0.45061162 0.41732016 0.19465567
0001f0 ae 7d 06 bf e4 11 ea 3e 4a 8a 80 3e 0d 02 06 bf
       -0.5253552 0.45716774 0.25105506 -0.5234688
000200 d4 f1 c3 be f8 b2 08 be d9 1f 6e be 85 90 98 3e
       -0.38270438 -0.13349521 -0.23254336 0.2979776
000210 da 09 76 bd 71 d8 e6 be 1e a9 ed bd b5 f4 a7 be
       -0.06006799 -0.45087007 -0.11604522 -0.32803884
000220 d7 54 ee be eb 91 66 3d 4b fe f2 3d 6d 7e ac 3e
       -0.46549103 0.056291502 0.11864909 0.33690205
000230 8f e1 46 be 68 ce 34 be 40 92 b8 be 6e 3f 8d be
       -0.19421981 -0.17656863 -0.3604908 -0.27587456
000240 51 7d 86 3e 2a db a2 3e 8c 52 e5 be 77 b8 fb 3d
       0.26267484 0.31807834 -0.4478954 0.12291043
000250 27 f4 96 3e 80 1e e0 3e fe 4a 86 3d 6d e5 51 bd
       0.29483148 0.4377327 0.065572724 -0.051244188
000260 b9 5a b2 3e 85 1a ca be 99 29 f9 3e dd 07 10 3f
       0.3483484 -0.39473358 0.4866455 0.56262
000270 66 52 88 be 9c e8 74 3d e8 5b 9c 3e 47 91 5b 3e
       -0.26625365 0.059792146 0.3053887 0.21442138
000280 69 83 ae be 07 43 84 3e 79 1f 8b be 5b d9 96 3b
       -0.34084633 0.25832388 -0.2717245 0.0046035475
000290 6b a7 b4 be 8f 94 87 3b cc 64 0d be ec 9d 16 be
       -0.3528398 0.0041375826 -0.13807982 -0.1470868
0002a0 ef 0b c2 3e 8d 60 b9 be 58 c0 4f be e4 35 8e 3e
       0.3789973 -0.36206475 -0.20288217 0.2777549
0002b0 01 1c 43 be 34 3d af 3d 64 3c ea bd fa f0 94 be
       -0.19053651 0.085565954 -0.114373 -0.290901
0002c0 79 14 3b 3e 74 f2 27 bf a4 75 09 bf 38 ce 20 3f
       0.18269528 -0.6560433 -0.5369513 0.62814665
0002d0 4d 80 2e 3f 0d 72 fb be 7c 8e 43 3f a7 d2 a0 3d
       0.6816452 -0.4911045 0.7638929 0.07852679
0002e0 0b af 2f 3f 59 12 e7 be b2 91 1e bd 53 48 18 3f
       0.6862647 -0.45131186 -0.038713165 0.5948536
0002f0 20 09 34 be ca 6e b4 bd cc 89 0f be b5 1c ea be
       -0.17581606 -0.08810194 -0.14017409 -0.45725027
000300 02 c4 23 3e 80 b1 17 3f 6e 30 3d 3e 75 aa af 3e
       0.1599274 0.5925522 0.18475506 0.34309736
000310 89 1e 50 3e 09 18 f3 3e e4 43 6e 3e 3d 36 a0 3e
       0.20324148 0.47479275 0.23268086 0.3129138
000320 9b f3 fe bd 92 17 1b 3d 0f 64 89 3d 10 f2 c1 3d
       -0.12448808 0.037864275 0.06708538 0.09469998
000330 f6 c3 0a 3e fc da ae bd 6d 04 db 3d 45 51 02 3f
       0.13551316 -0.08537862 0.106942035 0.5090526
000340 81 b1 02 3f fc 09 86 3e 17 97 90 3e 43 3b e9 3d
       0.510521 0.26179492 0.28240272 0.113882564
000350 f2 08 2f 3f 21 b0 e0 bd 02 85 40 3c 56 27 41 3e
       0.68373024 -0.10971094 0.0117504615 0.18862662
000360 a9 67 2e 3f d4 4b 8b bd 7e bf 60 3c 12 5c a2 3e
       0.6812692 -0.068015724 0.01371753 0.3171087
000370 95 ee 83 be 87 93 17 3f 0a 83 07 3f ac 0f c4 be
       -0.2576796 0.59209484 0.52934325 -0.38293207
000380 af 16 1a bf 85 bc f8 3e cb fa 0b 3f c3 15 9a be
       -0.6019086 0.4858133 0.54679555 -0.30094728
000390 58 76 3a bf 77 89 d5 3d 7c 59 ac bd 77 a4 9c be
       -0.7283683 0.1042661 -0.08415505 -0.30594227
0003a0 a3 b2 7c be 6b fe 8b bd e4 0c 28 bf e6 d1 86 be
       -0.2467752 -0.06835636 -0.6564467 -0.26332015
0003b0 d7 bc 38 3f 50 8f bb be 75 5c 27 bf 01 ad 23 3f
       0.72163147 -0.36632776 -0.65375453 0.6393586
0003c0 c4 c6 0d bf 6a 02 68 3e ea 4a 0e be 32 b3 47 bc
       -0.5538142 0.22657171 -0.13895765 -0.01218872
0003d0 7d fc e2 be 0d 4d 13 3f fe 5a 22 bf e3 86 16 bf
       -0.44333258 0.57539445 -0.63420093 -0.5879957
0003e0 f1 81 14 bf 97 9d 95 3e a3 1c 18 bf 1f f3 45 be
       -0.58010775 0.29221794 -0.59418696 -0.19331025
0003f0 13 00 0a 3f ba 12 0d bf 39 28 05 be 8f 40 fb 3e
       0.53906363 -0.551067 -0.13003625 0.49072692

layers.1.bias f4 [16]
000000 3d 41 1c 3e 09 ba bb bd 17 ca 0e be e9 de 1c 3e
       0.15259261 -0.09166343 -0.13944279 0.15319408
000010 90 11 5b 3e c4 b9 93 bd c6 2b a2 3e 68 8e 44 3e
       0.21393418 -0.07213166 0.3167402 0.19194949
000020 6b 51 32 3e b1 7a 0f be c2 4a 23 3e b8 ea 34 3e
       0.17413871 -0.14011647 0.15946487 0.17667663
000030 54 2c 80 bd ea 8d 4d 3e 98 7c 39 3e 7d a5 7f bd
       -0.06258455 0.20073667 0.18113935 -0.06241368

layers.2.weight f4 [16, 16]
000000 29 3f 61 3d bb be e9 be 80 c8 4e be 13 c7 c4 3e
       0.054991875 -0.45653328 -0.20193672 0.38433132
000010 79 07 ca be 63 b4 21 bf da ee 91 bd 7c b1 c0 bc
       -0.39458826 -0.63165873 -0.071256354 -0.023522131
000020 fa e7 0a 3f 0c 19 1f 3f 45 90 f6 3e fb 62 b5 3e
       0.5426022 0.62147593 0.48156944 0.3542708
000030 5f 66 01 3f 47 aa dc 3e f1 b7 d7 be b7 99 f3 3e
       0.5054683 0.4309866 -0.42132524 0.47578213
000040 f1 f3 1c 3c 6b 47 f8 3e 0c 6e 2d 3f 19 87 83 bd
       0.009579645 0.48491988 0.67746043 -0.06422252
000050 9a 8c 04 3e ae 66 4d 3e 9c 5d ad 3b 13 6e f7 3e
       0.1294426 0.200587 0.0052907 0.48326167
000060 90 f9 a4 be b7 65 43 be fc 03 4d bc 75 74 2f 3d
       -0.3222165 -0.1908177 -0.012513157 0.04283567
000070 f7 78 de be b7 85 78 3c 4a e5 bb 3e 39 6e 2a bf
       -0.43451664 0.015168599 0.3669837 -0.66574436
000080 62 9c 8f be f1 cf e7 3e f0 2a 6f 3e 1c 94 52 3d
       -0.28048998 0.45275834 0.23356223 0.05141078
000090 d9 fd 67 3e 47 b0 aa 3e ae df c9 3e cb c4 ab 3e
       0.22655429 0.33337614 0.39428467 0.3354858
0000a0 0c 7e 93 3e 06 9d 47 be a2 26 7f be 7e 18 02 bf
       0.28807104 -0.19493493 -0.24917081 -0.5081862
0000b0 ba 4c 83 bc 31 0c b8 be 6b 90 08 3f 64 0d 46 3e
       -0.016027797 -0.359468 0.53345364 0.19341046
0000c0 5a 12 34 be 4d d2 2d be d4 ea b0 be 90 b7 7a 3e
       -0.17585126 -0.16974755 -0.3455416 0.24484086
0000d0 37 bf 06 bf 6d d3 f7 be 35 82 d0 3d 41 a0 a7 be
       -0.5263552 -0.48403493 0.10181085 -0.32739452
0000e0 d5 0d 8f 3e 94 18 ca 3c b1 fb eb bd 33 92 8c 3e
       0.2794024 0.024669923 -0.11522616 0.2745529
0000f0 b7 16 e3 bb e5 8b 15 3f 9e e0 16 bf c7 a3 a7 3d
       -0.006930198 0.5841659 -0.5893649 0.08185535
000100 92 0c 78 3e 5c 39 3b be a0 0c ee be ae 5b 94 3e
       0.24223545 -0.182836 -0.46494007 0.28976196
000110 6c 41 cb 3d 5b 69 27 bf 56 54 10 bd cd cf fb bd
       0.099245876 -0.65395135 -0.03523668 -0.12295494
000120 b2 aa 03 3f 3f dc 23 3d 7e 12 c4 3e 49 97 18 be
       0.51432335 0.040004965 0.38295358 -0.1490146
000130 60 3a be 3d af b2 25 3f 9d 56 10 bf 93 bf 88 3e
       0.09288478 0.64725775 -0.5638216 0.2670866
000140 1a 6c 70 be 04 ba eb 3e 1c 33 d7 3e 42 d0 05 bf
       -0.23478737 0.46040356 0.4203118 -0.522709
000150 a3 51 c4 3e 7b ae b5 3e 89 f8 f7 3e 1f 16 a9 3e
       0.38343534 0.3548468 0.48431805 0.3302469
000160 18 67 9c be 43 98 25 bd 03 a6 76 bd 17 e0 c4 3d
       -0.30547404 -0.04042841 -0.060216915 0.09613054
000170 7c 20 12 bf 38 4e 53 3e 20 38 8e bd cb 96 97 be
       -0.5708082 0.20635307 -0.06944299 -0.29607233
000180 f1 77 10 3e 27 15 04 bf 53 1e 3d bf 73 ce 29 3f
       0.14108254 -0.51594776 -0.73874396 0.6633064
000190 4e 80 d4 be dd d5 49 be af 7f da be 7f 82 46 bf
       -0.4150414 -0.19710489 -0.4267554 -0.7754287
0001a0 ad 39 14 3e fd 94 4f 3f de b7 48 3f 5c c2 4c 3f
       0.14475127 0.81086713 0.7840556 0.7998407
0001b0 86 e6 44 3e 99 23 01 3f 48 55 0a bf e4 92 22 3f
       0.19228563 0.5044494 -0.5403638 0.6350539
0001c0 58 9b 04 3f f0 81 ab bd 97 7d 02 bf c6 14 cb 3c
       0.51799536 -0.08374393 -0.50972885 0.024790179
0001d0 9e 54 1a bf 73 f4 1b 3e 57 ae e3 be 4c f1 7e be
       -0.60285366 0.15229969 -0.44468948 -0.24896735
0001e0 0a ae fc 3e 0f 12 23 3f 11 fa a5 3e 4d c1 27 3f
       0.4935153 0.6369943 0.32417348 0.6552933
0001f0 8b 64 15 be c1 1d 2f 3e c6 da 37 be 38 7d ef 3e
       -0.14589135 0.17101194 -0.17954549 0.46775222
000200 3f 9e f9 3e 7d ce b5 be 6e ea 70 be 10 80 93 bb
       0.48753545 -0.355091 -0.23526928 -0.00450135
000210 55 6f e6 be ad 6b 19 3e 5d d3 31 bc 5a 8e 01 bf
       -0.45006815 0.14982481 -0.010853616 -0.50607836
000220 93 44 1b 3f 7a 06 23 be 8f 07 46 bd dc fc 1f 3f
       0.6065151 -0.1592044 -0.048347052 0.6249521
000230 9e e3 4a 3e ff af 30 be 4f 3f 1c be 83 1c 53 bd
       0.19813392 -0.17254637 -0.15258525 -0.051540863
000240 b3 2c 8e 3d 67 85 e9 3e af c8 cc 3d ae c3 67 be
       0.069421194 0.4560959 0.09999215 -0.2263324
000250 c0 70 bb 3e c0 c6 ea 3e 6c 36 9c 3d 91 0e 18 3e
       0.3660946 0.4585476 0.07627568 0.14849307
000260 02 73 7f 3e 82 dc ae be a2 47 e4 be 97 18 d0 bd
       0.24946216 -0.3415261 -0.44585901 -0.1016094
000270 6d 73 4d be 0d 45 a7 be dd 26 63 bd 83 49 6f bd
       -0.20063563 -0.3266987 -0.055456985 -0.058419716
000280 51 ef de 3e da 4d 12 bf 15 70 2f bd fb 7a 9f 3e
       0.4354196 -0.5715004 -0.0428315 0.31148514
000290 45 5b 43 3e c2 82 1a bf db a8 1f bf b6 fc 27 3e
       0.19077785 -0.6035577 -0.6236703 0.16404995
0002a0 93 87 8a 3d f3 f4 89 3e de 27 0f 3f b8 e9 08 3f
       0.0676414 0.26944694 0.5592021 0.53481627
0002b0 84 b5 d9 3e e3 d0 ac 3e 1b aa 24 3e 64 86 91 3d
       0.42521298 0.33753118 0.16080515 0.07105711
0002c0 6e 8f 55 3e b9 36 bf bd 37 f5 9a be e4 95 06 3f
       0.20855495 -0.093366094 -0.3026521 0.52572465
0002d0 08 6a 0e be 37 cb 5b 3d 1e 83 b0 be bb 37 06 bf
       -0.13907635 0.053660598 -0.34475034 -0.5242879
0002e0 6a f8 fc bc 10 e2 bc 3d 94 ea ca 3e 08 57 fe 3e
       -0.030880172 0.092228055 0.39632094 0.49675775
0002f0 51 65 8b 3c d5 cb 22 3e 27 d5 f8 be c5 61 23 3e
       0.017016085 0.15898068 -0.48600122 0.15955265
000300 0f 2e 19 bf 46 72 6b 3e 4f 8c 03 3f 48 9d 6a be
       -0.59835905 0.2299281 0.5138597 -0.2291156
000310 42 58 0c 3f fa f5 e3 3e 78 3a 3a 3e db d4 c4 bc
       0.5482217 0.44523603 0.18186367 -0.024027279
000320 d8 25 0c bf df b2 db be eb f4 bb be e4 87 38 bd
       -0.54745245 -0.42909905 -0.36710295 -0.04505147
000330 af fe 1f bf 25 65 8d bd da f9 fa bd 6b ac 08 bc
       -0.6249799 -0.069040574 -0.12254687 -0.008341889
000340 03 86 16 3e 42 f7 33 3e 1f 43 96 be c2 cb 0f 3f
       0.14699559 0.1757479 -0.29348084 0.56170285
000350 0f a1 01 bf cb 58 1d bf 53 16 ae be 09 42 96 3d
       -0.5063638 -0.6146361 -0.34001407 0.07336814
000360 41 6f 06 3f 9f 75 63 bd 98 28 bf 3e 17 5f a5 3e
       0.5251351 -0.055532094 0.37335658 0.3229911
000370 c8 19 9b 3e 9a 26 fe 3e 1a 9c 8d 3c f1 4e 0d 3f
       0.30293107 0.49638826 0.01728635 0.5519858
000380 ee de fa 3c 01 ca 08 bf 79 36 e3 3d 80 c2 19 be
       0.03062388 -0.53433233 0.11094374 -0.15015602
000390 ef 1d 48 be 38 05 9d bd b5 3b d2 be 04 74 ec be
       -0.19542669 -0.07667011 -0.41061178 -0.46182263
0003a0 c9 c5 d3 3e 24 cc 6b 3e 0e 45 1e 3e f3 1e 05 be
       0.41361836 0.23027092 0.1545603 -0.13000087
0003b0 47 aa 07 3f ee 5b 08 3f b5 93 e3 be 48 fd 16 3d
       0.529942 0.53265274 -0.4444863 0.03686264
0003c0 80 86 00 bf 80 db bd 3e 55 4d 1e 3e 12 e8 d7 be
       -0.5020523 0.37081528 0.15459187 -0.42169243
0003d0 4b c5 13 3f 6c 50 d8 3e a8 8e e4 bd da 87 01 3f
       0.5772292 0.42248857 -0.11160022 0.5059792
0003e0 50 94 97 3d 1d 10 be bd 0f 51 b7 be 1c cb 20 be
       0.07401335 -0.09280417 -0.3580403 -0.1570248
0003f0 a5 af ec be e4 53 5d bd 30 3f de 3e 23 ba 0b bf
       -0.46227756 -0.054035082 0.43407583 -0.545809

layers.2.bias f4 [16]
000000 9b 60 3c 3e ec c5 fe bd 7e 37 04 be 63 3f 09 3e
       0.18396227 -0.12440094 -0.12911794 0.13403086
000010 f5 c2 09 be e6 8b 01 be 90 57 42 be e7 5d fe bd
       -0.13453276 -0.12651023 -0.18978715 -0.12420254
000020 16 f3 08 3e 35 e5 0a 3e 15 e3 09 3e 08 40 fd 3d
       0.1337398 0.13563998 0.13465531 0.123657286
000030 14 7c fe 3d ff d8 f3 3d 7f e9 3a be 46 66 0d 3e
       0.1242601 0.11906623 -0.18253134 0.13808545

predict.weight f4 [1, 16]
000000 47 cf 8f 3e 8b 5f e3 be 93 27 e0 be 56 cf cd 3e
       0.28087828 -0.4440883 -0.43780193 0.40197247
000010 5f 27 c8 be 40 e0 dc be 55 1e 73 be 1c 7e ec be
       -0.39092538 -0.4313984 -0.2374204 -0.46189964
000020 20 24 af 3e 8e 00 b2 3e d7 4b b7 3e 62 0c b8 3e
       0.3420725 0.34766048 0.3580005 0.35946947
000030 03 54 f1 3e b5 7c d6 3e cd 89 80 be f1 bd bd 3e
       0.47134408 0.4189202 -0.25105134 0.37058976
