demo/data/example/models/model_dim10_lay4.pth (torch, 5377 bytes, 11 tensors)

linear.weight f4 [10, 1]
00000000: 05e5 87bf 5904 03bf 8f87 193e 0957 23be
00000010: 05f6 363f aa56 b2bd feb8 4b3f c409 8b3f
00000020: 028a 03bd c52d 843f
-1.0616766 -0.5117851 0.14993118 -0.1595117 0.71469146 -0.08707936 0.7957915 1.0862355
-0.032114036 1.0326468

linear.bias f4 [10]
00000000: 5fa2 d7be b757 4c3e fb22 85bf 75e1 d6be
00000010: fe70 243f 5402 ac3e f16d 813f 3fc7 a0be
00000020: 183a 883f bd58 32bf
-0.42116067 0.19955336 -1.04013 -0.41968885 0.6423491 0.33595526 1.0111676 -0.31402013
1.0642729 -0.69666654

conv_0.weight f4 [10, 10]
00000000: 93ed ecbe 2c84 a53e 6556 1b3f fda8 15bf
00000010: ce1a 84be 6c04 83bd 2470 93be 74e7 eb3d
00000020: b2ec 03bf 969b 9ebe 11ce 17bc 505a c2bd
00000030: 3f5d 813e d3a6 07bf 37fc 1ebf 6cbd 00bf
00000040: a95a 943e 9e4a fcbc 8347 913e 2a8f 19bf
00000050: eab6 17bf cc1c b4be 320e b0be 07c3 9b3e
00000060: 6ee8 8cbe 2a76 bcbe 67ca 12bd 7689 323e
00000070: 9329 5ebd 39c1 01be f2ba 75be c5fe 693e
00000080: 8dc1 81bd 7c52 f1be f878 0fbf f372 d2bd
00000090: 9322 24bf 100a c13e 2bf8 dc3e 1b26 11bd
000000a0: a387 dcbe 5251 6a3e 99c4 b03d 5ca2 163f
000000b0: 3f10 2d3e 767c 193f 7bc1 01be 0c43 dc3e
000000c0: 283a 0b3f 79f4 a4be e1ee 79be e459 ea3e
000000d0: e4da 7f3d 449a 1b3f ec52 9f3e b7a1 cdbe
000000e0: c7f0 3c3c 9835 34be 1730 45bb ce3f 1fbd
000000f0: cebf 173f cd26 cdbe ca49 d4be 73bd 1a3e
00000100: 8b96 e23e 5cef 84be 3823 2b3e a9b1 d13e
00000110: f05f 30be 81af d23d 473b 183f 8a96 fb3e
00000120: f9bb 8cbe f508 f13d 63cd 173f fb35 e7bd
00000130: cafb 013d 60d6 b93e a24a 1d3f 2373 ff3e
00000140: 234f b3be 06a4 a9be 9e3a 08bf 51aa 153f
00000150: 83a6 ff3e 121c ee3e 6d06 8b3e 663b 95be
00000160: fa43 da3c 6116 013f 76b9 f83e bc21 a6be
00000170: a1a8 2cbe e950 ea3e bb11 973e 7b3d 853e
00000180: 59b5 113d ae2e 0c3e f07b a43e 7ed3 3ebe
-0.46275005 0.32327402 0.606787 -0.5846098 -0.258017 -0.06397328 -0.28796494 0.115187556
-0.51533043 -0.30978078 -0.009265439 -0.09489882 0.25266454 -0.5298893 -0.621036 -0.50289035
0.28975418 -0.030797299 0.28374872 -0.59984076 -0.5926348 -0.3517822 -0.3438583 0.30422232
-0.2752108 -0.36808902 -0.035837557 0.1743525 -0.054238867 -0.12671365 -0.23997095 0.22851093
-0.06335745 -0.47133243 -0.5604396 -0.10275831 -0.64115256 0.3770299 0.43158087 -0.03543673
-0.43072233 0.22882584 0.08631248 0.5884149 0.16900729 0.5995554 -0.12671463 0.43019903
0.54385614 -0.32217768 -0.24407531 0.45771706 0.06246461 0.60782266 0.31117952 -0.4016244
0.011532015 -0.1759857 -0.0030088478 -0.03887921 0.59277046 -0.40068665 -0.41462547 0.15111332
0.4425548 -0.25963867 0.16712654 0.40955856 -0.17224097 0.10287381 0.5946545 0.4913829
-0.27487162 0.117692865 0.5929777 -0.11289593 0.031734265 0.36296368 0.61442006 0.4989253
-0.35021314 -0.33132952 -0.5321444 0.5846301 0.49931726 0.4650579 0.2715334 -0.2914688
0.026643742 0.5042477 0.48578995 -0.32447612 -0.16861202 0.45764855 0.29505715 0.26023468
0.035573337 0.13689682 0.32125807 -0.18635365

conv_0.bias f4 [10]
00000000: 53bb dc3d 4fc2 ba3d 30e3 d8bd 7cc4 f43d
00000010: a26c f73d 7dd4 cb3d 0510 d03d 4a53 a13c
00000020: 4f4e b63d 7592 e63d
0.10777917 0.09119093 -0.105902076 0.11951539 0.12081267 0.09952638 0.101593055 0.019693036
0.08901655 0.11258403

layers.0.weight f4 [10, 10]
00000000: a3e0 67be adac a93e 2601 a83e f947 8c3e
00000010: d8ec f2be 424c 8dbd 10b0 053f fbca da3e
00000020: f19a e03e a7c1 113f 8664 e23c cd3f a03e
00000030: a1e3 bebd 093e 9e3e 38da ae3e 6d24 023f
00000040: 13ee 0e3e 94f9 e93e 939e bfbe ca38 c8bd
00000050: e6fd f1be 844f 00bf ab4c 043e 07d3 ecbe
00000060: e31a 843e c672 8b3e 2a67 8ebe 3653 f9be
00000070: 80a2 81bd 2c27 ca3e 646f dabe 30d1 fe3d
00000080: 216a 033f 81bd 073f 90bd eebe e119 edbe
00000090: 869f 003f b6af ba3e b16d e53e 20e0 893e
000000a0: e26d 94be 9325 b3bd 7933 ff3d c95b 18be
000000b0: 0b78 1fbf 7e68 a93e 3521 223e ba76 123f
000000c0: 679f ae3d 25d1 853e 2429 d03d 208c 99be
000000d0: d431 b03e d9c8 183f 56e0 84be cddf 22be
000000e0: 0674 e0be b8f6 f83e 0d89 103e 99d2 943e
000000f0: 0be3 b63e 3e6d ba3e be19 7e3d cce9 273f
00000100: 6b7e 1fbf 3bd0 98be 7a20 7fbe d219 133f
00000110: 53ea 773e 49d6 b9be 4d98 c13e 9d53 98bd
00000120: c7bf aabe 1f35 c73e 4d91 07bf e598 25be
00000130: d7d9 0f3e 8779 963e a824 cabe d63a ddbe
00000140: 65ed 833d 0175 903e afd0 033f 59a8 813e
00000150: 0c3f a13e 841a 21bf 8895 b63e e151 e73d
00000160: 8d75 d93e e98d 7a3e e625 a2be f802 0a3f
00000170: 81c6 a3be bcaf bc3e 7354 373e 6b57 1fbf
00000180: 2c92 05be 9e26 b43d dc56 163f db42 bbbe
-0.22644286 0.33139554 0.32813376 0.2739866 -0.47446322 -0.06899311 0.52221775 0.42732987
0.4386821 0.56936115 0.027635824 0.31298676 -0.093207605 0.30906704 0.34150863 0.5083683
0.13958006 0.45698225 -0.3742567 -0.09776457 -0.47264022 -0.5012133 0.12919872 -0.4625475
0.25801763 0.27236003 -0.27813083 -0.48696297 -0.063298225 0.3948301 -0.4266311 0.12442243
0.51333815 0.53023535 -0.46629 -0.46308807 0.50243413 0.36462182 0.4481025 0.26928806
-0.28990084 -0.08747401 0.124609895 -0.14878763 -0.62292546 0.33087534 0.1583298 0.5721241
0.08526497 0.26136127 0.10164097 -0.2998972 0.34413016 0.5968147 -0.25952405 -0.15905686
-0.4383852 0.4862573 0.1411478 0.29066923 0.35720095 0.3641147 0.06203627 0.6559112
-0.62302274 -0.29846367 -0.24914733 0.57461274 0.24210481 -0.362963 0.3781151 -0.07437823
-0.3334944 0.38907716 -0.52956086 -0.16171606 0.14047943 0.29389593 -0.39481091 -0.4320895
0.06441764 0.28214267 0.514903 0.25323752 0.31493413 -0.62931085 0.35660958 0.11294914
0.42472497 0.24468197 -0.3166954 0.5391078 -0.31987384 0.36852825 0.17903309 -0.62242764
-0.13044041 0.08796428 0.58726287 -0.36574444

layers.0.bias f4 [10]
00000000: fbb3 24bd a2c4 9e3d e71c a03c 90ef ce3d
00000010: 091a d2bd 18e6 e0bd 8225 a03d f884 cf3d
00000020: cadc f53d 13ae 593c
-0.040210705 0.077523485 0.019545032 0.10104287 -0.10258872 -0.10981387 0.07819654 0.10132784
0.12005003 0.013286131

layers.1.weight f4 [10, 10]
00000000: da85 963e 850e 74bc 2f1c cc3d 860a bf3e
00000010: 5a79 cabd 574b bcbe 1079 2a3f 3d4d 513e
00000020: 0980 80be 8c94 d8be ad12 143e 62af 0e3e
00000030: bb5f 373b c2d8 ec3d e6a1 6dbe d5c7 0a3f
00000040: 28b3 3c3e 73f3 bd3e e9fb cdbc e6f1 f63e
00000050: 6069 873e 8688 56be 671d 28be 15f2 933d
00000060: 4553 fabe c329 e73e 9f11 60be 4528 d93e
00000070: 54be e7be 12a6 413e c3e5 2e3e 65e1 bc3e
00000080: 678f 74be a4ec a13e a047 54be f180 913e
00000090: d1b3 1bbe cc2d 89be 8ec6 c83a 877e 193f
000000a0: 3c13 17be f50e 56be 234b a3bd 726d 133f
000000b0: d7c5 60be c122 bcbe 976f cc3e f451 3abe
000000c0: f638 8d3d 9638 05bc 69ab d3bd ca82 aabe
000000d0: 51d5 f3bd b30c c1be 2210 a23e 5d35 a5be
000000e0: 5414 c7be 88d4 8dbd 39f4 743e 66c0 0abe
000000f0: ac6a 1f3f 0cc4 c23e 4ddb 18bd 02d1 8cbe
00000100: 42ee 10bf 0467 b1be b96c 483e bc18 ca3e
00000110: 8e19 07bf 9571 42be f4b2 db3d dd8f 0c3f
00000120: 674a 113f e526 a7bc 873c d8be f74a 123f
00000130: dbe7 f9be 3dd1 0bbf 3ef5 01bf c2b7 253f
00000140: be9f af3e 9b82 be3e 23c1 0a3f bd3b 88be
00000150: 1801 4dbd 883b 293f 491f dcbe 3b82 143e
00000160: 7753 25be 4122 ae3d 4cdd 0d3e 7193 09be
00000170: 8919 69be 2398 ce3e e643 acbe 5a1f 1b3f
00000180: 18ff 1cbf f0ff 913e 5e55 aabd 7a70 983d
0.29398996 -0.01489604 0.09966313 0.37312716 -0.09886427 -0.3677623 0.66590977 0.2043962
-0.25097683 -0.42300832 0.14460249 0.1393409 0.0027980644 0.11564781 -0.2320629 0.5421117
0.18427718 0.370998 -0.025144534 0.4823143 0.26447582 -0.20950517 -0.16417466 0.07223908
-0.48891655 0.4514905 -0.21881722 0.42413536 -0.45262396 0.18911007 0.17079835 0.36890712
-0.23882829 0.31625855 -0.20730448 0.28418687 -0.15205313 -0.26792753 0.0015317963 0.5995869
-0.14753431 -0.20904143 -0.079733156 0.57588875 -0.2195047 -0.36745265 0.39928886 -0.18195325
0.0689563 -0.008131167 -0.10335428 -0.3330291 -0.11905921 -0.37705 0.31652933 -0.32267275
-0.38882697 -0.06925303 0.23921289 -0.13549957 0.62272143 0.38040197 -0.037318517 -0.2750321
-0.5661355 -0.34648907 0.19572724 0.39471996 -0.5277337 -0.1898864 0.10727492 0.5490702
0.56754154 -0.020404289 -0.4223368 0.5714564 -0.48809704 -0.5461615 -0.50764835 0.6473352
0.3430156 0.3720902 0.54200953 -0.26608077 -0.05004987 0.6610646 -0.4299262 0.14502804
-0.1614512 0.08502627 0.1385395 -0.1343515 -0.22763647 0.40350446 -0.33645552 0.60594714
-0.6132674 0.28515577 -0.08317064 0.07443328

layers.1.bias f4 [10]
00000000: 1647 dc3d ec96 d13d 488e 5d3e eeb8 a0bd
00000010: 0469 ecbd 219d eb3d f848 fabd 327f e1bc
00000020: 3efd 72bd 98d9 e83d
0.10755746 0.10233864 0.21636307 -0.078477725 -0.11543468 0.11504579 -0.12220949 -0.027526472
-0.05932354 0.11369628

layers.2.weight f4 [10, 10]
00000000: f716 1abf b98a 983c 7c3a b13d 247b 943e
00000010: 4b70 123f 1c26 f0bd b26a 273f e4b0 1b3f
00000020: 9bfa 5cbe 3007 c6be 75c3 d2be 86b1 0fbe
00000030: 02c9 42be c2a1 183f 3ec3 2e3d 438f ccbe
00000040: 1cc8 273f 8248 213f eec3 5ebe e294 09be
00000050: b4a5 0bbf 60fd 6cbe df2f b33e 82d1 973d
00000060: af6c a63e db44 81be 4e1b c6bd e284 f23e
00000070: e24c fcbd fff8 963e 418e 843e 7ff9 b13c
00000080: 2368 a8bd 0283 973e 9aea a6bd b0d2 e93e
00000090: e980 df3e 1c13 e9bd 51c4 c73c 5a70 103f
000000a0: be38 01be 8869 4a3e cdbf 08bf aae0 fdbd
000000b0: 450e 08bf 4472 42be 22ec aa3d 4fbe 17bf
000000c0: 535f 093e a6b0 c23e 7fef 25be d5db f6be
000000d0: 0af0 dc3e 2d2b 8ebe 4daf 793e 3857 303e
000000e0: b5a3 053f 3b4c d73e e2fa c6be d52b 2dbe
000000f0: 74de b33e 3701 8dbe 6389 1dbf 4843 d7be
00000100: 6362 14bf b6ca d8be 2844 9fbe e236 833c
00000110: 81d7 44be 8bad b33c 77f6 85bd 0913 b93e
00000120: d276 b1ba 722c 28be 46b1 88be f6bb ff3e
00000130: bfb8 513e 3b95 95be 8888 dd3e 6a69 f6ba
00000140: d7d9 113f ed31 b43e 60b8 c0be 03a1 af3e
00000150: 1e5a 4cbe 8680 aabe 1258 323d e44c 493d
00000160: fc34 503e 4e6d c2be 8d50 c6bd b8fd ce3d
00000170: ce04 d33e 1dc4 223f 6d84 2fbe b1e2 11bf
00000180: d696 8e3e b25f 803e fb97 ee3e 4163 b9be
-0.6019129 0.018620836 0.08653733 0.290002 0.57202595 -0.11726019 0.6539718 0.6081679
-0.21579973 -0.3867736 -0.41164747 -0.14032564 -0.19021991 0.5962182 0.042666666 -0.3995305
0.6553972 0.63001263 -0.21754429 -0.134357 -0.5454972 -0.2314353 0.3499746 0.07413007
0.32504794 -0.25247845 -0.09673177 0.47367007 -0.12319352 0.29486844 0.2588978 0.021725414
-0.082229875 0.2959214 -0.081502154 0.45668554 0.43653038 -0.11380598 0.024385603 0.56421435
-0.12619302 0.1976682 -0.53417665 -0.12396367 -0.53146774 -0.18988901 0.0834582 -0.5927476
0.1341527 0.38025397 -0.16204642 -0.48214594 0.43151885 -0.27767316 0.24383278 0.17220771
0.5220292 0.42050347 -0.38863283 -0.16911252 0.35130656 -0.2753999 -0.6153776 -0.4204352
-0.57962626 -0.42342156 -0.31106687 0.016017381 -0.19222833 0.021933338 -0.0654115 0.36147335
-0.001353944 -0.16423205 -0.2669775 0.4994809 0.20480631 -0.29215416 0.43268228 -0.0018799726
0.5697302 0.3519434 -0.37640667 0.3430253 -0.19956252 -0.3330118 0.04354102 0.049145594
0.20332712 -0.37974018 -0.096833326 0.10106987 0.41214603 0.63580495 -0.1714036 -0.5698653
0.27849454 0.2507301 0.46600327 -0.36208537

layers.2.bias f4 [10]
00000000: 8d21 0dbe c655 b6bd b931 f43d 4e2f bc3d
00000010: 315f bc3d ccdc c0bd 9330 c73d c9f3 153e
00000020: 9f2f 783c 13a1 163c
-0.1378233 -0.08903079 0.11923546 0.0918871 0.09197844 -0.09417114 0.09726062 0.14643778
0.0151480725 0.0091936765

predict.weight f4 [1, 10]
00000000: eccd 153e 6f22 d63e 90b4 24be 06d0 96be
00000010: 7e20 b8be 452e 753e 6cc3 4fbe 1d2c f0bd
00000020: 0e24 3e3d f6a7 673d
0.14629334 0.41823146 -0.16084504 -0.29455584 -0.3596229 0.23943432 -0.20289391 -0.11727164
0.046421103 0.056556664
