demo/data/example/models/model_dim3_lay2.pth (torch, 2767 bytes, 7 tensors)

linear.weight f4 [3, 1]
-0.2770683 0.37038067 0.50148517
00000000: e5db 8dbe 89a2 bd3e 5561 003f

linear.bias f4 [3]
0.93969184 -0.9010911 -0.034089614
00000000: a58f 703f e8ad 66bf 8da1 0bbd

conv_0.weight f4 [3, 3]
0.8721474 -0.07628747 -0.41750652 -0.7656622 -0.83846605 0.6236492 1.2771989 -0.38184196
-0.6195496
00000000: 0d45 5f3f 9b3c 9cbd 6ac3 d5be 7002 44bf
00000010: b6a5 56bf 79a7 1f3f 417b a33f ca80 c3be
00000020: cd9a 1ebf

conv_0.bias f4 [3]
0.2539504 0.32414433 -0.11651613
00000000: c905 823e 3ff6 a53e 02a0 eebd

layers.0.weight f4 [3, 3]
0.88790303 0.6863547 -1.11992 1.0538622 -0.26207146 -1.2459333 -1.0411568 0.4214107
1.1853621
00000000: 9d4d 633f f1b4 2f3f 8a59 8fbf f5e4 863f
00000010: 3b2e 86be be7a 9fbf a044 85bf 25c3 d73e
00000020: f2b9 973f

layers.0.bias f4 [3]
0.21679436 0.22459725 -0.24093533
00000000: 57ff 5d3e d2fc 653e c0b7 76be

predict.weight f4 [1, 3]
-0.44361287 -0.3890548 0.29034472
00000000: 3a21 e3be 3132 c7be 10a8 943e
