demo/data/example/models/model_dim8_lay1.pth (torch, 2391 bytes, 5 tensors)

linear.weight f4 [8, 1]
0	0x3f2c1d98	0.67232656
1	0xbf1a5300	-0.602829
2	0x3e6b4f50	0.22979474
3	0x3e0836e8	0.13302195
4	0x3f3fe1d2	0.7495395
5	0xbf065c14	-0.5248425
6	0xbea2081c	-0.31646812
7	0xbd8c3950	-0.06846869

linear.bias f4 [8]
0	0x3c20de00	0.009818554
1	0x3f23b470	0.639472
2	0xbf18d98a	-0.5970694
3	0x3f7daa24	0.9908774
4	0xbe0870a8	-0.13324225
5	0x3e9f2528	0.31083035
6	0x3edaadf8	0.42710853
7	0xbf3a8f34	-0.7287476

conv_0.weight f4 [8, 8]
0	0x3e511dbc	0.20421499
1	0xbe3de1b9	-0.18543138
2	0xbd3e884f	-0.046516713
3	0x3e5c95fc	0.2154159
4	0xbd5f6515	-0.05453976
5	0xbf1259ef	-0.5716848
6	0x3c54989a	0.012975836
7	0xbf027951	-0.50966364
8	0xbe9312a4	-0.2872516
9	0xbef160b2	-0.47144085
10	0x3e595a89	0.21225943
11	0xbd6c1951	-0.05764133
12	0xbf0b57be	-0.5443076
13	0x3cd85c53	0.026411211
14	0x3f17ce33	0.5929901
15	0xbe0710d4	-0.13190013
16	0xbd80d317	-0.06290262
17	0xbeae1d12	-0.34006554
18	0xbe4fbc5b	-0.20286696
19	0xbf08dde5	-0.53463584
20	0x3e61bc58	0.22044504
21	0xbf08d515	-0.5345014
22	0x3e60af1d	0.219418
23	0x3e39b01f	0.18133591
24	0x3f0de122	0.5542165
25	0xbe35f4ef	-0.17769216
26	0x3de9f01d	0.11422751
27	0xbf1238cc	-0.57117915
28	0xbc92415f	-0.017853437
29	0x3f192a28	0.5982995
30	0x3f088fda	0.533445
31	0x3d3d53c0	0.04622245
32	0xbdd8815f	-0.105715506
33	0xbf13a927	-0.5767998
34	0xbdcfb5df	-0.10142111
35	0xbf1a82a4	-0.6035559
36	0x3c77ea48	0.015131541
37	0x3c1f3473	0.009717095
38	0x3e19178d	0.1495039
39	0xbdf539a1	-0.119738825
40	0xbea7bcdc	-0.32761276
41	0xbf18897f	-0.595848
42	0x3edf05c5	0.4355909
43	0xbecac32b	-0.39602026
44	0xbeb62a87	-0.3557932
45	0x3c956d39	0.018240558
46	0x3e4a5a23	0.19760947
47	0x3d23a22e	0.03994959
48	0x3f14759a	0.57991946
49	0x3cdbd182	0.0268333
50	0xbe3a333f	-0.18183611
51	0x3f05b68c	0.5223167
52	0x3e55f487	0.20894061
53	0x3edd2b76	0.4319722
54	0x3ebf58ab	0.37372336
55	0xbf0e1829	-0.55505615
56	0x3ca830fb	0.020531168
57	0x3ddebcc1	0.10875846
58	0x3e4f3edc	0.20238823
59	0xbee5d6b3	-0.44890365
60	0xbeb530eb	-0.35388884
61	0xbd18a31b	-0.037264924
62	0x3f0e2ee1	0.5554028
63	0x3eaa13b1	0.33218148

conv_0.bias f4 [8]
0	0x00000000	0.0
1	0x00000000	0.0
2	0x00000000	0.0
3	0x00000000	0.0
4	0x00000000	0.0
5	0x00000000	0.0
6	0x00000000	0.0
7	0x00000000	0.0

predict.weight f4 [1, 8]
0	0x3e269793	0.16268758
1	0x3e32df19	0.17467918
2	0x3e01b4c6	0.12666616
3	0x3e54eaf3	0.20792751
4	0x3d3340fa	0.04376314
5	0xbe3a5e10	-0.18199944
6	0xbe03e985	-0.1288205
7	0x3e86aa66	0.2630188
