demo/data/example/models/model.pth (torch, 2391 bytes, 5 tensors)

linear.weight f4 [8, 1]
0	0xbf9085c1	-1.1290818
1	0xbd812b92	-0.063071385
2	0x3e42b3ce	0.19013903
3	0xbf345e09	-0.70455986
4	0x3f0d9346	0.55302846
5	0xbf1cdced	-0.61274606
6	0x3f11f5c1	0.57015616
7	0x3e5a5cd4	0.21324474

linear.bias f4 [8]
0	0xbe8dcfaa	-0.27697498
1	0x3f021928	0.50819635
2	0xbf025633	-0.5091278
3	0xbf8d4a7d	-1.1038357
4	0x3f5965aa	0.8492075
5	0x3f8d8636	1.1056583
6	0x3ebb980d	0.36639443
7	0x3f68f48d	0.90998155

conv_0.weight f4 [8, 8]
0	0xbe062323	-0.13099341
1	0xbd86a7a2	-0.06574942
2	0xbe4b0e7f	-0.19829749
3	0x3de7167d	0.11283586
4	0x3e8b0e58	0.2715938
5	0x3effa062	0.4992705
6	0x3ea29121	0.3175135
7	0xbf0daebd	-0.55344754
8	0xbec3f37e	-0.38271707
9	0x3dad8649	0.084728785
10	0x3f16a2fd	0.5884245
11	0x3eab6710	0.33477068
12	0xbe124758	-0.14285028
13	0xbe265a8f	-0.16245483
14	0xbf39026c	-0.7226932
15	0xbe21911d	-0.15778013
16	0xbf32449f	-0.6963596
17	0xbf32d4e0	-0.6985607
18	0xbe0ab826	-0.1354681
19	0xbd66f63b	-0.056387167
20	0x3f062579	0.5240093
21	0xbdb3e798	-0.087844074
22	0x3f1b8f09	0.6076513
23	0x3e531651	0.20613982
24	0xbf3dbb7d	-0.7411421
25	0xbf283ee3	-0.6572096
26	0xbee12db6	-0.43980187
27	0xbd9ef79b	-0.07762071
28	0x3ea6c131	0.32569268
29	0x3e8da48c	0.27664602
30	0x3f206be0	0.62664604
31	0x3ef345d2	0.47514206
32	0xbe885f7d	-0.26635352
33	0xbea0cafd	-0.31404868
34	0xbcdde169	-0.027085023
35	0xbea83edc	-0.32860458
36	0x3f0cb152	0.5495807
37	0xbed5c8cf	-0.41754767
38	0x3ee3c332	0.4448486
39	0xbed9dafd	-0.42549887
40	0x3ee8e869	0.45489815
41	0x3f307be3	0.68939036
42	0x3ebb956b	0.36637434
43	0xbebd0a02	-0.36921698
44	0xbeef5756	-0.4674632
45	0xbf176c23	-0.5914938
46	0xbe611659	-0.21981181
47	0x3e1b5d64	0.15172344
48	0x3dff57ab	0.12467893
49	0xbe4b5455	-0.19856389
50	0xbebc2b33	-0.36751708
51	0xbeb87f51	-0.36034635
52	0x3e517a5d	0.20456834
53	0xbf38b368	-0.7214875
54	0x3d2398cc	0.03994064
55	0xbdc82670	-0.09772956
56	0x3f4554ea	0.77082694
57	0xbef0f729	-0.47063568
58	0x3ef99223	0.48744306
59	0xbf47891b	-0.7794358
60	0xbe705e4b	-0.2347347
61	0xbf2bbe8b	-0.6708762
62	0xbf0dc6c0	-0.55381393
63	0x3f26ef4b	0.6520888

conv_0.bias f4 [8]
0	0x3e304fb2	0.17217901
1	0x3e0029f9	0.12516011
2	0x3e3fd476	0.18733391
3	0xbe57855f	-0.21046971
4	0x3d91f886	0.0712748
5	0xbe2272ea	-0.15864149
6	0xbe325733	-0.17416076
7	0x3df61f98	0.12017745

predict.weight f4 [1, 8]
0	0xbeb1e10a	-0.34742004
1	0xbe9f5637	-0.31120464
2	0xbeaad27b	-0.3336371
3	0x3e8d9e90	0.27660036
4	0x3d09c377	0.033633675
5	0x3e992ed1	0.2991853
6	0x3ec87da0	0.39158344
7	0xbe81b34d	-0.25332108
