demo/data/example/models/model_dim8_lay3.pth (torch, 3911 bytes, 9 tensors)

linear.weight f4 [8, 1]
000000 99 dd b1 3f 21 b4 a2 bf 80 6b 09 3f 56 9a c5 bf
       1.3895751 -1.2711221 0.53679657 -1.5437725
000010 cb 46 2a 3d 93 e4 cf be 56 12 5d 3e 29 40 69 bf
       0.04157142 -0.40604076 0.21589026 -0.91113526

linear.bias f4 [8]
000000 3c d2 65 3e ac ed ce 3e 55 a5 a5 3e 34 9b 1f bf
       0.2244348 0.40415704 0.323527 -0.62346196
000010 d1 9f 3b 3f 3d 7a 78 bf 3d 4d 44 bf 92 da b2 3c
       0.73290735 -0.9706152 -0.76680356 0.021832738

conv_0.weight f4 [8, 8]
000000 b9 12 7f 3e 2e 85 54 3f 20 60 aa be 53 48 89 be
       0.24909486 0.83015716 -0.33276463 -0.26812991
000010 1f e9 83 bd ec 56 b2 be 32 8f 6a 3f 7c 18 11 bf
       -0.06440949 -0.3483194 0.9162475 -0.56677985
000020 7c 1f 04 bf 8f 97 64 be 51 84 69 3f 18 c4 11 3f
       -0.5161054 -0.2232344 0.91217524 0.5693984
000030 e9 9b 08 3f 83 da f8 3e 4c c0 db be 79 23 46 bf
       0.533629 0.4860421 -0.42920148 -0.77397877
000040 6b 63 18 3f e9 41 b5 3d 2e 3e e3 3e f0 db aa be
       0.595267 0.08850462 0.44383377 -0.33370924
000050 eb 92 00 bf c4 ce a7 3e 9e 0a a6 3e bf 17 49 bd
       -0.5022418 0.32774937 0.32429975 -0.04909491
000060 b8 87 1e bf 8f b5 c0 be 95 0e ab 3d d4 9b 4e be
       -0.6192584 -0.37638518 0.08352391 -0.20176631
000070 e5 74 ce 3e 88 55 1f bd 6b e5 15 bf 6e b1 6e 3e
       0.40323558 -0.03889993 -0.5855319 0.23309872
000080 cf 77 23 be 53 62 91 3d 80 6b 1a 3f a9 e2 57 3e
       -0.15963672 0.07098832 0.6032028 0.21082558
000090 69 f4 14 bf b6 60 5d 3f 29 40 45 3d 72 8c 13 bf
       -0.5818544 0.86475694 0.04815689 -0.5763618
0000a0 bc ce 9e 3e fd 63 08 3c 41 8a 4c bf 88 d0 17 3e
       0.310171 0.00832462 -0.7989846 0.14825642
0000b0 52 37 ac 3e 06 d0 13 be 74 a1 b8 3e c6 23 37 3f
       0.33635956 -0.14434823 0.3606068 0.7153896
0000c0 76 4d 9b 3e 68 7b 4a bf d1 31 3b bf 79 e9 39 bf
       0.30332536 -0.79094553 -0.7312289 -0.72621876
0000d0 4b 03 40 be ce 7d a8 bd b4 f0 0e 3f a9 41 6a 3f
       -0.18751256 -0.0822712 0.55836034 0.9150644
0000e0 27 d1 4b bf 17 db 50 bf f6 f9 82 3f b3 d0 8a be
       -0.79616016 -0.81584305 1.0232532 -0.2711235
0000f0 2b 08 78 bd 03 37 23 3f e6 20 59 bf b5 eb 7f bd
       -0.060554665 0.63755816 -0.84815824 -0.062480647

conv_0.bias f4 [8]
000000 af 05 00 bc 2c 5b e8 3e f2 d0 d3 3e c1 56 0f 3f
       -0.007813855 0.4538206 0.4137035 0.5599175
000010 a1 6f 84 be cd 94 fd 3e 82 a9 f1 bd d0 f7 c5 be
       -0.25866416 0.49527588 -0.11799909 -0.38665628

layers.0.weight f4 [8, 8]
000000 02 6a 3b 3f af e4 48 bf cb bf 50 3d 36 fb d5 be
       0.7320863 -0.78473943 0.050964158 -0.4179322
000010 c1 a5 74 be 26 bc 2b bd 39 e0 4c 3f 84 b2 22 3f
       -0.23891355 -0.04192748 0.80029637 0.63553643
000020 f4 4a 51 3f af f2 aa 3e 5f 01 1c bf d3 a9 e8 3e
       0.81754994 0.33388278 -0.6093959 0.45442066
000030 b2 d3 d3 3d 01 25 41 be b0 0d 3e 3f 3b 3d 68 3f
       0.10343112 -0.18861772 0.74239635 0.9071843
000040 20 fe f0 be 1c f8 11 3f 3a cc 73 bf 4b 3c 70 3e
       -0.47068882 0.5701921 -0.952335 0.234605
000050 48 7d 37 3f 7a ca 1b bf 1a 80 10 bf 96 4c be be
       0.7167554 -0.6085583 -0.5644547 -0.37167805
000060 88 9c b3 be 72 eb 88 3f d1 6c 1e 3e 9c b2 34 3f
       -0.3508036 1.0696852 0.15471198 0.70585036
000070 69 6c 3e 3e 94 e6 aa 3d 72 f2 a7 3d ca 09 1d bf
       0.18596043 0.083447605 0.0820054 -0.6134306
000080 a7 c0 42 bf e4 5b fb be b3 b4 6d be bf 3c d1 be
       -0.76075214 -0.49093544 -0.23213463 -0.40866658
000090 cd e7 5b 3e d0 87 73 3e a5 f8 18 be 8f f9 5b bf
       0.21475144 0.23782277 -0.149386 -0.8592767
0000a0 ae 3d 97 bd ce 4d 3c 3f da db 0a bf 7f e8 75 3f
       -0.07384811 0.7355622 -0.54241717 0.96057886
0000b0 86 4a 11 be 1f 94 66 bf 33 d6 d3 be 46 12 dd be
       -0.14188585 -0.90069765 -0.4137436 -0.43178004
0000c0 e0 c4 c6 3e c4 d1 87 bf 7c 38 b1 3e ed 6c a5 bf
       0.3882208 -1.061089 0.34613407 -1.2923867
0000d0 7e b5 29 bf b8 c6 75 be c8 f4 a5 3e 33 a8 6d 3f
       -0.6629256 -0.24001586 0.32413316 0.92834777
0000e0 85 48 05 bf 7f e8 26 bf 59 f4 ac 3e 0b 60 cb be
       -0.5206378 -0.6519851 0.33780172 -0.39721712
0000f0 94 f8 32 bf b9 36 17 3f ba b1 03 bf 91 4f b1 3e
       -0.6991055 0.59067875 -0.51443064 0.34631017

layers.0.bias f4 [8]
000000 e4 54 03 bd 8f ad b8 3e 99 25 a8 be de d0 c7 3e
       -0.03206338 0.36069915 -0.32841185 0.3902654
000010 59 27 c3 3e 24 ce a2 be 84 f8 fe 3c 0b 87 24 3d
       0.38115957 -0.31797898 0.03112436 0.04016785

layers.1.weight f4 [8, 8]
000000 65 56 f2 3e fc 3e bd be 5e 1c 1c 3e c5 46 ab 3e
       0.4733154 -0.36962116 0.15245196 0.3345243
000010 cd 6d 7a 3f 24 59 aa be 5b e2 68 3f a5 80 24 3f
       0.9782379 -0.33271134 0.9097039 0.64258796
000020 f8 c1 aa be ad d1 55 3f 96 49 72 bf 37 75 4d bf
       -0.3335111 0.83523065 -0.94643533 -0.8025698
000030 4d ad af be 6c 56 a5 3e ed 34 83 bf 2b de 15 bf
       -0.34311906 0.32292497 -1.0250527 -0.58542126
000040 44 51 4b 3f 6b e4 23 bf b9 80 3e 3d 38 7b 81 be
       0.79420877 -0.64020413 0.04650948 -0.2528932
000050 ff ac 15 3f bb 10 73 bf 84 fb 1f 3f 60 bc 78 3e
       0.58467096 -0.94947404 0.6249316 0.2429061
000060 4b 7a 62 bf 7e 51 74 3f d5 d0 76 be 07 4b 34 bf
       -0.88467854 0.9543685 -0.241031 -0.7042698
000070 2e 47 7d bf 3f 54 5f 3f 65 5f 56 be 47 64 8d bd
       -0.98936737 0.87237924 -0.20934828 -0.06903892
000080 e6 e7 ce be 6c 0e ac 3e fc c3 48 bf 21 8d 02 bf
       -0.404113 0.33604753 -0.7842405 -0.50996596
000090 2a d2 16 bf 01 88 aa bd 45 fe b7 3d e8 a7 76 bf
       -0.58914435 -0.08326722 0.08984045 -0.96349955
0000a0 9e 8d 07 3f e1 df 07 3e c6 55 f5 3e 50 fe 37 3f
       0.52950466 0.13268997 0.47917002 0.71872425
0000b0 db e6 5b 3f ee 17 2a 3d f3 84 71 3f 9f a4 62 3f
       0.8589913 0.041526727 0.9434349 0.8853244
0000c0 90 a4 3b 3e c4 23 55 bf 01 ae 77 3f de 56 90 3f
       0.18324494 -0.832577 0.96749884 1.127651
0000d0 30 18 7f 3f bc c1 37 bf a1 2a 5c 3f c7 46 74 3f
       0.9964628 -0.7177999 0.86002547 0.954205
0000e0 1a 58 ac 3e 1d e4 85 bf 9f 54 4f 3f 24 53 37 3f
       0.33660966 -1.046024 0.80988497 0.7161124
0000f0 11 0a 24 3f 00 e6 c4 3c 56 df 3e 3f f7 6b 9e 3e
       0.6407786 0.024035454 0.74559534 0.30941746

layers.1.bias f4 [8]
000000 cc 32 8a be b2 84 91 3e c6 1b 9c be d8 a2 ab be
       -0.2699188 0.2842155 -0.3048994 -0.33522677
000010 67 08 8f be 97 50 b0 3e 05 32 98 be 66 af 93 be
       -0.27936098 0.34436485 -0.29725662 -0.28844756

predict.weight f4 [1, 8]
000000 37 26 1e bf 45 a8 13 3f 37 26 f8 be df af ed be
       -0.6177706 0.57678634 -0.48466656 -0.46423241
000010 14 b4 15 bf 7a b8 f5 3e ef 77 0f bf 81 74 ff be
       -0.584779 0.47992307 -0.5604238 -0.49893573
