demo/data/example/models/model_dim16_lay5.pth (torch, 9531 bytes, 13 tensors)

linear.weight f4 [16, 1]
000000 80 eb 89 3e 6e 44 5e bf d4 4d 30 bf 76 58 56 3f
       0.26937485 -0.86823165 -0.68868756 0.8372873
000010 84 01 fd be 48 fa 3a bf c2 a8 01 bf 00 04 ad be
       -0.4941522 -0.7303815 -0.5064813 -0.33792114
000020 80 b9 be 3d 58 15 fe 3e a8 f4 48 3f 42 4e 36 bf
       0.09312725 0.4962566 0.78498316 -0.7121316
000030 2e 63 20 3f b4 18 64 bf 08 0b a3 3e 4e a0 31 3f
       0.62651336 -0.89100194 0.31844354 0.6938523

linear.bias f4 [16]
000000 80 fe d8 3e 80 87 3a bd 1c 70 f8 3e 28 3a 3b bf
       0.42381668 -0.04553938 0.48523033 -0.73135614
000010 50 36 7f bf 6c eb 0d 3f 80 ad 4d bf e4 f4 6e 3f
       -0.9969225 0.5543735 -0.80342865 0.93342423
000020 70 16 e8 3d b0 de 39 3f 68 e6 fb 3e e4 b0 96 be
       0.113324046 0.7260542 0.49199224 -0.29431832
000030 54 ef 47 bf b0 97 f8 bd 40 ff 0c 3f 38 ac 34 3f
       -0.7809956 -0.12138307 0.5507698 0.70575285

conv_0.weight f4 [16, 16]
000000 35 c3 95 3e 37 83 61 3e aa fe 76 be b6 5d 8d bd
       0.29250494 0.2202271 -0.24120584 -0.069026396
000010 21 7e cd be 64 f0 c5 3e 2e 28 93 3e a4 54 71 be
       -0.4013529 0.38659966 0.28741592 -0.23567444
000020 d9 2d dd be 28 07 61 be 21 28 d7 3e da a9 d6 be
       -0.4319904 -0.21975386 0.42022803 -0.4192646
000030 d4 42 8b 3e 2b 83 a4 3e b8 c0 aa be 80 30 b3 be
       0.27199423 0.32131323 -0.33350158 -0.3499794
000040 bb 29 cf 3e ab 8f da 3e e2 95 1f 3c ff 8a 42 3e
       0.40461525 0.42687735 0.009740325 0.18998335
000050 54 82 50 be d7 4a 32 3d d5 33 92 bd ca 07 a9 3e
       -0.20362216 0.043528404 -0.071387924 0.33013755
000060 e0 f1 89 3e bd 05 67 be 79 52 8b bd 7b fd d3 bb
       0.26942348 -0.22560783 -0.0680284 -0.006469426
000070 1b 82 e6 bd c8 0a b6 3e 0a f9 9d be cf f4 63 be
       -0.112552844 0.355551 -0.30854064 -0.22261356
000080 35 3e 0c 3e 8e 22 86 3e b5 12 d7 3e 05 8b 9d bc
       0.13695605 0.26198238 0.4200646 -0.019231329
000090 12 6d 50 be aa 1c 85 bd ff 98 b3 be 5c 73 d5 3d
       -0.20354107 -0.06499608 -0.35077664 0.10422394
0000a0 b1 0e 83 3b 1d 9f bf be a4 b0 be 3e 01 4c 98 3d
       0.003999554 -0.3742608 0.3724414 0.074363716
0000b0 5f 8d 72 bd 13 86 fe bd 41 31 0c be 15 8c fe bd
       -0.059216853 -0.124279164 -0.13690664 -0.12429062
0000c0 0a e0 73 be 11 23 95 be 03 c7 9c 3e 2d b6 b0 3e
       -0.23815933 -0.29128316 0.30620584 0.3451399
0000d0 5f e9 92 be e2 94 2a 3e 8d 28 86 be 70 1b 5b 3e
       -0.28693673 0.16658357 -0.26202813 0.21397185
0000e0 37 73 80 3e be da 31 bd 6e b7 ab 3e 56 f9 c3 3d
       0.25087902 -0.0434215 0.33538383 0.095690414
0000f0 ca a0 3e be 27 f8 98 bc b3 f5 4b be 09 de c9 bd
       -0.18616024 -0.018673016 -0.19917946 -0.09856803
000100 1b ff 34 be 7a af f8 3c 75 b1 43 3d f1 69 c5 bd
       -0.1767544 0.030357111 0.047776658 -0.09639347
000110 fe a3 38 bd 6f 3f 89 3e 53 a2 64 3c 34 d0 81 3e
       -0.04507827 0.26806208 0.013954717 0.2535416
000120 62 72 b4 3e a5 c4 02 bd c8 f4 0b be b1 40 3f bd
       0.35243517 -0.031925816 -0.13667595 -0.046692554
000130 00 02 fb 3d f0 11 0b be 35 b4 db bd 43 bb cc be
       0.12256241 -0.13581061 -0.10727731 -0.3998662
000140 35 e4 9c be eb 0c c0 3e 78 fa 06 bd 4c 63 74 bd
       -0.30642858 0.37509856 -0.03295371 -0.05966501
000150 57 a5 32 3d 7a ac 52 be 62 87 d9 bd af 1a 09 be
       0.04361471 -0.20573607 -0.10621525 -0.13389085
000160 66 fe 8e 3e f8 11 88 be 47 d8 6c 3d f4 b4 1a be
       0.27928466 -0.2657621 0.057823446 -0.1510809
000170 6e b9 9a 3e a2 7e 8f 3e ef 89 6a be 11 2b cc be
       0.30219597 0.280263 -0.2290418 -0.39876607
000180 b1 89 f2 3b f3 5e 09 3e a3 e0 06 be 6d 14 f2 bd
       0.007401668 0.13415127 -0.1317163 -0.11820302
000190 c5 fe 86 bd 5a a9 c9 be 52 34 27 be 94 e5 f1 3b
       -0.06591562 -0.39387017 -0.16328552 0.007382104
0001a0 80 04 63 be 9e 7f d2 3d 47 61 96 3e b1 a4 d4 3e
       -0.22169685 0.10278247 0.29371092 0.415319
0001b0 24 26 e3 3a f6 60 49 3e b6 5e 5f 3e 76 d4 2b be
       0.0017330092 0.19665894 0.21813473 -0.16780266
0001c0 3e 7b 03 be 0d 73 53 be bc 29 a6 3e 97 55 94 bc
       -0.12839982 -0.20649357 0.32453716 -0.018107219
0001d0 6f ca 35 3e 19 5d 64 3d 3e 8b e4 bd f3 64 02 bb
       0.17753004 0.055752847 -0.11159371 -0.0019896596
0001e0 f2 48 c8 3e 72 2c d2 be 26 08 c0 bc 0e 09 b7 be
       0.39118153 -0.41049534 -0.023441385 -0.35749096
0001f0 73 8c bb ba 9a 65 41 3e 28 85 a7 3e 06 11 14 be
       -0.0014308825 0.18886414 0.32718778 -0.14459619
000200 25 c6 99 be 5c b1 c9 be 42 88 1d 3d 2e 93 e6 bd
       -0.30033985 -0.39393127 0.038460024 -0.11258541
000210 52 8c 4c 3e 86 a5 50 bd f4 40 74 3e 0b e5 bc 3e
       0.19975403 -0.050939105 0.23852903 0.36893496
000220 bb a9 3b bd 6b 93 cf 3e 63 ed 1e bd fe 28 e5 bb
       -0.045816164 0.40542158 -0.03880061 -0.006993412
000230 4c 54 d7 3e 89 08 81 bd 50 52 be be 7a 97 ea 3d
       0.420565 -0.06300456 -0.37172174 0.11454673
000240 c5 06 80 3e 28 d8 2b be d3 d3 89 bd 3a d8 d9 be
       0.25005165 -0.16781676 -0.067298554 -0.4254778
000250 0f 8f e4 bd 64 33 4c 3e 5e ab 48 3e 51 49 33 3e
       -0.11160099 0.19941479 0.19596621 0.17508437
000260 b7 5e 46 3e aa 78 52 be 51 a2 50 3e b6 d3 06 3e
       0.19372068 -0.20553842 0.20374419 0.13166699
000270 fa b0 8b 3e b0 95 09 3c 60 9d 5a 3d 25 3f e0 3d
       0.2728346 0.008397505 0.05337274 0.10949544
000280 2d bc 93 be 71 0b 8b be b1 9a 25 be e8 25 a5 3e
       -0.28854504 -0.27157167 -0.16172291 0.32255483
000290 63 94 89 bc 51 29 b1 be a2 a4 c9 bc 59 6d b4 be
       -0.01679439 -0.34601834 -0.024614636 -0.35239676
0002a0 0a 23 4e be 08 20 55 bd a9 1b 52 be c1 66 c0 3e
       -0.20130554 -0.0520325 -0.20518364 0.37578395
0002b0 76 40 be be 7c 59 a7 3e 7e 38 cb 3e c2 28 96 bd
       -0.37158555 0.3268546 0.39691538 -0.07331993
0002c0 02 48 89 be bb da bd be 7d 63 29 3e 86 71 1a 3e
       -0.2681275 -0.3708094 0.16541858 0.15082368
0002d0 90 80 3a 3e a1 88 42 3d cd eb 3f 3e f8 cc c2 3e
       0.18213105 0.04749358 0.18742295 0.38047004
0002e0 53 fc 35 bd 35 06 b2 be 38 1b a6 3e ce 48 4b be
       -0.04443009 -0.3477036 0.3244264 -0.19851992
0002f0 ca 67 b3 3d 4d 24 66 3e 0d ce bb be 5b 9a d3 3e
       0.087600306 0.22474785 -0.36680642 0.413287
000300 e3 83 7d 3d e0 fd db be a0 e8 aa be 88 3a 8d be
       0.061893355 -0.4296713 -0.33380604 -0.27583718
000310 42 f1 79 3e 7f a8 ab 3e 9a 0d c9 3e 52 ed 1c be
       0.24408439 0.3352699 0.3926819 -0.15324906
000320 1c 7e a7 3d 79 19 b0 be 94 02 08 be 0d d8 36 3e
       0.0817835 -0.34394434 -0.13282233 0.17855854
000330 31 f1 67 bd 23 40 42 be 26 b5 84 3d 02 6e 6b 3e
       -0.056626502 -0.18969779 0.06479864 0.22991183
000340 2c 86 17 be 41 78 88 3e dc 09 d5 be 5b 77 cf 3e
       -0.14797276 0.26654246 -0.41609085 0.40520748
000350 ef 04 82 be e0 3b c2 3d 89 00 b7 3e df c6 e6 3d
       -0.2539439 0.094840765 0.35742596 0.112684004
000360 e6 d4 cc 3e 3a e3 a9 3e 9d fa 75 be f5 d3 61 3e
       0.4000618 0.33181173 -0.24021383 0.22053511
000370 99 7f 82 be 11 5d 97 3e 6b 75 6f 3e 7e 44 aa 3d
       -0.25487974 0.29563192 0.23384635 0.08313845
000380 00 74 95 be 22 80 2e be de b4 ae be 2a 7f 80 bd
       -0.29190063 -0.17041066 -0.34122366 -0.062742546
000390 71 50 6b 3e 6b 09 5c 3e 36 f4 0d 3d 20 3c 97 3d
       0.22979905 0.21487968 0.034656726 0.07384515
0003a0 55 0d a8 be 22 73 a8 be 4b 79 eb 3d 9d 2a d6 3e
       -0.32822672 -0.3290034 0.11497744 0.41829386
0003b0 6c 3f 2b 3e 0e c6 0a be bb 51 c5 3e 28 0d 02 3d
       0.16723412 -0.13552114 0.38538918 0.031750828
0003c0 3e bc 9b 3e 11 6b 7f 3e ae 30 3c be e7 26 97 be
       0.30417055 0.24943186 -0.18377945 -0.29521868
0003d0 94 ea bd 3e 1d 4d a8 bd 3b be ad 3e af ee b4 be
       0.3709303 -0.08217833 0.33934197 -0.3533835
0003e0 92 f9 31 3e 99 2e de 3c b8 48 2b 3e 50 77 dc 3e
       0.1738036 0.027121829 0.16726959 0.43059778
0003f0 f0 85 d1 3e 1b 38 9d be 81 5e 4a be e7 7f 5f 3e
       0.409225 -0.30706868 -0.19762613 0.21826135

conv_0.bias f4 [16]
000000 00 00 00 00 00 00 00 00 00 00 00 00 00 00 00 00
       0.0 0.0 0.0 0.0
000010 00 00 00 00 00 00 00 00 00 00 00 00 00 00 00 00
       0.0 0.0 0.0 0.0
000020 00 00 00 00 00 00 00 00 00 00 00 00 00 00 00 00
       0.0 0.0 0.0 0.0
000030 00 00 00 00 00 00 00 00 00 00 00 00 00 00 00 00
       0.0 0.0 0.0 0.0

layers.0.weight f4 [16, 16]
000000 02 e1 a4 be c1 60 b3 bd 28 e8 10 3e fe ff a1 be
       -0.32202917 -0.08758689 0.1415106 -0.3164062
000010 fb 06 93 bd 55 1d 59 be 17 1c c3 be 2c 04 05 3e
       -0.07179066 -0.21202596 -0.38107368 0.12989873
000020 46 00 33 bd 73 6e c3 3e 34 8d ec 3d d6 ff c0 3e
       -0.043701433 0.38170204 0.1155037 0.37695187
000030 77 49 b2 be 7c 73 91 3e 22 77 90 3e 12 10 af be
       -0.34821674 0.2840842 0.2821589 -0.34191948
000040 35 fb 80 be c6 46 5d be ee 92 a9 3d f0 4a cb be
       -0.25191656 -0.21609029 0.08279978 -0.3970561
000050 5a 37 a6 be 79 2f d8 3e f3 80 05 3e 11 61 b1 be
       -0.32464105 0.4222372 0.13037471 -0.34644368
000060 90 fd 60 3e 36 3f bf 3e 81 ce 0e bd c8 a9 a3 be
       0.21971726 0.37352914 -0.034864906 -0.3196547
000070 25 12 b0 be 7e f3 be be bc 8a 8b 3e 43 02 c8 3e
       -0.34388843 -0.37295145 0.27254283 0.39064226
000080 a5 61 4a 3e 32 63 34 3e 63 62 4c 3e 27 a7 d9 bd
       0.19763811 0.17615965 0.19959407 -0.10627585
000090 bd af c0 3e ba b7 84 3e e3 b9 e2 3d af 23 f6 3c
       0.37634078 0.25921422 0.11070611 0.030046312
0000a0 1d 42 09 3e 27 b6 83 be 3a 4b b1 be 97 7a c2 be
       0.13404126 -0.2572491 -0.34627706 -0.37984154
0000b0 4f e3 85 bd dd f5 d7 be 1a ea 3b 3e 20 46 89 be
       -0.06537496 -0.42179766 0.18351021 -0.26811314
0000c0 a5 3f 0a 3e ea 2d 2e 3d f6 c4 1a 3e 4d 38 d1 3e
       0.13500841 0.042524256 0.15114197 0.40863267
0000d0 5b 10 aa 3e 70 b2 66 3e de 84 b8 be 7c f2 a4 3e
       0.33215603 0.22529006 -0.3603887 0.3221625
0000e0 1d 11 cd be ce 1e e0 bd ec 9d 68 be b5 d6 a7 3e
       -0.4005212 -0.109433755 -0.22716492 0.32780996
0000f0 af 67 d9 be 61 e2 b8 3e a4 84 dd bd f6 2e 65 3e
       -0.42461917 0.36110213 -0.10816315 0.22381195
000100 10 8a 5c be 10 de 56 be 85 3b af bd f9 e1 8d be
       -0.21537042 -0.20983148 -0.08556274 -0.27711466
000110 06 40 d7 3e e4 88 84 3e 3e 2f 6f bd 75 ba 3b 3e
       0.42041034 0.2588569 -0.058394663 0.18332846
000120 16 47 39 3e bf 8c bb be 32 f2 2c 3d 8a 40 60 be
       0.18093523 -0.36630818 0.042223163 -0.2189962
000130 bb fe 8d 3e b2 e3 64 3e a9 41 50 3d 5a e1 aa be
       0.27733406 0.22352484 0.05084387 -0.33375055
000140 3a 71 0d bd 92 06 6d 3e 3c 91 9b 3e 88 58 7f 3e
       -0.03453181 0.23147038 0.30384243 0.24936116
000150 68 31 c0 be e5 64 ba 3e f0 b9 64 3e c0 42 81 bd
       -0.37537694 0.364051 0.22336555 -0.0631156
000160 91 29 82 be be 48 2d 3d 32 af ae 3e 0e 4f b6 3e
       -0.25422338 0.0423057 0.34118038 0.3560719
000170 e3 22 83 be c5 0a a7 3e 6e 96 95 3e d0 cc d0 be
       -0.25612554 0.32625404 0.2921633 -0.4078126
000180 b0 09 c2 3e 68 57 3e bd c6 4d f2 bd 5d e8 b0 bd
       0.37898016 -0.046470076 -0.1183124 -0.0863807
000190 eb 2d ad be 70 14 1c 3e 0a 41 a2 be 6a 9e 97 3e
       -0.33824095 0.15242171 -0.31690246 0.29613048
0001a0 e8 5a bb be a2 9d da 3e d5 c4 f4 bc 5b 4e 91 3e
       -0.36592793 0.4269839 -0.029879013 0.28380093
0001b0 8e db b5 be ee 2b 88 3e 00 45 3b be 11 7d fa bd
       -0.3551907 0.26596016 -0.1828804 -0.12230886
0001c0 8c ba d2 be 21 31 98 be 16 bf b9 be 7a 59 9f bd
       -0.4115795 -0.29724982 -0.362786 -0.07780738
0001d0 df 55 57 3d b1 1a 3c 3c 06 08 9e 3e 65 c3 ba 3d
       0.052572127 0.011480973 0.30865496 0.091193
0001e0 08 7a ea bd 8d 5a 8e be ee 8f 2c 3e 8b e3 98 be
       -0.11449057 -0.2780346 0.1685178 -0.29861102
0001f0 e7 4f dc 3d a9 c9 0e 3e 1b e7 b8 bd c0 09 bd be
       0.10757428 0.13944115 -0.09028455 -0.369215
000200 2e 44 99 3e e7 de b2 3e 2c 27 11 3e 36 77 a4 be
       0.2993483 0.34935686 0.14175099 -0.321222
000210 72 87 2f 3e 1a 99 05 be e0 0b ff bd e0 83 c9 3e
       0.17141512 -0.13046685 -0.12453437 0.39358425
000220 bf 6d 55 3e 9d f8 70 bd 95 15 64 be 07 06 7c bc
       0.20842646 -0.058830846 -0.22273858 -0.015382296
000230 71 4d 16 be bf c4 9c 3e ce 2c df 3d 31 b1 60 bc
       -0.14677979 0.30618855 0.10897218 -0.013714121
000240 95 e3 a7 be 01 75 bb be 96 2b a3 be 60 de 8b be
       -0.3279082 -0.36612704 -0.3186919 -0.27318096
000250 3e d8 00 be 00 d9 49 be c2 92 84 3e 18 c5 6d be
       -0.1258249 -0.19711685 0.25893217 -0.23219717
000260 ae 72 04 be 2a e5 d4 3e 65 de cd 3e 2f c4 82 bd
       -0.12934372 0.41581088 0.40208736 -0.06385075
000270 76 cd 86 bd a2 8a ab 3c 53 36 a5 3d 91 dc 6c 3e
       -0.06582157 0.020940129 0.08067002 0.23131014
000280 36 1c d9 bb f7 37 3f 3e d0 c8 1c bd a1 31 13 be
       -0.0066256775 0.18673693 -0.038277447 -0.143744
000290 a1 5f 21 bd 36 96 03 be 1a 3d d7 3e 3f 50 97 3e
       -0.03939784 -0.1285027 0.42038804 0.2955341
0002a0 af f4 9c bd fc e5 8b 3e 45 27 5f 3e e9 eb 64 3e
       -0.07663857 0.27323902 0.21792324 0.22355618
0002b0 84 11 08 3e bc 55 8e 3e ba 46 cc bd cb f9 01 3e
       0.13287932 0.27799785 -0.099744275 0.12692945
0002c0 0b 7a d2 3c b8 01 84 bd 97 a1 93 3d 85 bc 93 be
       0.02569296 -0.0644564 0.07208555 -0.28854766
0002d0 5f b9 d3 3e 77 3f a9 3e ce ed f1 bb 33 bf 80 3e
       0.41352364 0.33056232 -0.007383085 0.25145873
0002e0 0a af e8 bd 17 92 af 3e 5d 8b 87 3d 3c 85 26 3e
       -0.11361511 0.34291145 0.06618378 0.16261762
0002f0 9a f6 fe ba 0b cf 25 3e 6f 2b 9c 3e db 67 1e 3c
       -0.0019452155 0.16192262 0.30501887 0.009668316
000300 72 89 cb bd 70 1b 1d 3e 36 68 a4 3d a7 82 55 be
       -0.09938325 0.15342498 0.08027689 -0.20850621
000310 74 99 58 be 1e e7 d4 bd 20 c9 8f be 59 c1 18 3e
       -0.21152288 -0.103956446 -0.28083134 0.14917506
000320 ad 33 ab 3e 78 ef af be 82 31 63 3e 73 11 aa bd
       0.33437863 -0.34362388 0.22186854 -0.083041094
000330 51 28 50 3e c1 39 82 bd d7 a4 3a be ef 79 d2 3c
       0.2032788 -0.06358672 -0.18226944 0.025692908
000340 7e 2d c7 bd d7 55 56 be 31 7d 13 bc 50 34 a4 3e
       -0.09725474 -0.20931183 -0.009002016 0.3207116
000350 75 d0 2e be 8b 14 71 be 91 38 a4 be 3c 81 46 3e
       -0.17071708 -0.23542993 -0.32074407 0.19385237
000360 df dc b3 be a1 be 93 3e bf 86 d4 bd e1 69 27 3e
       -0.3512945 0.28856376 -0.10377263 0.16348983
000370 f1 29 0d bc e5 90 b0 3c 3c 79 d0 3e 3d a5 a1 3d
       -0.008615957 0.021553466 0.40717494 0.07892845
000380 e1 8c 6c be 3b 67 cc 3e b0 62 1e 3e 1e 01 8b bd
       -0.23100616 0.3992251 0.15467334 -0.067873225
000390 45 3b 4d be 86 55 67 bd 8d 31 78 be f5 77 4f 3e
       -0.20042141 -0.056478046 -0.24237652 0.20260604
0003a0 f5 96 16 3d a0 8a e0 3d a1 ec b3 3e d9 28 d6 be
       0.036765058 0.109639406 0.3514147 -0.4182804
0003b0 fa 85 7e 3e ce a3 a0 3e 0e 48 c2 3e 2e bf ad be
       0.24855796 0.31374973 0.37945598 -0.3393492
0003c0 23 2d 41 be 22 73 88 bc 10 3f 8d be d0 34 c3 3e
       -0.18864875 -0.016656462 -0.27587175 0.3812623
0003d0 fa 17 96 3e 11 c9 87 3c 5e 9a 0e 3e 73 1b 56 3e
       0.29315168 0.016575368 0.13926074 0.20908909
0003e0 db cf 7d be 6b c3 d2 be d7 6d 07 3e 96 26 c6 3e
       -0.24786322 -0.41164717 0.13225494 0.38701314
0003f0 70 31 00 3e 52 73 9c be c4 93 b0 be 79 2d 4e be
       0.12518859 -0.30556732 -0.34487736 -0.20134534

layers.0.bias f4 [16]
000000 00 00 00 00 00 00 00 00 00 00 00 00 00 00 00 00
       0.0 0.0 0.0 0.0
000010 00 00 00 00 00 00 00 00 00 00 00 00 00 00 00 00
       0.0 0.0 0.0 0.0
000020 00 00 00 00 00 00 00 00 00 00 00 00 00 00 00 00
       0.0 0.0 0.0 0.0
000030 00 00 00 00 00 00 00 00 00 00 00 00 00 00 00 00
       0.0 0.0 0.0 0.0

layers.1.weight f4 [16, 16]
000000 42 db 55 3e 13 93 76 bc 11 f0 a1 bd 4f 85 a9 3e
       0.20884421 -0.015049714 -0.07907117 0.3310952
000010 77 f4 7e be 80 9f 9c be 48 1c 5c 3e f4 1f b0 3e
       -0.24897943 -0.3059044 0.21495163 0.34399378
000020 48 22 8a 3e 46 e6 88 3e f9 fc c1 be dc 16 74 3e
       0.2697928 0.26738185 -0.37888315 0.23836845
000030 ed 6e c0 3e f0 c1 ab 3e 50 5d e1 bc 54 a0 62 be
       0.3758463 0.335464 -0.027510315 -0.22131473
000040 a1 19 c1 3e 59 80 80 be 47 a7 ca 3e 93 7a 46 3b
       0.37714866 -0.25097921 0.39580747 0.0030285462
000050 01 50 d7 be 79 9e 98 3e c6 a4 57 3e ec 89 39 bd
       -0.42053226 0.29808405 0.2105895 -0.04529755
000060 0f b5 1a be a7 a7 37 3e ec 9f b1 be 5f 82 87 3e
       -0.15108131 0.17935048 -0.34692323 0.26466653
000070 6d 7b aa be 4a 4d c8 be 9f c8 c8 be 19 2f b9 bd
       -0.3329729 -0.39121467 -0.39215562 -0.09042186
000080 6d d5 9f 3d ff 73 ad be 2b db 8f be 10 57 96 3e
       0.078043796 -0.3387756 -0.280969 0.29363298
000090 a9 dd 85 3e ca ce 28 be d0 6a 65 3c ab 06 cc be
       0.26145676 -0.16485134 0.014002517 -0.39848837
0000a0 5b 4d 3c bd 92 04 3a 3c 06 6f cd 3e 70 d2 87 be
       -0.04597221 0.011353629 0.40123767 -0.2652774
0000b0 a9 f9 e4 3d 32 f6 dc be c8 24 af be d1 07 c0 be
       0.111804314 -0.43156582 -0.3420775 -0.37505963
0000c0 f0 0b 17 3e 4a ab 58 be d0 83 c0 3e 12 7c 91 be
       0.14750648 -0.21159092 0.37600565 -0.2841497
0000d0 20 40 1e bd 64 b2 77 be 33 05 31 be 0e 1e c6 be
       -0.038635373 -0.24189144 -0.1728714 -0.38694805
0000e0 09 42 84 3e 9c 42 d3 bd c1 db 9f 3e ee 03 91 be
       0.2583163 -0.10315439 0.31222346 -0.2832331
0000f0 38 2a c0 3e a4 4d 9d 3c f3 88 d0 3e cc ca 20 be
       0.3753221 0.019202061 0.40729484 -0.15702361
000100 3e 8b 1e be 0f 8b 8d be 55 06 7b 3d 28 a4 31 be
       -0.15482804 -0.27645156 0.061285336 -0.17347777
000110 a8 91 82 bc cd 10 53 3e 33 3b 2d be 21 28 44 3e
       -0.015938595 0.20611878 -0.16917114 0.19155933
000120 50 c3 81 3e a7 e5 75 be 51 79 93 3e 20 5f 5e 3e
       0.25344324 -0.24013387 0.28803495 0.21715975
000130 d1 bc 6b be b9 75 61 bd e6 71 94 3e 16 47 50 be
       -0.23021246 -0.05504391 0.28993148 -0.20339617
000140 58 25 3a be 6e fa 52 3d ef 43 f7 3d d0 10 0d be
       -0.18178308 0.05150836 0.12073504 -0.13775945
000150 d7 59 07 3d 4c 33 bd be 2e 14 8b 3e 8a c8 9f be
       0.033044662 -0.369532 0.27163833 -0.31207687
000160 54 90 ce 3e 6d 24 7b 3d fd cf 27 be 44 e4 b0 3e
       0.4034449 0.061314035 -0.16387935 0.34549153
000170 9e 22 cd 3d e4 95 d3 3e 3d 00 9d bc da dd bd 3e
       0.10016368 0.41325295 -0.019165153 0.37083322
000180 0d 6a fc bb 1c 15 aa be 13 5e 38 3e ff 4f ba 3e
       -0.007703072 -0.3321923 0.18004636 0.36389157
000190 06 f3 c4 bc 64 c3 c1 bd 2e 24 83 be 5e c9 b1 3e
       -0.024041664 -0.09461096 -0.2561354 0.34723943
0001a0 c1 8a 89 bd ee b8 af 3d 37 a9 a1 3e 09 1a a3 3d
       -0.06715918 0.085801944 0.31574413 0.0796395
0001b0 08 f8 9c 3e 78 9d 84 3e a1 8e 8d 3e 7c ff 72 3e
       0.30657983 0.2590139 0.2764788 0.23730272
0001c0 35 87 d3 be 21 d2 44 be 0b 9e aa 3e 1c 2d c4 be
       -0.41314092 -0.19220783 0.33323702 -0.38315666
0001d0 0d fb e9 bd 00 22 c4 be 59 96 b2 3c a4 b6 9c 3e
       -0.11424837 -0.3830719 0.021800207 0.30608094
0001e0 48 1d c5 3e 5d bc 52 3e 29 59 9e 3d 56 78 dd be
       0.38498902 0.20579667 0.0773185 -0.43255872
0001f0 f4 5c 8e 3e f8 68 e2 bd e1 b2 97 3d a0 66 e7 bc
       0.27805293 -0.110551775 0.07407165 -0.028247178
000200 8b 62 1a be e9 07 9a 3e f9 1f fd 3d ff b1 b0 3e
       -0.15076654 0.3008416 0.12359614 0.345108
000210 96 61 75 3d b1 03 25 be 5d 07 f1 bd 6b a6 f7 3d
       0.05990752 -0.1611469 -0.117689826 0.120922886
000220 0e 8b a5 be 4b bb b8 3d 8c 25 73 3e 4d 82 c8 3d
       -0.32332653 0.09020098 0.23744792 0.09790478
000230 3f 73 a5 3e 28 0f 04 3e 14 bd c5 bd 56 5b 20 bc
       0.32314488 0.12896407 -0.096552044 -0.009787401
000240 90 7d e2 bd 76 8b 72 3e e8 1e 69 be 96 83 92 be
       -0.110591054 0.23686013 -0.22765696 -0.28616017
000250 8f 70 43 3d 31 96 55 3e f2 d4 9b 3e 00 9e 60 3e
       0.047714766 0.20858075 0.30435902 0.21935272
000260 5f 2b ae 3e 49 02 4a be aa 5c bd 3e 1f 37 c9 be
       0.34017465 -0.19727434 0.3698476 -0.39299867
000270 c7 2e d9 3e 36 5e 92 bd a4 b4 ce bc 03 9d 72 be
       0.424185 -0.071468756 -0.02523262 -0.23692708
000280 d6 e8 a5 3d 3d 2f 8c be c6 75 ca be c0 92 b9 be
       0.081010506 -0.2737979 -0.3954298 -0.36244774
000290 47 b1 b0 be 3b 39 c1 3e 9d a5 47 be 03 78 d3 be
       -0.34510252 0.37738976 -0.1949677 -0.413025
0002a0 15 91 83 be 90 7e c5 bb 28 a8 38 be 7e 9e b2 3d
       -0.25696626 -0.0060270503 -0.18032897 0.08721636
0002b0 d2 38 1e 3d 7f 2c 9c bc 57 29 4a 3e 73 ad 38 be
       0.038628407 -0.019064186 0.19742332 -0.18034916
0002c0 36 b5 d5 be 1d c5 b1 3e e4 cc 91 3e ea a6 d5 3d
       -0.41739815 0.34720698 0.28476632 0.10432227
0002d0 7b 2c 90 3e 03 84 a9 be d6 f6 a4 be 88 e0 67 be
       0.28158936 -0.3310853 -0.3221957 -0.22644246
0002e0 7e 37 45 3d ea f0 a0 bd a1 d3 f2 3d 11 11 c8 3e
       0.048148625 -0.07858451 0.11856771 0.3907552
0002f0 08 29 d4 be af 69 cd 3e 64 84 13 be d5 2c 7e be
       -0.41437554 0.40119693 -0.14405972 -0.2482179
000300 44 44 c3 be 5b 82 15 3e 38 12 a9 be 0b 4a b2 be
       -0.3813802 0.14600508 -0.33021712 -0.34822115
000310 6f f0 b3 bc 71 ed 11 3e 9a 32 cb bd 85 34 ec bd
       -0.021965234 0.14250733 -0.09921761 -0.11533455
000320 85 31 39 be 53 9b d7 be c5 d8 b5 be 29 c0 89 be
       -0.18085296 -0.4211069 -0.35516945 -0.2690442
000330 f2 4d b3 bb 6b dc a1 bd e8 71 85 3e 97 05 9a 3e
       -0.0054719383 -0.079033695 0.26063466 0.3008239
000340 61 b5 b9 3e d1 99 a1 3c 4e b9 f4 bd 42 f9 39 bd
       0.36271194 0.019726666 -0.119494066 -0.045403726
000350 cb c3 c8 3e 4f 83 23 be 7d e8 04 be 39 ab 27 be
       0.39211878 -0.15968059 -0.12979312 -0.1637391
000360 07 09 d5 3e f6 05 ab be 9b ec 8a 3e ea 20 ed b9
       0.4160845 -0.33402985 0.2713364 -0.00045228685
000370 ac 8f 58 be ca 30 2f 3e a9 e0 32 3d 73 68 81 3d
       -0.21148556 0.17108455 0.043671284 0.0631875
000380 11 44 cd bd e8 8a 62 3c 80 ac 61 3e db 33 a0 3e
       -0.10022748 0.013827063 0.2203846 0.31289563
000390 5b ca c3 be 16 7e 3a 3d e6 d3 12 be 2d 62 8a 3c
       -0.38240322 0.0455304 -0.14338645 0.016892517
0003a0 f8 71 d0 3d 0f 9d 4c 3e 37 6d c8 3e 2d ac 30 3e
       0.10177988 0.19981788 0.39145824 0.1725318
0003b0 20 2f 51 3e 5c 5e 87 3d 96 27 05 3e 3e 41 68 3d
       0.20428133 0.066097945 0.13003382 0.056702845
0003c0 b3 87 1f be fb f7 23 bd aa 82 8c 3e 3a e7 96 be
       -0.15579109 -0.040031414 0.2744344 -0.29473287
0003d0 82 16 72 3e ef 78 91 bd 18 f3 23 3e a9 39 26 be
       0.23641399 -0.071031444 0.16010702 -0.16232933
0003e0 89 ac 63 bd 9e f5 58 3e 34 1c 94 3e ab 2b 4d 3e
       -0.055584464 0.21187446 0.28927767 0.2003619
0003f0 e2 4f 5b 3d 8a a4 88 be 44 d7 9c bd 8a 2e 24 bd
       0.05354298 -0.26688033 -0.07658246 -0.040083446

layers.1.bias f4 [16]
000000 00 00 00 00 00 00 00 00 00 00 00 00 00 00 00 00
       0.0 0.0 0.0 0.0
000010 00 00 00 00 00 00 00 00 00 00 00 00 00 00 00 00
       0.0 0.0 0.0 0.0
000020 00 00 00 00 00 00 00 00 00 00 00 00 00 00 00 00
       0.0 0.0 0.0 0.0
000030 00 00 00 00 00 00 00 00 00 00 00 00 00 00 00 00
       0.0 0.0 0.0 0.0

layers.2.weight f4 [16, 16]
000000 1d 03 11 3e 27 76 98 3e 5b 38 aa be 5e aa c2 3e
       0.14161344 0.29777643 -0.3324612 0.38020605
000010 bb ba 5b bc 11 aa 74 3e 16 1f ad 3e 1a da c2 3e
       -0.013411219 0.23893 0.3381278 0.38057023
000020 97 d4 b4 be 85 d2 b7 bd db 8a 8d bd af 03 da be
       -0.35318443 -0.089757 -0.0691125 -0.42580935
000030 70 35 d7 be 23 6c 8a bd 6c a2 d7 be cd d4 bb be
       -0.42032957 -0.06758907 -0.42116106 -0.36685792
000040 36 e0 e2 3d b4 85 7b be 80 6c a9 3c b8 38 60 3e
       0.11077921 -0.24562722 0.02068162 0.21896636
000050 d3 7d d6 3d ea 23 ce be 52 94 c5 3c 0c dd 68 3e
       0.10473218 -0.40261775 0.024118576 0.22740573
000060 6d 8a 92 be bd 22 87 be e7 5d 68 3e 3a fe 68 be
       -0.28621235 -0.2639369 0.22692071 -0.2275323
000070 e5 ea 3a be 41 3b 42 be e9 a3 48 3d 1b 79 c8 3e
       -0.18253668 -0.18967916 0.048984442 0.39154896
000080 dd 92 6a 3e 5b 1a 18 be d3 58 dd bd c1 ad c4 3e
       0.22907586 -0.14853804 -0.108079575 0.38413814
000090 c0 55 c2 be cb ec 07 be 8d d3 86 3d ad 1e c2 3d
       -0.37956047 -0.13273923 0.06583319 0.09478507
0000a0 e7 f0 1e bc 03 ba b8 be 72 e6 84 be 78 77 0e 3e
       -0.00970099 -0.36079416 -0.25957066 0.13912761
0000b0 6d 1c 1d be 30 6b 8e 3e a0 32 90 3e da 57 a4 be
       -0.15342875 0.27816153 0.28163624 -0.32098275
0000c0 16 ca d8 3e 0d b2 da 3d f3 9f 27 3e 8a 65 d1 3e
       0.4234168 0.10678492 0.1636961 0.4089778
0000d0 5f e0 a5 be 00 a5 a9 3e 86 1f 34 3e ec a7 94 be
       -0.32397744 0.33133698 0.1759015 -0.29034364
0000e0 9e 7c 7c be 2d 98 ad 3e 7c 04 9e be ad 68 13 be
       -0.24656913 0.33905163 -0.30862796 -0.143954
0000f0 f5 1e 44 3c 37 c2 c3 3e ae d0 d1 be c1 a7 2e be
       0.011970271 0.38234112 -0.40979522 -0.1705618
000100 25 fe 91 3e 9a a5 d2 3e f5 b2 b8 bd 56 ae 0d 3d
       0.2851421 0.4114197 -0.09018508 0.034590088
000110 28 e4 76 bd a7 f2 cd be 43 6a 0e 3d ff ae 91 be
       -0.06027618 -0.40224192 0.034769308 -0.28453824
000120 40 52 b0 be 60 43 52 3d 0a cd 95 3d e0 9c 26 be
       -0.34437752 0.051333785 0.07314499 -0.1627078
000130 ae 70 df bd 1a f8 d3 3e dd fb 1e 3e b7 c0 bf be
       -0.10910164 0.41400224 0.15525766 -0.37451717
000140 45 7c a0 3d 74 b5 ce bd 1d 69 a3 3e dc 91 71 be
       0.078362025 -0.10093203 0.31916133 -0.23590797
000150 99 71 1e 3c f5 93 43 be 4b 4d 4d bd 63 47 83 bd
       0.0096706385 -0.1909941 -0.05012254 -0.064101
000160 b8 3a 96 3e f1 ba 21 3c 9c 6a a2 bd cd 33 87 3e
       0.29341674 0.00987123 -0.079304904 0.26406708
000170 e6 f7 cb 3e e2 24 b7 3b 23 75 c9 bd c8 0e 65 3e
       0.3983757 0.0055891136 -0.09836795 0.2236892
000180 04 49 d7 3d cb d9 2e 3e 23 b3 05 3e f6 06 7a 3d
       0.105119735 0.17075269 0.13056616 0.061041795
000190 f6 65 6e be 53 0b 28 bd e4 99 86 3e 29 b5 cc be
       -0.23281083 -0.041026425 0.26289284 -0.39981964
0001a0 41 76 94 3d 91 dd bd 3c c5 1c 88 be 4c df b5 be
       0.07249118 0.02317694 -0.2658445 -0.35521924
0001b0 55 09 08 be f3 c2 ce 3e 67 95 9b be 4f 39 8c be
       -0.1328481 0.4038311 -0.30387422 -0.27387473
0001c0 20 ab 82 be 37 03 ab 3e b2 42 e9 3d d0 0c 4f 3e
       -0.25521183 0.3340089 0.11389674 0.20219731
0001d0 c5 43 05 bd ac 66 2a bd 4c b7 bf 3e 65 30 08 be
       -0.032535333 -0.04160182 0.37444532 -0.13299711
0001e0 1b 56 31 be 6b 4f 64 3e 25 d0 fe bd e8 af 7d 3e
       -0.17318003 0.2229592 -0.12442044 0.24774134
0001f0 ec ff 61 3e a1 e2 c5 be 9d 66 a0 be a8 c6 3f 3e
       0.22070283 -0.38649467 -0.31328288 0.18728125
000200 bf 6b 63 3e b2 4d 9d 3e 14 cf 48 3e 30 f2 ca bd
       0.2220907 0.3072334 0.19610244 -0.09909475
000210 43 81 d6 bc 68 73 d6 bc 89 9c 8f 3e 79 f3 96 3e
       -0.026184684 -0.026178077 0.28049114 0.2948263
000220 35 4f e8 bd 79 27 ae 3d ec 22 73 3e dd 7b 82 be
       -0.113432325 0.085036226 0.2374379 -0.25485125
000230 63 3e 2c 3e b2 e2 5f 3d 90 4c da 3e 53 77 d1 be
       0.16820674 0.054659553 0.42636538 -0.4091135
000240 dd 1b d2 be cf c3 24 3e d1 05 32 3e d2 d8 93 3e
       -0.41036883 0.1609032 0.17385031 0.28876358
000250 87 0c 7b 3e 00 fc 19 3e b1 5a 55 3e 2e 40 23 3e
       0.24516498 0.15037537 0.20835377 0.15942451
000260 77 bc 54 3e 71 e6 09 bd 4c d1 74 be d3 31 bb 3e
       0.20775019 -0.03366703 -0.23907965 0.3656145
000270 15 ae 3f be 30 81 bb bc f5 54 58 3e 01 16 a6 3e
       -0.18718751 -0.02288875 0.21126159 0.32438663
000280 8c b7 c3 3e 72 6f ad be 39 f1 2a be 23 c4 c4 be
       0.38225973 -0.3387409 -0.16693582 -0.3843089
000290 58 10 1b be 71 fd 41 3e 67 de 3a 3e c2 53 d1 bd
       -0.15142953 0.18944336 0.18248902 -0.10221054
0002a0 c9 d0 22 be dc 58 86 3e d5 98 b9 3e d8 cb 14 be
       -0.15899958 0.2623967 0.36249414 -0.14530885
0002b0 5c 1c 66 be 72 ef 0a 3c b0 df 59 be 7f 4a 93 be
       -0.22471756 0.00847994 -0.21276736 -0.28767774
0002c0 e3 56 91 3d 4b 16 0d 3e 8f 52 48 39 0f 17 bb be
       0.070966505 0.13778035 0.00019104242 -0.3654103
0002d0 2d 3a d6 3e 3d ff 1a 3e da 08 f1 3c ee d6 2a 3e
       0.4184126 0.15136428 0.029423166 0.16683552
0002e0 d8 44 8f 3e bc 09 cb be 23 00 d6 be 75 d2 92 3e
       0.2798221 -0.39655864 -0.4179698 0.2867619
0002f0 5a ef 9c be 74 56 a7 3e 44 bf f0 3d 06 c3 92 3d
       -0.3065136 0.32683146 0.11755231 0.07166104
000300 21 0d 43 be 65 30 65 be 33 7e 90 be 05 39 7b be
       -0.19047977 -0.22381742 -0.28221282 -0.2453347
000310 52 bb 8b be ab 27 0d 3d d1 26 fd bd 9e 4b 02 3e
       -0.27291352 0.03446166 -0.12360919 0.12724158
000320 92 12 1a be 0e b0 a7 be 7b 3e 4b 3e d6 bc 86 3e
       -0.15046147 -0.32751507 0.19848053 0.26315945
000330 0e 3b 82 3e cf ee 4d 3d 0f 00 53 3d ef ea c4 be
       0.2543568 0.050276574 0.051513728 -0.3846049
000340 62 91 59 be d6 29 85 be e4 d7 b0 be 8c 1f 27 3e
       -0.21246865 -0.2600848 -0.3453971 0.16320628
000350 e6 bb 20 3d 05 dd 68 bd 28 b4 c9 be 74 73 30 3c
       0.039241694 -0.056851406 -0.3939526 0.010769714
000360 bc ac df 3c 9d 00 9a be ce 07 4c be 0f f0 88 be
       0.027304046 -0.30078593 -0.19924852 -0.2674565
000370 eb b5 d4 3d d6 9b 0d 3e 11 b5 b5 bd c0 ea 67 3e
       0.103862606 0.13828978 -0.08872426 0.22648144
000380 27 54 52 bd d3 a4 93 be b9 6a 09 3e 08 72 db 3e
       -0.051349785 -0.28836688 0.13419618 0.42860436
000390 4c ee d9 be 3f 52 d6 be 80 bc 0a 3e 36 72 62 be
       -0.4256462 -0.41859624 0.1354847 -0.2211388
0003a0 eb 72 94 3e 87 d5 16 bd 4f f4 5b 3e 88 f0 db be
       0.28993925 -0.03682473 0.21479915 -0.42956948
0003b0 9a e1 90 be a3 d5 7e 3e 88 10 eb bd e9 42 b2 3d
       -0.2829712 0.24886183 -0.114777625 0.08704168
0003c0 4f 0d 83 3d 17 55 17 be af 9c 69 bd 50 e7 5a 3d
       0.06399023 -0.14778553 -0.05703419 0.053443253
0003d0 9a ac 8d be 37 01 ee 3b ee 8b db 3e a6 82 a6 3e
       -0.27670747 0.0072633284 0.42880195 0.32521552
0003e0 7e ec cf 3d 25 bd 9a 3e 52 e8 3f 3c a6 fb 07 3e
       0.10152529 0.3022243 0.011713104 0.1327959
0003f0 66 92 28 be 77 ff 21 3e f5 7f 9c 3e ea 50 8f 3e
       -0.16462097 0.15820108 0.30566373 0.2799142

layers.2.bias f4 [16]
000000 00 00 00 00 00 00 00 00 00 00 00 00 00 00 00 00
       0.0 0.0 0.0 0.0
000010 00 00 00 00 00 00 00 00 00 00 00 00 00 00 00 00
       0.0 0.0 0.0 0.0
000020 00 00 00 00 00 00 00 00 00 00 00 00 00 00 00 00
       0.0 0.0 0.0 0.0
000030 00 00 00 00 00 00 00 00 00 00 00 00 00 00 00 00
       0.0 0.0 0.0 0.0

layers.3.weight f4 [16, 16]
000000 07 43 97 3e 1d 8b 6d bd e1 97 23 be 90 34 cb be
       0.29543325 -0.057993997 -0.15975906 -0.3968854
000010 ab 7f cb be 35 cf 3f bc 43 12 ce 3e cb be fb bc
       -0.3974584 -0.011707117 0.40248308 -0.030730626
000020 29 8d 30 3e 1f 07 2e 3e d4 34 96 3e 27 54 c2 be
       0.17241348 0.16994904 0.2933718 -0.37954828
000030 79 60 7f be bf a1 3b be 4a ae d6 3e 60 0b 15 be
       -0.24939145 -0.1832342 0.41929847 -0.1455512
000040 a6 6d 8b 3e 63 83 6b bc 90 b2 b1 be 8f f2 8b be
       0.27232093 -0.014374587 -0.34706545 -0.27333495
000050 fb 2e 64 bd 91 83 b9 3e 87 3e 42 bd a3 59 36 3d
       -0.055708867 0.3623319 -0.047422912 0.044519078
000060 fb bd c9 3e 1a 9d 9e 3e 6a 1a 09 3e c1 5e 92 3c
       0.39402756 0.30979234 0.13388982 0.017867448
000070 c1 55 89 3e d8 00 05 3e e9 88 9f be ee ba b6 3e
       0.26823238 0.12988603 -0.31159142 0.3568949
000080 26 3a 94 be bd 9d ab bd 50 8d c4 be b9 8d a7 3e
       -0.28950614 -0.083796956 -0.38389063 0.32725313
000090 56 35 37 3b a7 30 22 be e4 cc 83 3c 1f 50 d2 be
       0.0027955375 -0.15838872 0.01608891 -0.41076753
0000a0 49 43 b4 be c3 cf 06 bd 9a 8c f0 bd 76 b2 1f bd
       -0.35207585 -0.03291298 -0.117455676 -0.038988553
0000b0 7e 98 4b 3e eb 90 b0 3e f7 9b cb be 50 eb 61 be
       0.1988239 0.34485564 -0.3976743 -0.22062421
0000c0 a4 6c 5b 3e f3 65 29 be 5b 0b ad be 5b e2 c7 bd
       0.21428162 -0.16542797 -0.33797726 -0.09759971
0000d0 d4 e1 d9 be 51 c5 93 3e ab 84 58 be 9b b6 01 bd
       -0.42555106 0.28861478 -0.21144359 -0.031668287
0000e0 d4 af cf 3e 55 14 7a be 47 9f 93 3e 58 55 84 be
       0.40563834 -0.24421819 0.28832456 -0.25846362
0000f0 be 17 e3 bd d6 d4 51 3e b7 9e ae 3d 8c 98 d5 3e
       -0.11088513 0.20491347 0.08526366 0.41717947
000100 0d 22 77 be fa 0e d0 3e 95 fd d7 3e 1b d4 13 be
       -0.24134083 0.40636426 0.42185655 -0.1443638
000110 7a 9c ee bd 5e 69 a0 3e d0 a9 b6 be fb 10 d0 be
       -0.11650939 0.3133039 -0.35676432 -0.40637955
000120 01 a0 05 3d 93 af c0 3e 9f 0b b5 3e 1e 5f 3b 3e
       0.032623295 0.37633952 0.3536043 0.18298003
000130 27 d2 d3 bd 86 2d cd bc 34 3b 52 3e bd 8e bc be
       -0.10342818 -0.025046121 0.20530397 -0.3682765
000140 d2 ea 41 3e 35 4f ff bd f6 83 07 3e 0b a6 7d be
       0.18937233 -0.124662794 0.13233933 -0.24770372
000150 2d 58 8b 3e aa 66 9e 3d 86 b2 d7 3e 5e 0c 09 be
       0.2721571 0.07734425 0.4212839 -0.13383624
000160 00 2f d8 bd f1 e7 22 bd 6a 9f a5 bc fe 83 b6 3e
       -0.105558395 -0.039771978 -0.020217616 0.35647577
000170 2a 7a 94 be d1 dc 2c 3e fc 34 db 3e dd fb 8d be
       -0.28999454 0.1688111 0.4281386 -0.2773122
000180 01 53 07 be 20 1f a1 be 13 ae b3 bb d3 01 e9 3d
       -0.13215257 -0.3146906 -0.0054833977 0.11377301
000190 d3 10 cc be 5d fb 7e bc 87 ff 1d be 42 62 dc be
       -0.39856586 -0.015562859 -0.15429507 -0.43043715
0001a0 60 7c b8 be 44 f8 ae 3e 4a 82 85 bd 5a d4 45 3d
       -0.3603239 0.34173787 -0.06518991 0.048298217
0001b0 94 a3 ae be e5 2d ad 3c 52 e8 32 3e d1 a0 08 3e
       -0.34109175 0.021140048 0.17471436 0.13342597
0001c0 15 56 ce 3d 08 7d c7 3d 90 bc 89 be 48 c6 b6 3e
       0.100750126 0.09740645 -0.26901674 0.35698152
0001d0 51 1f 85 bd ba d9 8c 3d 1f be 74 bc 02 c5 67 3e
       -0.06500114 0.068774655 -0.0149379065 0.22633746
0001e0 a4 9a 19 be 9e 56 14 3e 0c e2 bb 3d 50 8e 76 bc
       -0.15000397 0.14486167 0.091739744 -0.015048578
0001f0 ee 6f b2 3e f5 23 31 3e c9 f8 65 be be ac 9c 3e
       0.3485102 0.17298873 -0.22458185 0.30600542
000200 c8 5d 9d 3e 4f 09 8c 3e 5c 82 b6 3e f2 a6 c3 be
       0.30735612 0.27350852 0.3564633 -0.38213307
000210 4b 14 4e 3e 8c f9 b3 be 40 7f cf 3e fd 53 98 bd
       0.20124929 -0.35151327 0.40526772 -0.074378945
000220 2d 20 a3 3e 19 14 c4 be 8d 35 7a be 94 de b7 be
       0.31860486 -0.38296583 -0.2443449 -0.35912
000230 3c 01 c9 3e 0f 6c a2 3e 10 bd 9b 3e 8f 57 10 be
       0.39258754 0.31723067 0.3041768 -0.14095901
000240 a1 e7 b7 3c 39 fd 31 be 3d bc b5 bd d9 d8 97 be
       0.022449316 -0.17381753 -0.08873794 -0.2965763
000250 b3 1a db be cd 4c c1 be b1 5e 54 bc 57 fb 8b 3e
       -0.42793807 -0.37753907 -0.012962029 0.27340195
000260 4f 17 46 3d 24 2c f1 bc 8e a6 87 3e cf 4c f7 bd
       0.048362073 -0.029439993 0.2649426 -0.12075197
000270 21 8e 5b bd 3a 51 b2 bd d2 56 e7 bd 9f e6 bb 3c
       -0.05360234 -0.08706899 -0.112958565 0.022937117
000280 17 8d 5e 3e 25 4e a2 3e 03 ef db 3e 35 b6 4b 3e
       0.21733509 0.31700245 0.4295579 0.19893725
000290 98 c7 b7 be 82 e7 a5 bd 6d c1 7f be c1 10 a1 3e
       -0.35894465 -0.08100797 -0.2497613 0.31458095
0002a0 e9 f5 1b 3e dd 14 23 3e fb 28 88 bc ab 28 7f 3e
       0.15230526 0.15925927 -0.016621104 0.24917857
0002b0 63 92 d7 be 28 be a5 be 2b 5b 4e 3e 4c 06 3e be
       -0.42103872 -0.3237164 0.20151965 -0.1855709
0002c0 43 2e d1 be e0 18 65 3e 2a e0 09 3d 1a ee 89 3e
       -0.40855607 0.2237277 0.033661045 0.2693947
0002d0 71 7b 24 3e 88 53 30 be b4 8e 09 bd d9 8c ba 3e
       0.16062714 -0.17219365 -0.033583358 0.36435583
0002e0 cb 1f 08 3e d9 db ba be 5d cd 68 be b8 c8 80 3e
       0.13293378 -0.36495855 -0.2273459 0.25153136
0002f0 ec f5 16 be 1a 1c e3 3d ce a0 c1 bc a7 fb 89 be
       -0.14742249 0.11089344 -0.023636248 -0.26949808
000300 70 14 b0 3e bb 26 8f 3e 38 e4 c4 bd 6a 8f 72 be
       0.34390593 0.27959237 -0.09613842 -0.2368752
000310 a2 3a a6 3e 77 c0 89 3e c5 bd 93 3e 5f 10 93 bd
       0.32466608 0.26904652 0.2885572 -0.07180857
000320 16 ef bc bb 00 2a 16 bc 43 1d 2c 3d e2 72 ee bc
       -0.005765806 -0.009165287 0.042020094 -0.029107515
000330 47 19 8d 3e cb 1d 32 be 12 27 1f be a5 44 91 be
       0.27558348 -0.17394178 -0.15542248 -0.28372684
000340 09 84 2f be 52 8f 41 3e d6 6f 1b 3e 1c ec ad 3e
       -0.17140211 0.18902329 0.15179381 0.339692
000350 b6 df c6 be c1 76 d3 3e 01 56 c0 3e 4f 1a 6f 3e
       -0.38842553 0.4130154 0.37565616 0.2334988
000360 0e 68 90 be 53 94 17 be bb f9 c8 be 08 7f 73 3e
       -0.28204387 -0.14802675 -0.3925303 0.23778927
000370 11 5e d1 bd 9a 62 c7 be 2c 1e 56 be ef 8c 9c 3e
       -0.1022302 -0.38942415 -0.20909947 0.30576274
000380 24 38 59 bd 51 8c 65 3d 1b 7d 7c be 1c 83 ab be
       -0.053032055 0.05604202 -0.24657099 -0.33498466
000390 77 da 1b be b7 76 aa be 9a e2 67 3e a6 88 95 3d
       -0.15220056 -0.33293697 0.22645035 0.07301454
0003a0 ab 65 17 bd 49 38 f5 3d e7 14 d1 be ec 8c a8 3e
       -0.036962193 0.11973626 -0.4083626 0.32920015
0003b0 5c 3d 58 3e 06 a4 c2 be 56 f8 4d 3d b6 98 96 3e
       0.21117157 -0.38015765 0.05028566 0.29413384
0003c0 10 48 34 3e ec 31 c2 3e 10 43 30 3d ea 9e b0 be
       0.17605615 0.37928712 0.043032706 -0.34496242
0003d0 f0 2a 8b 3e ae 1f d9 be bd b4 8e be 29 4b 95 3e
       0.27181196 -0.42406982 -0.27872267 0.29158905
0003e0 79 f8 93 3e c7 e0 0f be d3 64 bc be 0c ec 4a be
       0.28900507 -0.1405059 -0.36795673 -0.19816607
0003f0 71 a3 2f 3e e6 01 8e 3e 7b c6 93 bd 8b 54 2d 3b
       0.17152192 0.27735823 -0.072155915 0.0026448097

layers.3.bias f4 [16]
000000 00 00 00 00 00 00 00 00 00 00 00 00 00 00 00 00
       0.0 0.0 0.0 0.0
000010 00 00 00 00 00 00 00 00 00 00 00 00 00 00 00 00
       0.0 0.0 0.0 0.0
000020 00 00 00 00 00 00 00 00 00 00 00 00 00 00 00 00
       0.0 0.0 0.0 0.0
000030 00 00 00 00 00 00 00 00 00 00 00 00 00 00 00 00
       0.0 0.0 0.0 0.0

predict.weight f4 [1, 16]
000000 c4 61 79 be c0 64 54 be c4 64 d0 3d 00 77 b3 ba
       -0.24353701 -0.20741558 0.101754695 -0.0013692081
000010 72 de 7b 3e 7a 24 3b be 50 b4 6e bd 58 ca 93 bd
       0.24596575 -0.18275633 -0.05827743 -0.072163284
000020 dc fd 11 be e0 95 ab 3d e2 63 09 be d0 b6 14 be
       -0.14256996 0.08378196 -0.13417009 -0.14522862
000030 5c fa 87 3d fc 29 57 be 50 15 5e be 08 f6 fa bd
       0.06639549 -0.2101211 -0.21687818 -0.12253958
