demo/data/example/models/model_dim16_lay6.pth (torch, 11189 bytes, 15 tensors)

linear.weight f4 [16, 1]
00000000: f805 55bf 3a37 01bf 42c4 523e 3817 e33e
00000010: d3e3 1e3f ae9d c3be 4553 003f dac6 9ebf
00000020: a534 503f 1437 883f 3375 d83e d5c5 ccbd
00000030: 7185 173e 2a7c 8cbe 8e14 7d3f 8e18 63bf
-0.8321223 -0.50474894 0.20582679 0.44353652 0.6206638 -0.38206238 0.5012706 -1.2404435
0.8133033 1.0641809 0.42276916 -0.09998671 0.14796998 -0.2743848 0.9885949 -0.8870934

linear.bias f4 [16]
00000000: 4884 7fbe 7d05 c4be abf9 8a3f 63c9 fbbd
00000010: 6606 cdbe 6f73 bb3d 2142 fdbe cd4b ffbe
00000020: 243f 563f 7e97 4f3f 7702 af3e acd1 57bf
00000030: 3501 253f cb6a 83bf e18d 61bf a043 7c3e
-0.24952805 -0.38285437 1.0857443 -0.12294271 -0.40043944 0.091528766 -0.49464515 -0.4986252
0.83690095 0.81090534 0.34181568 -0.8430431 0.64454967 -1.0266966 -0.88107115 0.24635172

conv_0.weight f4 [16, 16]
00000000: 0971 6d3e 0705 7bbe fd8d adbe fa0d ffbe
00000010: 0384 e3be 83a3 e3bd f930 91be 9234 ac3e
00000020: 0025 9a3e ab35 8cbe 64c2 8c3e 57cd 38be
00000030: 49f2 2bbe 5cee 59bc 1fe7 03bf e645 96be
00000040: 8fc8 b43e 7126 a4bd 023e 1e3e d03f 1cbf
00000050: a6ae 03bf 2982 033c 5f6b 123e 9cb3 b13e
00000060: 5b06 fa3c bc3f 8a3e 2c3d d9be 75f1 733e
00000070: 41c9 50be 0514 4d3d 4606 25be 25b8 923e
00000080: 2258 043e ae4a 5d3e f478 fa3e ef93 d73e
00000090: bbd2 a73e 90bd c6bd 6ca4 8abd 535c cfbd
000000a0: b52b 9bbe 5941 e0be e387 d8be fef1 e33c
000000b0: d44e 40be 67f0 c13e d02d c0be da01 293e
000000c0: 837c 54bd 8759 b43e adaa dabe dd9f b23e
000000d0: 9e6c d23e 583a c0be 8244 f8be 50ce 22be
000000e0: 4147 a2be 25b0 d93e a6a4 d63e 5f1a b3be
000000f0: 74d5 d2be 15cc 79be 8c18 07be ec98 333f
00000100: f74f cb3e 565e d33e 08ed b4be 0eea 283f
00000110: 5028 d83e e285 96be bea6 163e 508b bcbd
00000120: 4e82 723d 2554 ca3e a7e8 8c3e 2186 07bf
00000130: 2d5a 6e3d 8525 07bf 7e46 2cbc 2eb9 fa3e
00000140: 2721 d2be 4a1d 433b 7239 233e 7a06 b8be
00000150: 305d 03bf 3b1c 4e3e 7418 4f3f 4de1 1cbe
00000160: a2d3 973c ed2f 8cbd 2d9f dbbd 73d6 233f
00000170: 8e0c ae3e 3534 81bc 1731 59be 1259 3dbf
00000180: c08a 76be 6103 bd3d df0c f9be 7452 0e3e
00000190: 92cc 81be 6a76 23bf c969 0d3e dc2f ac3e
000001a0: 4f04 913e 0320 d93e e5bc 913e 7188 d2bd
000001b0: 7de7 ab3e 5c3b f3be fde4 3dbc 2e3e eb3e
000001c0: 0efa b33e c9ca c9be 58c7 a93e 0951 1abe
000001d0: d4e7 8bbe 01e1 f4be cad9 fb3e 6dfd 523e
000001e0: 37bc 9abe 812a 05bd 3412 c0be f983 67be
000001f0: 58d1 903e 29b0 4abd 8afc 1ebe 6021 a7bd
00000200: 86ff 4fbe b56b cb3e 6848 cb3e 4ac0 71be
00000210: d332 c13e 86ed aa3e 5fa1 bd3e 54fd bbbe
00000220: c4aa ce3d 6539 75be 13e3 d73b e4b3 ae3e
00000230: da4b a1be e08c 96be ca99 a83e 7c69 e33e
00000240: b6d8 e1bd 54dc db3e ea8d 62be b7d2 1b3e
00000250: ec3c 193f ab04 c73e 3f96 05be 9345 8a3e
00000260: 5e5c cf3d 7a9e 003f a8d3 83be ae85 6a3e
00000270: 9fe5 263e 0b05 b03d 9fb2 da3e 6d75 1a3e
00000280: e292 3fbe 8f67 9f3e 6c19 81be 09c5 c23e
00000290: 12b8 533d 81b8 3abe 032a ddbe 3bb1 b93e
000002a0: 9e47 f6bc 3b56 8bbe 595a 8abd 8353 eb3e
000002b0: 52cf 9e3e 6182 873d 7af6 703e 6e93 44be
000002c0: 20cd 1b3e 1695 303e 4bcb 33be 174d dcbe
000002d0: a58d 12be 8711 f13d e249 c4be eb6f 993d
000002e0: 20d7 053e 2a69 ce3d c534 813e fbed 10bf
000002f0: b164 9e3e 1f7c 86bd d3fb ce3e f6c3 aebe
00000300: 20c2 c7be 9ab5 183d ee9c cc3c e36c 2cbe
00000310: 92bd 063f aabe 753e 2d22 1cbd f54a 863d
00000320: e768 6abe 5bdd 53be 3c9f b73c 00e8 de3e
00000330: 1dc7 cc3e 7e2f a43e 1fcb 8b3e a3e9 363e
00000340: 742d b53d f1d5 09be 1443 033e 31b8 8bbe
00000350: 92ba 6dbe b05d 86be 2344 673e 0935 8e3d
00000360: dfec 6e3e f7cd 983e b882 fe3e dbea f3be
00000370: 0c85 31bd a05e 68be f8ec 99be 98ec d43e
00000380: 3907 8b3e f9a3 fb3e 9e5a 2ebf 439b 0b3f
00000390: cb05 a93e 2e28 2fbf f660 d8be 2b5b 353e
000003a0: a160 733e 1e10 06be 924f f93e 6a98 ae3d
000003b0: 3e87 e9bc 291f 943d 4c9b 0b3f a016 453e
000003c0: 3cf9 903e 61f1 73be 9052 9f3d 8a3d 30bf
000003d0: 7ad1 71be 8cff 903d 6377 373f 0d58 873b
000003e0: e20e 94bd dc82 433d 0071 bbbe bff2 c03e
000003f0: 6172 9a3d 92b2 343f c835 76bd 6c88 0abf
0.2318765 -0.24513637 -0.3389739 -0.4981535 -0.44436654 -0.11115172 -0.28357676 0.33633858
0.30106354 -0.27384695 0.27492058 -0.18047081 -0.16791643 -0.013301458 -0.5152454 -0.29350203
0.35309264 -0.080151446 0.15453342 -0.6103487 -0.5143837 0.008026638 0.14298771 0.34707344
0.030520609 0.2700175 -0.42429483 0.23822577 -0.20389272 0.05006792 -0.16115674 0.28656116
0.12924245 0.2161052 0.48920405 0.42105052 0.32777962 -0.09704125 -0.06769642 -0.10125031
-0.30306783 -0.43799856 -0.42291173 0.027825352 -0.1878007 0.37878725 -0.37534952 0.16504613
-0.051876556 0.35224554 -0.4270834 0.3488759 0.41098493 -0.37544513 -0.48489767 -0.15899014
-0.31694987 0.425172 0.41922492 -0.34981057 -0.41178477 -0.24394257 -0.13192958 0.70155215
0.39709446 0.4128291 -0.3533709 0.6598214 0.42218256 -0.2939902 0.14712045 -0.09206259
0.0592063 0.39517322 0.2752125 -0.5293904 0.058191467 -0.52791625 -0.0105148535 0.48969406
-0.41040918 0.0029772096 0.15939882 -0.3594244 -0.5131407 0.20127957 0.8089669 -0.1532032
0.018533532 -0.068450786 -0.1072372 0.639991 0.33993953 -0.015771965 -0.21210133 -0.73964036
-0.24076366 0.0922916 -0.48642632 0.13898641 -0.25351387 -0.6385256 0.13809885 0.33630264
0.283236 0.42407236 0.28464428 -0.102799304 0.3357505 -0.47506225 -0.01159024 0.45945877
0.35151714 -0.39412525 0.331599 -0.15069975 -0.27325308 -0.47827914 0.49189597 0.20604487
-0.30221722 -0.032511238 -0.37513888 -0.22608937 0.28284717 -0.049484406 -0.15526024 -0.08160663
-0.20312318 0.3973061 0.3970368 -0.23608509 0.37734088 0.3338434 0.3703718 -0.36716712
0.10091165 -0.23947676 0.0065883487 0.3412162 -0.31503183 -0.29404354 0.32929832 0.44416416
-0.110276625 0.42941535 -0.22124448 0.152171 0.59858584 0.3887075 -0.13045596 0.27006206
0.101250395 0.50241816 -0.25747418 0.22902557 0.16298531 0.08594712 0.42714402 0.15083857
-0.18708375 0.31133696 -0.25214708 0.3804095 0.051689215 -0.18234445 -0.43196115 0.3626803
-0.030063447 -0.27214226 -0.06755514 0.45962152 0.31017548 0.06616665 0.23531523 -0.19196865
0.15214968 0.17244372 -0.17558019 -0.43027565 -0.14311846 0.11770921 -0.38337618 0.0749205
0.13070345 0.10078652 0.25235572 -0.5661313 0.30936196 -0.06566643 0.40426502 -0.3413388
-0.39015293 0.037282564 0.024977174 -0.16838412 0.5263301 0.23998514 -0.03811853 0.06557266
-0.2289158 -0.20689909 0.022414796 0.43536377 0.3999566 0.32067484 0.27303407 0.17862563
0.0884656 -0.13460518 0.12818557 -0.27288964 -0.23215702 -0.26243353 0.22584586 0.069437094
0.23332547 0.2984464 0.49709105 -0.47640118 -0.043339774 -0.22692347 -0.30063605 0.41586757
0.27153948 0.4914854 -0.6810702 0.54533786 0.33012232 -0.68420684 -0.42261475 0.17710559
0.2376733 -0.13092086 0.4869352 0.085251644 -0.028506871 0.07232506 0.5453384 0.19246912
0.2831515 -0.23822547 0.077794194 -0.688439 -0.23615065 0.07079992 0.71666545 0.0041303695
-0.07229401 0.04773222 -0.3660965 0.376852 0.07541347 0.70584977 -0.060109884 -0.54114413

conv_0.bias f4 [16]
00000000: a0b6 233d a51c 42bd 19f3 393e b61e 1f3e
00000010: 4435 143e b8dd 543e ffd0 37bd 4276 fcbd
00000020: 644f 98bd 2f2d a6bc aceb d6bd 3ebc 343e
00000030: 4504 623d 4dc1 133e 2d43 94bd ac26 a4bd
0.039969087 -0.0473906 0.1815914 0.15539059 0.14473444 0.20787704 -0.04487705 -0.123272434
-0.074370176 -0.020285217 -0.104941696 0.17649934 0.055179853 0.14429207 -0.07239375 -0.080151886

layers.0.weight f4 [16, 16]
00000000: 7070 73be 348d 89be 6f74 593e 93ac 9dbd
00000010: 31eb 633e 77de 45be f5db 24be 7535 ba3c
00000020: 9b9c 9a3b 8bc2 343e 6914 6b3e ca5f d63d
00000030: d616 393e e5a1 0b3d c312 1bbd fe8d 963e
00000040: a335 0f3f 98fa 133f 211e 6e3e 2c2e 47be
00000050: 5ba1 4cbe 894f dd3d 23e5 ecbe 965b c6be
00000060: fcb0 f1be 14ad 18be 3ab6 4d3d 5576 bd3e
00000070: 6a3f ac3e a8bc b03d c6bf 743e ed1b 0bbe
00000080: ed2a 3c3e 6fc0 fe3d f0b1 08bf 17ec 913e
00000090: a700 09be 3089 5b3e 3438 9fbd f8ed 863e
000000a0: d5b1 febe cc3d 113f 9884 b8ba 8805 ecb7
000000b0: bb7b 38bf 88b2 b4be 8324 0f3f c517 8d3e
000000c0: 0994 213f b936 7dbc c371 f23e 3037 1c3f
000000d0: 6f4c 7ebe 2802 abbc 310b 78bd a9fa 18be
000000e0: d7cc 9c3e a329 e73d 6d3d f2be a9a7 a0bd
000000f0: 7b05 173f c2f0 e73c 1ab0 e83e b568 94be
00000100: f9b9 e9bb 298b b23e 5b2e 23bd 1cb3 e63e
00000110: 1443 c3be 0420 e63b c8e9 debe 109c 1cbe
00000120: f6d1 99be 051d a63d d24b ccbe 404b 4b3d
00000130: f72e 043f d62d 213e aca5 123f df7d 103f
00000140: 19ad 40be 7858 b33e b6ab 57be d08e 00be
00000150: 8b0d 39bd cb1d e7bd c5fd b7be 5c75 b23e
00000160: 89f7 0bbf f857 86bc 1cfe 35be cf1a d3be
00000170: 396c 61be 03f2 913d 17b4 253f a561 233f
00000180: 6add 123f 0ef8 673f 0f2a 003f 57a5 3d3e
00000190: 7164 b8be e955 2bbf 0236 a23d c7b0 6dbf
000001a0: dd80 4bbe 7795 62bf 1be2 cc3e a039 8dbe
000001b0: 8b68 e53e e2bf 1c3f bb48 1dbe 32cc bfbe
000001c0: c69b eebe 0d8e 663d a452 163e 2296 f53d
000001d0: 7548 f2bc 46d3 a7be 72e3 063e 6d6a c63d
000001e0: 2798 643e 6f12 3e3e a526 b2bd 7efc 4a3e
000001f0: 4aa8 1cbd c0ff 8e3e 7875 8bbe c54a 10bd
00000200: e7b3 193e 393a 30be a4bf f73d 45f1 febd
00000210: bd4c 543e 497b adbe b3a4 613d f7d7 04bf
00000220: 9823 cebe 4ef4 f1be 5811 06bd d07c 51be
00000230: 145b 9abe d44a 013f b09f edbe 9665 28be
00000240: ad91 8a3e dc3d 693e 4912 8c3e e812 e6be
00000250: 1991 0dbd dfe0 b13e c8e1 483d 4d71 3d3e
00000260: 70d6 92be 4fc7 e4be 386b 8dbe 9415 2b3c
00000270: cafd 4b3e deea d03e d710 0a3c 446d 403e
00000280: 4e19 6dbe 72ac 9e3e f554 923e ba01 0a3e
00000290: 9ad4 043d ae73 bc3a df47 213e 6e98 85be
000002a0: 1cd5 9bbe 65e7 aebd 5013 af3e 372e 913e
000002b0: 3a27 073f 8a42 5a3d 1480 0bbf 0e0d e6bc
000002c0: a369 883e 1eff 9b3d ff23 553e 7967 b73d
000002d0: 3963 3dbd eabf b63e 82fe 90be d20f c23e
000002e0: 65b1 63be 29d8 bf3e 2461 f4be ae59 1a3e
000002f0: ce93 62be ea4e 6bbe 2dc5 fd3e ef58 e63e
00000300: 58bf 0d3e 4577 a5bd 3f21 c8be 70fa c5bd
00000310: e1cf bdbe 614d 7dbd 17bb 843e 04a3 85be
00000320: 04be 943d 2dd9 b03d 8ce4 d33e 7cb9 36bd
00000330: 4034 e0bd 4d07 1abe eadb 473b 12e5 e3bd
00000340: 41fb 803d bd23 d73c e79c 10bf c1c5 a0b9
00000350: 10bc 87be 0fa7 c03e 6e02 13be b2e0 69be
00000360: 9b50 323d 6558 ef3e 41b3 dfbe 2db8 043e
00000370: dcab 14bf 1a26 a5ba 5708 1d3f 7b5f 0cbd
00000380: a58a c23e 98a9 d43e 921b 6c3e 0ed1 103f
00000390: 5a46 e7bd f79c 0bbf bb74 aebe 2b83 693e
000003a0: b0e7 243e 0f08 0dbf 6bff 2abe 8613 2c3e
000003b0: b82b fabc 5d0e ca3e 31ba f0bd 5a40 16bd
000003c0: bdde 1a3f b1f0 a03e e3fa 313f 488a 003f
000003d0: 8471 6cbe 102b 32be d69c d4be 4283 a83c
000003e0: f3d9 94be 2668 dcbe d433 923e b5b8 963e
000003f0: 53ed 6f3e dff5 f43e 9012 f4bd d67c d1be
-0.2377336 -0.26865542 0.21235822 -0.076989315 0.22257687 -0.19323145 -0.16099532 0.022730568
0.004718376 0.17652337 0.22957005 0.10467489 0.18075117 0.03408994 -0.03785969 0.29405206
0.5594122 0.5780425 0.23253681 -0.19451207 -0.19983427 0.10806186 -0.46268567 -0.3874175
-0.4720534 -0.14909774 0.050222613 0.37004343 0.3364213 0.08629733 0.23901281 -0.13584872
0.1837575 0.124390475 -0.5339651 0.28500435 -0.13379155 0.21439052 -0.07774392 0.2635343
-0.4974505 0.5673492 -0.0014077602 -2.8135968e-05 -0.720638 -0.3529246 0.5591509 0.27557197
0.6311651 -0.015454941 0.47352418 0.6102171 -0.24833845 -0.020875052 -0.060557548 -0.1493937
0.3062503 0.112872384 -0.4731249 -0.07844479 0.5899274 0.028313044 0.45446855 -0.28986135
-0.0071327654 0.34871796 -0.03983913 0.45058525 -0.38137114 0.0070228595 -0.43537736 -0.15293908
-0.30043 0.08111004 -0.39901596 0.04963231 0.5163416 0.15740141 0.57284045 0.56442064
-0.18816032 0.35028434 -0.21061596 -0.12554479 -0.04517893 -0.112849794 -0.35935798 0.34855163
-0.54674584 -0.016399369 -0.17772716 -0.4123139 -0.2201394 0.07126238 0.6472792 0.6382087
0.573691 0.90612876 0.50064176 0.18520103 -0.3601413 -0.66927963 0.079204574 -0.92847866
-0.19873376 -0.88509315 0.40016255 -0.27583027 0.44806322 0.6123029 -0.15359776 -0.37460476
-0.4660322 0.056287814 0.14679962 0.11991526 -0.029575566 -0.32778376 0.13172701 0.09688268
0.22323667 0.1856172 -0.08698777 0.1982288 -0.03824643 0.27929497 -0.2723806 -0.035227556
0.15010034 -0.1720971 0.120970994 -0.12448362 0.20732398 -0.33883122 0.05508871 -0.51892036
-0.4026153 -0.47256702 -0.032731384 -0.20457768 -0.30147612 0.50504804 -0.46410894 -0.16445002
0.27064267 0.22777504 0.273577 -0.449363 -0.034562204 0.34741876 0.049043447 0.18500252
-0.28679228 -0.4468331 -0.27620864 0.010442156 0.19921032 0.4080419 0.0084268665 0.18791682
-0.23154184 0.3099094 0.28580442 0.13477221 0.032429315 0.0014377737 0.15750073 -0.26092857
-0.30436027 -0.08540229 0.34194422 0.28355572 0.5279423 0.053286113 -0.54492307 -0.028082397
0.26643094 0.07617019 0.20814513 0.08955283 -0.046237204 0.35693294 -0.28319174 0.37902695
-0.2223564 0.37469605 -0.47730362 0.15073273 -0.22126696 -0.22979322 0.49564496 0.44989726
0.13842523 -0.080793895 -0.39087865 -0.09666908 -0.37072662 -0.061841372 0.25923988 -0.26100934
0.07262805 0.08635173 0.41385305 -0.044610485 -0.10947466 -0.15041848 0.003049607 -0.11127676
0.06297923 0.026262159 -0.56489414 -0.00030664916 -0.26510668 0.37627456 -0.14356396 -0.2283962
0.043533903 0.46747127 -0.43691447 0.12960882 -0.58074737 -0.0012599856 0.6134085 -0.034270745
0.37996402 0.4153564 0.23057392 0.5656899 -0.11292715 -0.54536384 -0.34073433 0.22803943
0.16104007 -0.5509042 -0.16698997 0.16804323 -0.030538425 0.39464083 -0.11754263 -0.036682464
0.6049612 0.31433633 0.6952345 0.50211 -0.23090178 -0.1739924 -0.41525906 0.020570401
-0.29072532 -0.4304821 0.28555167 0.29437795 0.23430376 0.47843835 -0.11917603 -0.40915555

layers.0.bias f4 [16]
00000000: cc7b 443e 6eff c23d 1be0 1e3d 4b3e 763e
00000010: 4ce8 d0bd e10c df3d 9ac6 37be 8d8e da3d
00000020: ec08 21be ab64 033e 4e84 20be fda6 c9bd
00000030: 5101 d9bc c281 06bd fc73 513e 7662 2e3e
0.1918785 0.095213756 0.038787942 0.240472 -0.10200557 0.10891128 -0.17946854 0.10671721
-0.1572606 0.1283137 -0.1567547 -0.098463036 -0.026489886 -0.03283859 0.20454401 0.17029747

layers.1.weight f4 [16, 16]
00000000: 2fa1 333e 9a19 ad3e 833f 123e 8fc4 ae3a
00000010: bc38 12be 7ca9 21be 86c0 9ebe b00b 95be
00000020: 136f e33c 187e 1b3e 6ac2 31be aede 173f
00000030: 7939 16be f3bd 063f 2755 89be d0ce 033f
00000040: 90a6 263e 1c39 ed3e 634c bfbe 3efd 5c3e
00000050: 3e53 933e 3fa1 aa3e 8a92 913d eb76 21be
00000060: 96af 9e3d d87c f0be 6a46 f43e 9100 1d3f
00000070: a09f c8be 2fce 2a3f 9489 0f3e 8ce3 913e
00000080: 7e76 04bf 131b 983e f355 33bf 2d66 453d
00000090: f06e 883e 1048 cabe 2796 523d 052a ba3e
000000a0: f807 40be 8d16 453e be87 db3d 4d86 283f
000000b0: 5c03 9abe 6e2b 843e 8cf4 bfbc 066a a6be
000000c0: 8c11 3ebe d3b2 803d 5465 7b3e 9d0c 8f3d
000000d0: fcfd 5cbe 3353 de3e 819d 683b 63b8 98be
000000e0: 940f 383e e51e c9be f370 373e 0670 2b3f
000000f0: a7b6 aabe 7ff8 b53e f241 59be ed2f 0d3f
00000100: d374 c3be 4d16 b5bd bdca 71be 769a 783d
00000110: 6155 94be a924 81be 37ef 95be c032 83be
00000120: 2874 15be 8d5d 8ebd d8c8 bebe 9e3e f23d
00000130: 79ce 593d 9b46 46bd 5929 7fbe 6e8c 5c3e
00000140: 4114 55be 3da9 81be 1b8a 49be 2c8b f0be
00000150: 1dce f6be 2ea3 543e 6d9a 0a3f 7029 f0be
00000160: 3896 df3e a1c3 73bd 4ba9 b2bd 3102 b5be
00000170: 5907 643e 9b3e 203f d620 ee3e 1158 23be
00000180: acfb 183e fea6 e3be 7215 d2be df1b a6be
00000190: 0818 ec3d 64bc b3be 9214 e5be a8ca 513e
000001a0: 9c50 aebe 632b b53e bebf 51be 0566 e7be
000001b0: f0d4 1abe 2a5f 00bf aace 89be 1a64 553e
000001c0: 14d5 a63e 2150 09bf 573e df3e 0525 c1be
000001d0: 4afd a03d abe5 1f3e 0718 d0bd b5b4 923e
000001e0: dc48 d43e b8e4 b0bd cfce a2be 5550 bfbe
000001f0: 30a3 353e 4c5f e53d f1a0 ec3e 99e4 06be
00000200: 1da5 e5be 888d a13d a325 9fbe a70c 79be
00000210: a80c 57bd eaf3 8b3e 59ce 493e 87a5 3abe
00000220: 14fd 0abe 0665 cebd 3be1 31be 37c3 1c3e
00000230: 7014 4f3e c7fa 12bf 3115 83be 37cb 12bf
00000240: ffef 413e 46be 93be 4c35 083f 6a06 02bf
00000250: fc5a fbbe 8f67 a73e c2e8 f23e 1908 cabe
00000260: 89ad 123f b522 a5bd 2872 c5be 4d6f 04bf
00000270: 8c24 27be 2540 063e 96f1 663e a618 6abd
00000280: d6a0 093e d867 3c3e aa85 d8be aca0 db3e
00000290: b9d8 3b3d 9a2a a8bc e124 edbe 074a 60bc
000002a0: 7ee1 c0be 0d92 88be 28f9 95be a848 013c
000002b0: 9a2a a3bd 8d64 e5be e95e 2abe 529e f0be
000002c0: 624b 01be f520 07be af86 25be c35e d4be
000002d0: 7335 38bd 971f 92bd ab2e 69be 1567 95bc
000002e0: 29b7 933d 59cf e5be 6583 843e c692 bc3d
000002f0: f1b6 49be c936 97be 67e6 aabd 5fe7 dd3d
00000300: b9fe 1fbe 9c7a 313f deb6 a8be edc0 babe
00000310: 4d73 cf3d 50d5 42be 2918 14bf 50c9 993d
00000320: 5e79 5ebe f7e1 a1bd e5e6 313f dace 1f3f
00000330: 02dd 88be a927 d53e afad dbbe 65c4 81bd
00000340: 35af 86be 3c03 a73e 4b5e a4be 708b 15be
00000350: 9726 783e 8ffc 0ebf 421f 63be edbd 89be
00000360: a0cb c23c d4df 673d ae71 f03d 1fc7 833e
00000370: c849 a93e 43cf b73e 193e 9bbe 8e5e 9fbe
00000380: b914 283d 6962 d03e a032 fc3e 35b0 d0be
00000390: fb78 cdbe aea2 12be f8e9 483e 3563 f1be
000003a0: 8b3c 4a3e c201 00bf 312c 8e3e 688e 1a3e
000003b0: b32f b4be 8e06 af3e 2cd1 f83e 2934 fa3e
000003c0: 40fe 613e bb20 6abe cd56 d9bd 630a 9abe
000003d0: 977c 10bd a08b 783c fafa 003f d36e 4b3d
000003e0: 0a64 883d c4dd b1be 1953 263e 9f5b 8abe
000003f0: b957 2cbe 998d c83e 17c1 99bd 7e21 1e3f
0.17541955 0.33808595 0.1428204 0.0013333726 -0.14279455 -0.1578731 -0.3100626 -0.2911048
0.027762925 0.1518482 -0.1735932 0.5932416 -0.14670362 0.5263359 -0.2682278 0.51487446
0.16274476 0.46332633 -0.37362966 0.21580979 0.28774446 0.33326146 0.07108028 -0.1576802
0.07748334 -0.46970248 0.47709972 0.6132899 -0.39184284 0.6672086 0.14017326 0.28493917
-0.51743305 0.29708156 -0.70053023 0.048193146 0.2664714 -0.39508104 0.051412728 0.36360183
-0.1875304 0.19246884 0.1071925 0.65829927 -0.30080688 0.25814384 -0.023432039 -0.32502764
-0.18561381 0.06284108 0.24550372 0.06984828 -0.21581262 0.4342285 0.003549427 -0.29828176
0.17974693 -0.39281383 0.1791418 0.6696781 -0.33342478 0.3554115 -0.21216562 0.55151254
-0.38175067 -0.08842144 -0.23612495 0.06069418 -0.2897139 -0.25223282 -0.2928407 -0.25624657
-0.14595091 -0.06951437 -0.37262607 0.118283495 0.053175423 -0.04840718 -0.24918117 0.21537945
-0.20808508 -0.2532443 -0.1968159 -0.4698118 -0.48204127 0.20765373 0.54141885 -0.46906614
0.43669295 -0.05951274 -0.08723696 -0.35353234 0.22268428 0.6259553 0.46509427 -0.15951563
0.14939755 -0.44463342 -0.41031986 -0.3244314 0.11528021 -0.35104668 -0.44742256 0.20487463
-0.34045875 0.35384664 -0.204833 -0.45195022 -0.15120292 -0.5014521 -0.26915485 0.20838967
0.3258444 -0.5363789 0.4360225 -0.37723556 0.07860811 0.15614955 -0.10160833 0.28653494
0.41461837 -0.08637375 -0.31798407 -0.37365976 0.17738032 0.11199817 0.4621654 -0.1317314
-0.44852534 0.07888323 -0.31083402 -0.24321233 -0.052502304 0.2733453 0.19707622 -0.18227206
-0.13573104 -0.100778624 -0.17371075 0.15308844 0.2022264 -0.57413906 -0.25602105 -0.5734133
0.18939207 -0.28856105 0.53206325 -0.5079104 -0.49092853 0.32696196 0.47443205 -0.39459303
0.57296044 -0.080632605 -0.38563657 -0.5173233 -0.16322535 0.13110407 0.22553095 -0.057152413
0.1344026 0.18398988 -0.42289478 0.4289602 0.04586098 -0.020528127 -0.463172 -0.0136895245
-0.37672037 -0.26673928 -0.29291654 0.007890858 -0.0796711 -0.44803277 -0.16637768 -0.4699579
-0.12626413 -0.13196166 -0.16164659 -0.41478547 -0.04497285 -0.071349315 -0.22771709 -0.01823763
0.072126694 -0.44884756 0.25881496 0.09207682 -0.19698693 -0.29533985 -0.08344727 0.10835146
-0.15624513 0.6932771 -0.32952017 -0.36475316 0.10129414 -0.19026685 -0.57849365 0.075091004
-0.21725985 -0.079044275 0.6949294 0.62425005 -0.26731116 0.4163182 -0.42905948 -0.063362874
-0.26305547 0.32619655 -0.3210319 -0.14603972 0.24233471 -0.55854124 -0.22179893 -0.26902714
0.023778737 0.056609944 0.11740433 0.25737855 0.33064103 0.35900316 -0.30320814 -0.31126827
0.041035388 0.4070008 0.49257374 -0.40759435 -0.40131363 -0.1431987 0.19620502 -0.47146
0.19749658 -0.5000268 0.2776809 0.15093386 -0.35192642 0.34184688 0.48597085 0.4886792
0.22069645 -0.22864048 -0.10612259 -0.3008605 -0.035275068 0.015170008 0.5038296 0.049666237
0.06659706 -0.34739506 0.16242637 -0.27023026 -0.16830339 0.3917053 -0.07507532 0.61769855

layers.1.bias f4 [16]
00000000: 921a 2a3e 6d43 823b 4341 1c3e 0ac7 17be
00000010: cf55 f8bd 1bea 373e 7ce2 0a3e a78c 10be
00000020: 7263 ea3d 55b7 26be b2b4 d8bc 5157 523c
00000030: 7867 fcbd ddd3 683e c548 123e 3bbe 363e
0.16611698 0.003975323 0.1525927 -0.14822021 -0.12125742 0.17960398 0.1356296 -0.14116155
0.11444749 -0.16280873 -0.02645335 0.012838201 -0.123244226 0.2273707 0.14285572 0.17846005

layers.2.weight f4 [16, 16]
00000000: bc03 03bf b725 d53d 1112 133f 16fc 573e
00000010: 0666 1b3f 03a2 6d3e f7ea d13e 28a5 443e
00000020: f859 0e3f 65df c83e 53ff a43e eceb 023f
00000030: 9724 69be 9ad8 693e 93d3 4c3d 2e86 123f
00000040: ad1f 07be 488e 033e 6437 6cbe 1687 023f
00000050: cfe7 f03c 87e4 ffbe e46f be3e 7ae6 4abe
00000060: 1f2d 18be 6a29 fbbe 4e9e afbe 1c39 fb3e
00000070: d8a8 9a3e 0e00 b8be 2c39 8e3d ee2b a9be
00000080: 259f 943d 15c9 ff3e cce5 733e c0d5 48be
00000090: 74bc aa3e 3d56 f1bc a1f1 c93e d025 613e
000000a0: c7e4 5f3e 3514 123f 9724 1c3f 9371 043f
000000b0: fa01 77be 6ecf 55be c33e acbe e9dd d83e
000000c0: c309 9fbe 3d49 91be 88fb 95be ddbb ca3e
000000d0: 8cfd fb3d 4be5 813d ad50 4fbe 1fef ad3e
000000e0: f5e1 b3be 1941 7ebe 8c9a e1bd dcd1 0d3e
000000f0: b53b 5c3d 8c68 6fbe 1530 2abd 8eb4 69be
00000100: 9580 7c3d a257 f8bd e2b5 6abe cd1c 9f3e
00000110: bf36 61be 072c 2cbe bcbd 393c 05c4 90be
00000120: ee04 33be e977 8abc 2932 2cbe fbc1 a6bd
00000130: faf6 a6bc eaa1 5ebe 5470 103e e013 b6be
00000140: 7a13 093d 4a9c a33e c614 fb3e 9989 ddbd
00000150: a398 793e 57f9 a83e 9a61 80bd 1fb6 f7bd
00000160: 9838 a03e 34de 203f b453 f73e 2801 d13c
00000170: a3e8 3dbe 9229 82ba f0e2 a6be 472f 843e
00000180: 9974 c2be 2b66 7d3d 2973 093f 211b 3e3e
00000190: 3d1a 883c b14b 093f 685a 2cbe 0571 433e
000001a0: b308 be3e 0c38 a53e 0f82 013f cd85 4e3e
000001b0: 7347 22bd 6260 3a3e 37d1 d9be 7b8e a33e
000001c0: 3487 92bd cb6d 08bd 583d 00bf 635f 89bd
000001d0: 66c9 0cbd ebdf f0be 5e1d 8fbd 3e6f 1dbe
000001e0: b471 0bbf 3720 3cbe 7618 bc3d 3d7c d0bc
000001f0: ff32 14be 0559 eb3c 09d5 f63d e2b1 c03d
00000200: 1bc5 98be 015e 123f 1cad 153f 4059 013d
00000210: f42c cd3e 45a8 11be 551d 22bd e694 aebe
00000220: 9853 f53e ebf4 8abe 2570 8bbd 02ed 683e
00000230: 3590 8ebe 1e99 f6be 566e 923d 85e2 54be
00000240: bd40 07bd c5e7 bfbd 27c8 b43d 7590 6abd
00000250: 458d 4cbe 813f 05bf 7956 973c 4f9f 9bbe
00000260: 5822 1fbc 67f5 8f3e 07cd a8be 9e90 e8be
00000270: f526 68be f72d a1be 68ce 8b3e 08a7 c03e
00000280: 9c48 f83e aacc e9be e5a0 95bd 59f6 553e
00000290: ae1d 623e 7302 d3bd 5aee 8cbe 4827 eebe
000002a0: 1e7d bcbd be07 b1be 6807 aa3c 3eaa fe3d
000002b0: 5249 25be 1936 ecbb dbae cf3e 0047 83be
000002c0: 7d73 213f fc1c 08bf 90e9 6cbe 8e85 4e3e
000002d0: 4f3d 223f 40f3 c23c 2b5a b7be 755e a4be
000002e0: 35f3 4abe 5fea bdbd 5ece 10be 8faf 40bd
000002f0: 9783 053f 2ea3 1fbe 3eca 333f c605 a8be
00000300: 4475 553d 3763 a8be 666b f1be 5525 673e
00000310: 91f9 b3be a1fa 09be 3cd3 e13c 465a 633e
00000320: d88c a4be 74c3 0dbd c13e 8bbe 45a9 80be
00000330: 16f4 dd3d b33e a43e 3516 e03d 4869 80be
00000340: 06f0 f33e 3cfd 043e 4945 013e e793 98bc
00000350: c156 8a3d c472 6bbe 1428 b63e 945b 923e
00000360: 5277 133f cdc2 643e 4011 a83e 5325 233f
00000370: d844 3b3e fe0a 36be 90b4 013f 3ddd ab3e
00000380: e7d0 833d 2af4 ca3e 746e 42bd 8da9 bb3d
00000390: aa27 70be c7fb 173f 5f13 76bd 07a0 a33e
000003a0: 2f5e 143e c49c 0b3f a5f4 30be 84e8 133e
000003b0: 5d8f 3abe 5ca8 04bf ee53 cbbe 04b3 933e
000003c0: 05a4 e93e 8006 733e 012b 073f 508d 833e
000003d0: 3fc0 233f d5e5 0f3f 63b2 fe3e cd20 dd3e
000003e0: cc3d a9bc 84e3 9c3e 18d4 c73a ddde a63e
000003f0: 0c82 e03e 78c1 93be 5d41 773e 229a 543e
-0.51177573 0.10407584 0.5744944 0.21092257 0.6070255 0.23206334 0.40999576 0.19203627
0.5560603 0.39232937 0.32226047 0.5114124 -0.22767864 0.22836533 0.05000646 0.5723599
-0.13195677 0.12847245 -0.23068005 0.50987375 0.02940741 -0.4997904 0.3719474 -0.19814482
-0.14860962 -0.49055034 -0.34300464 0.49067008 0.30206943 -0.35937542 0.069444984 -0.33041328
0.07256917 0.499581 0.2381813 -0.19612789 0.33346903 -0.029460067 0.3944216 0.2198708
0.21864615 0.57062083 0.6099333 0.517358 -0.24121848 -0.2087991 -0.33641633 0.42356804
-0.31062135 -0.2837619 -0.29293466 0.39596453 0.123042196 0.06342562 -0.20245619 0.33971497
-0.3513333 -0.2482952 -0.110158056 0.13849586 0.05376788 -0.23379725 -0.04154976 -0.22822782
0.061646063 -0.1212609 -0.22920945 0.3107666 -0.2199354 -0.1681367 0.01133674 -0.2827455
-0.1748235 -0.01690288 -0.1681601 -0.081424676 -0.02038144 -0.21741453 0.1410535 -0.35562038
0.03346584 0.31955177 0.49039286 -0.1081726 0.24374633 0.3300273 -0.06268616 -0.12095284
0.31293178 0.62839055 0.48306048 0.025513247 -0.18545775 -0.0009930602 -0.32595015 0.2581732
-0.37979582 0.061865013 0.53691345 0.18565036 0.016614074 0.5363112 -0.16831362 0.19086082
0.37116012 0.32269323 0.5058908 0.20168228 -0.03961892 0.1820083 -0.4254243 0.3194464
-0.07154694 -0.03330783 -0.50093603 -0.06707647 -0.034371756 -0.47045836 -0.06988023 -0.15374467
-0.5447037 -0.18371664 0.09184353 -0.025449866 -0.14472578 0.028728971 0.12052352 0.094089285
-0.2983788 0.5717469 0.5846727 0.031579256 0.4007336 -0.14224346 -0.039578754 -0.34097975
0.4791534 -0.27139983 -0.06808499 0.22746661 -0.27844396 -0.48163694 0.07149951 -0.20789535
-0.033020724 -0.093703784 0.088272385 -0.05726667 -0.19975765 -0.52050024 0.01847385 -0.3039498
-0.009712778 0.28116915 -0.32968923 -0.45422834 -0.22671111 -0.3148038 0.27305913 0.37627435
0.48492897 -0.4566396 -0.07306079 0.20894755 0.22081634 -0.103032015 -0.27525598 -0.46514344
-0.09203552 -0.3457622 0.020755485 0.12434815 -0.1614125 -0.0072085974 0.40563092 -0.25640106
0.63066846 -0.53169227 -0.23135972 0.20168135 0.633748 0.023797631 -0.3581098 -0.32103315
-0.19819339 -0.09273218 -0.14141223 -0.047042426 0.52153915 -0.15589592 0.7023047 -0.32816905
0.052113786 -0.32888195 -0.4715225 0.22572835 -0.35151342 -0.13474514 0.027566545 0.22202405
-0.32138705 -0.034610227 -0.27196315 -0.25129142 0.10837571 0.32079086 0.10941736 -0.25080323
0.4764406 0.12987226 0.12624086 -0.018625213 0.06754828 -0.22992998 0.35577452 0.28585494
0.57603943 0.22339936 0.3282566 0.6372883 0.1828798 -0.1777763 0.5066614 0.3356723
0.06436329 0.39639407 -0.047468618 0.091631986 -0.2345263 0.59368557 -0.060077067 0.3195803
0.14489053 0.5453608 -0.17280824 0.14444166 -0.18218751 -0.51819396 -0.3971247 0.28847516
0.4563295 0.23732948 0.52799994 0.2569375 0.6396522 0.5621007 0.49745473 0.43189088
-0.02065935 0.3064233 0.0015245704 0.32591906 0.43849218 -0.28858542 0.24146028 0.20761922

layers.2.bias f4 [16]
00000000: f525 e0bc 5b9f 173e c850 263e 960b 0abd
00000010: c54c 563e 31a7 173e 752c 4c3e dbd3 1f3e
00000020: 474a 353e 0eaf 133e c151 283e e8af 4f3e
00000030: f196 da3c 9e26 15be bf06 ae3c 7c5a 113e
-0.02736185 0.14806883 0.16241753 -0.033702455 0.20927723 0.14809872 0.19938834 0.1560816
0.17704116 0.14422247 0.16437437 0.20281947 0.026683303 -0.14565513 0.021243451 0.14194673

layers.3.weight f4 [16, 16]
00000000: 60f8 14be 4916 0fbf b146 bbbe 4bee bbbe
00000010: 93df 25be a106 f53e 66c2 233f a88d 59be
00000020: 1117 213f 5b6b 06bf b73b aa3d c9eb 8fbe
00000030: a1ef 313e fe51 00bf 5df3 7fbe d6ea a93d
00000040: 85ab 4e3e 4721 eb3e 7c70 e33e cb6a cf3e
00000050: cb6d 9ebd 84d5 b7be 647e 973e 2a9b 0a3f
00000060: 52be ddbe 11a5 923e 4285 edbe 7f7f e23e
00000070: 74a8 a8be 3a10 023f ae62 1e3f 1f21 f33d
00000080: 0ec5 023f b589 db3e e51e 09be 9775 0c3f
00000090: 281a 873e 7b50 6f3e c496 81be 4e7e 0f3f
000000a0: 4e7d e13e 21c8 c43e 3be6 babe 3447 553e
000000b0: b2d6 a53e d29a 363e 3750 0abe 3107 1b3f
000000c0: 89af a0be 8820 fa3d 118c 83be 8b9d e4be
000000d0: 740c 01bd 02ac 403e 2760 f5bc babf 13bf
000000e0: 9705 3ebc 9fec cd3d 3c92 4fbd 7b79 93be
000000f0: 3681 213e 1b93 18bf 4ca3 883e 84fc e9bd
00000100: 29a2 b63e 336b 25be 7c10 e13d 97fc 02be
00000110: 485c 97be 5a2d 91bd 509f 663e 94e7 b73d
00000120: f4e6 043f 9449 803e 0f2f 8a3d d7f2 8b3e
00000130: 42d4 da3e c7fd ed3e bc05 16be 670c 443d
00000140: ae5c 213f 745e e8ba 9c38 6b3e 27a2 123f
00000150: ba63 02bf 161e 1dbe 5adc a8bd e4ba 00bc
00000160: bba6 d3be ac3f d03e 1613 6c3e 98f6 fb3e
00000170: c180 98bd 1131 f73e a67c 193f c655 093f
00000180: 4945 e03e 0cfe 0ebe b319 e53e 1acf ca3d
00000190: 10f7 27be e74c 733e 2708 773e 1d0a 5f3e
000001a0: 77a1 fd3e 0740 f73e dc23 c2be b8c4 0a3f
000001b0: 869f 213e a307 a13e be2a 0a3f dfcd 50be
000001c0: e3d9 7fbd 94a7 db3e 9ab0 d13e 0331 1e3f
000001d0: a7e9 923e f524 a23d 123f 12be 791d e53e
000001e0: a9fb 82be df09 e23e a017 8e3e e448 303d
000001f0: 3359 863a 5464 8e3e b684 4abe 1ce1 913e
00000200: 5c77 9c3e fee8 003f 44f2 a23e cfe3 3f3e
00000210: 9c4a 113e 55f0 933e b0cc 893e b850 b73e
00000220: 6ef5 bf3e df79 a43e c2a9 76be 116d 6cbe
00000230: 2824 17be e209 3e3e 2153 193f 4856 3c3e
00000240: 5cd5 ec3d 195e b23e 0957 fc3e 9b14 ec3e
00000250: 9a60 e73d 17ba d1bd cea0 f4bd cb97 e53e
00000260: 2300 d7be 50fe b53e 30ae 86be 157e 243d
00000270: 4ae7 b0bd fd7d 053f 4e9c db3e d696 1bbe
00000280: 0850 c13e 8f8d 153f 108b 61bb db12 a138
00000290: 2b9e 83be 5e16 45bd 0e3c 883e 7219 4e3e
000002a0: 9e13 9fbe 0746 113f b21c cdbe 5faa 0c3f
000002b0: 37b8 d43e 3e32 833e 803c 8b3e 5473 d23e
000002c0: 469e 35be 1479 f43e 9fd3 0d3d 94a3 b03e
000002d0: 20de 25be 8871 553e 8b37 ca3e 47a3 883e
000002e0: 32a8 173f bfbb 143e 882e efbe 6428 a93c
000002f0: 247f bc3e 6e10 913e e9b9 353c e712 b5bd
00000300: 4237 0dbf ca80 52be 5eaf babd 9f7b d93d
00000310: ecdb 673e 395c 873e de57 133f e3dc 05bf
00000320: e095 1d3f a570 16bf 71ef cbbd c68e 7dbe
00000330: cb90 163f a266 86be 49be 07bf 3e77 09bf
00000340: 967d d7be 6918 d6be 8080 0fbd 3b29 a93c
00000350: ed29 44be 3abe 053e aa17 903e bec5 233e
00000360: 03bc debe 9de2 cdbd 1ef1 a7be ace1 6c3e
00000370: e72e 0f3c d5db c4bc 0774 d8be 36ee c9be
00000380: de1f d7be af6b c4be 898f 7ebe 23c1 07be
00000390: 5039 bd3e 2624 bb3e 3d0a 10bb 559c 97be
000003a0: bd6e f53d ea17 ee3c 2c70 a73d 0242 d13c
000003b0: 9bd3 de3e a3f0 bfbe 63af 8dbe a182 2cbe
000003c0: 7b27 50be cfca 173f 8384 60bd 756a dc3e
000003d0: 0e12 03bf 9161 a13e aabe 32be 6927 6cbe
000003e0: 0563 e3be b780 193d 499f 0d3e 4e2b 193f
000003f0: aafd c5be 324a 993e fbaa 573e 13a0 473e
-0.14547873 -0.5589338 -0.3657737 -0.3670524 -0.16198568 0.4785662 0.63968503 -0.21245444
0.6292582 -0.5250756 0.08312171 -0.28109577 0.17376567 -0.5012511 -0.2499518 0.082967445
0.20182617 0.45923826 0.44421756 0.40511164 -0.07735785 -0.35905087 0.29588616 0.5414301
-0.43309265 0.2864156 -0.4639073 0.44237897 -0.3294102 0.5080601 0.61869323 0.11871552
0.5108193 0.428785 -0.13390692 0.5486693 0.26387143 0.23370545 -0.25310338 0.560521
0.44040912 0.38433936 -0.36503777 0.20827943 0.32390362 0.17832497 -0.13507162 0.6055785
-0.31383923 0.12213236 -0.256928 -0.44651446 -0.031506017 0.18815616 -0.029953076 -0.57714427
-0.011598012 0.100548975 -0.05067657 -0.2880362 0.15771946 -0.59599465 0.26687086 -0.11425117
0.35670593 -0.16154175 0.10989472 -0.12791668 -0.29562593 -0.07088728 0.2252171 0.08979717
0.51914907 0.25056136 0.06747257 0.2733371 0.42740065 0.4648268 -0.14650625 0.04786339
0.6303204 -0.0017728345 0.22970814 0.57278675 -0.5093342 -0.15343508 -0.08245154 -0.007857058
-0.41338143 0.40673578 0.23054156 0.49211574 -0.07446433 0.48279622 0.59955823 0.53646505
0.4380286 -0.13964099 0.4474617 0.09902783 -0.1640284 0.23759805 0.24124204 0.21781202
0.4953725 0.48291036 -0.37917984 0.5420642 0.1578351 0.3145114 0.5397147 -0.20391034
-0.062463652 0.4290129 0.4095505 0.61793536 0.28693888 0.07917205 -0.14281872 0.44749048
-0.25582626 0.44148156 0.277524 0.043038264 0.0010249972 0.2781092 -0.19777188 0.28492057
0.30559814 0.5035552 0.3182546 0.18739246 0.14188617 0.28894296 0.26913977 0.3580377
0.37491935 0.3212423 -0.24088195 -0.2308848 -0.14759886 0.18558457 0.5989247 0.18392289
0.115641326 0.34837416 0.49285153 0.4610947 0.11297722 -0.10240572 -0.119447336 0.4484237
-0.41992292 0.35545588 -0.2630477 0.040159304 -0.08637865 0.5214537 0.4289269 -0.15194258
0.37756371 0.58419126 -0.0034415163 7.68059e-05 -0.2570661 -0.048117034 0.26608318 0.20126894
-0.31069654 0.5674748 -0.40060955 0.54947466 0.41546795 0.2562427 0.27194595 0.41103613
-0.17736158 0.47748625 0.034625646 0.344998 -0.16198015 0.2084409 0.394955 0.2668707
0.5924102 0.14524744 -0.46715188 0.020649143 0.3681575 0.28332847 0.011091688 -0.08841496
-0.5516244 -0.20556942 -0.0911548 0.10619282 0.22642487 0.26437548 0.5755595 -0.5229017
0.61556816 -0.5876563 -0.09957779 -0.24761495 0.58814687 -0.26250178 -0.5302473 -0.53697574
-0.42088002 -0.41815498 -0.035034657 0.020649543 -0.19156618 0.13060847 0.28143054 0.15993401
-0.43502817 -0.10052989 -0.32801145 0.23132962 0.00873921 -0.024030605 -0.42276022 -0.39439553
-0.420165 -0.38363406 -0.24859442 -0.1325727 0.36957788 0.36551017 -0.0021978759 -0.2961146
0.11984012 0.029064137 0.08175692 0.02554417 0.43520817 -0.3748828 -0.27672872 -0.16846706
-0.2032756 0.59293836 -0.054813873 0.4304997 -0.51199424 0.3151975 -0.17455545 -0.23061909
-0.44411483 0.037476268 0.13830294 0.598317 -0.38670093 0.2993942 0.21061318 0.19494657

layers.3.bias f4 [16]
00000000: 1742 613e 59b4 233e a2e9 4b3e fc1c 3c3e
00000010: 7d05 0bbe 56c5 80bd 9f89 b4bd 98ce 1b3e
00000020: e819 7abd 2a34 553e ccad ffbd c0bb 183e
00000030: 989c 9bbd b7b1 133e adbf 3b3e 728b 1f3e
0.21997868 0.15986766 0.19913343 0.18370432 -0.13576312 -0.06287639 -0.08815312 0.15215528
-0.061059862 0.2082068 -0.12484321 0.14915371 -0.07598227 0.14423262 0.18334837 0.15580538

layers.4.weight f4 [16, 16]
00000000: 7bed 813e fb42 1a3f 1bee f1be 94a1 0d3e
00000010: b832 fcbd 9509 c0bd a8eb 0cbe d438 c43c
00000020: 88cf c43e 9652 1c3f 7f1a 0dbf 9182 4fbe
00000030: 2710 4a3e 18f2 0a3f e1dd 813e 9d8b 3a3d
00000040: 303c 203e 3933 993e f766 aebe 347f 793d
00000050: 4984 bb3d ba96 4d3e 8d4f 283e b101 15bf
00000060: 69d3 853e ff74 623e acf5 fabe 938e 163f
00000070: 5e37 5abe da97 d33e fb97 fb3e f7dd 81be
00000080: 273e fb3e 053c a4bc 4c32 253e 6800 c53e
00000090: f4b0 433d 3cca 86be 5e47 bf3e 29e1 5bbe
000000a0: a75c d13e e13d b83d 600a 2abe e2f4 c93e
000000b0: a4bc 23bf 41a8 1dbe 41a1 f93d 663e 1abf
000000c0: efc2 073f e26d e03d ba06 00bf 4181 b93e
000000d0: c6ad f8bd 454b 86be c2ae b43d 2455 713e
000000e0: b2fc 113f 1eb6 063f bf27 033e 5841 293e
000000f0: 6939 bbbd 129a 3e3d c2c8 793c c36b f5be
00000100: 7b58 ec3c 06c9 06bf 0b47 743e a383 0cbd
00000110: 9e20 893e e6cb 813e d59a 62be aa91 ff3e
00000120: 6b1a a2bd a480 22be f7d6 f83e 1722 393e
00000130: b0d8 6b3e f230 943e bd96 91be be65 a6bd
00000140: 1140 563d d37f c8be c1f7 e03e 9145 0c3e
00000150: 730c 113f 20c3 173f 5daa b9be 937c 6abd
00000160: 9f5a d4be 1950 cbbe 4dac 32be b35e aa3d
00000170: 574e dcbd 6cbd 1fbf 2191 22bf 2618 8c3e
00000180: ac1c 74be 2632 d6be bf7e e83e b1ba c7be
00000190: 9fdf 803e cf77 293c fbe8 96be 34f8 a83e
000001a0: fd5b 933c 54ab 26bf eb15 813d 4f0e 53bd
000001b0: 9609 273f 44c1 ebbd 3588 19bf e50a 50bd
000001c0: f180 093f c60b 103f 78ce 5c3e 4fdb 093b
000001d0: a2fb 1ebf 657d 23bf 9984 b13e 91b9 0fbe
000001e0: 76a5 f33e 10bd 253e edff eabd 4728 1d3f
000001f0: ea92 7abe d8cf 013f dc3c e9bc 3b5f f93d
00000200: 4c0f 11bf e28b 2dbe 795d 74bc 33be afbe
00000210: 71a0 c23e 43fa e43e c55b 27bf 3612 4e3e
00000220: 238b bebe f865 25bf 981b debd 6ba4 00bf
00000230: 0bef b9bc ca78 e4be 0f80 27bf 4aa9 4bbe
00000240: 4399 953e 4263 093d cb69 443e 8fc7 fd3e
00000250: 4c9e b2be e366 8cbe 787a c5bd e8d9 ecbe
00000260: 60f0 b93e c6f7 f63e d323 ecbe 3c3e 8cbd
00000270: 1431 783e 1f18 143f b417 733d 70f5 82bd
00000280: ba08 70be c6c4 c3be 3a84 d53e e921 a93e
00000290: fcbd 8f3e de91 c83e 15db 53be cd0e 163e
000002a0: 9d22 07bf c540 48be 83da a5bd be69 33bd
000002b0: b248 6b3e 99b3 10be 95bf 38be e779 d83e
000002c0: 9af9 033f e57e 5f3d 06b5 03bd 848e ff3e
000002d0: 5c89 38be a9db 48be c310 163f 4f5a 46be
000002e0: 09f3 6d3d d3d8 0ebe 39eb eabe f5bd ce3e
000002f0: 91dc 9bbe a0cd 713e 84d6 e73d 0851 00bf
00000300: 04d9 e3be 7c67 1dbf 5361 6639 4b07 26bf
00000310: f5b5 38be ffcf e13e 03f1 94be fb7b 843e
00000320: f250 24bf e88d 01bf adf5 fc3e 16e5 9abe
00000330: eb39 d83e d852 0fbe 1ebb 23bf 9993 b0bd
00000340: 4082 dc3e a65a fe3e e850 6fbe 657a 173f
00000350: afca 0abf c71f 1fbf ecc8 c23e 5af9 623e
00000360: f9d3 da3e 5946 1d3f f477 14bf 31a2 c63d
00000370: 07a4 99be 4512 48bd e1d3 61be 21c4 f5be
00000380: a75d a83e deda aabc 2c0e 6c3d edb5 b33d
00000390: 7dae fabe 7552 0cbf aa74 0c3f 41ed efbe
000003a0: a32d 7d3d 0cab 4fbe 9fd4 5d3e a190 ef3e
000003b0: fb01 a9be ebd6 1b3f d782 fc3e ef41 51be
000003c0: a5a3 0d3f 5f2e d53e ee11 eabe c3aa 3ebe
000003d0: 68ab 15bf c7a8 01be 9237 133f 1187 12bd
000003e0: d37b e4bd adaa af3e f5f2 d3be c12e 1ebc
000003f0: fbad 83be 20d8 8b3e b15e 193f 81d5 47be
0.25376496 0.60258454 -0.47251973 0.13831168 -0.12314361 -0.093768276 -0.1376177 0.023952879
0.38439584 0.61063516 -0.55118555 -0.20264651 0.19732724 0.54275656 0.25364593 0.0455433
0.1564796 0.29921892 -0.3406293 0.060912326 0.09156091 0.20077029 0.16436596 -0.58205706
0.26137856 0.22114943 -0.49015558 0.588113 -0.21310183 0.4132679 0.4913939 -0.25364658
0.49070856 -0.02004815 0.16132468 0.38476872 0.047776178 -0.26326168 0.37359136 -0.2147261
0.40891 0.089961775 -0.1660552 0.39444643 -0.6395972 -0.15396215 0.1218896 -0.6025146
0.5303182 0.109584585 -0.50010264 0.36231425 -0.1214252 -0.262293 0.08822395 0.23567635
0.5702621 0.5262164 0.1280813 0.16528833 -0.091418095 0.04653365 0.015245618 -0.47933778
0.028850785 -0.5265049 0.23855226 -0.034305226 0.26782697 0.25350875 -0.22129376 0.4991582
-0.07915195 -0.15869385 0.48601505 0.1807941 0.23031878 0.28943592 -0.28435317 -0.081248745
0.052307192 -0.39160022 0.4393902 0.13698412 0.5665962 0.5928211 -0.3626279 -0.05724771
-0.41475388 -0.39709547 -0.1744854 0.08318844 -0.1075713 -0.6239841 -0.635027 0.27362174
-0.23839062 -0.41835135 0.454092 -0.39009622 0.2517061 0.010343506 -0.29474625 0.33001864
0.0179882 -0.65105176 0.06303009 -0.051527318 0.65249 -0.11511472 -0.5997346 -0.05079164
0.53712374 0.56267965 0.21563137 0.002103526 -0.6210271 -0.6386321 0.34671476 -0.14035632
0.47587174 0.16185403 -0.11474595 0.61389583 -0.24470106 0.5070777 -0.028471403 0.12176367
-0.56663966 -0.16947892 -0.014914864 -0.34324798 0.38013032 0.44722185 -0.65374404 0.20124134
-0.37215528 -0.64608717 -0.10845107 -0.5025088 -0.022696992 -0.44623405 -0.65429777 -0.19888797
0.29218492 0.033541925 0.19180982 0.49566314 -0.34886396 -0.27422246 -0.096425 -0.4626
0.36316204 0.4823591 -0.46121082 -0.06847808 0.24237472 0.57849306 0.059348777 -0.0639447
-0.23440829 -0.38236064 0.41702443 0.33033684 0.28074634 0.39173788 -0.20689042 0.14654084
-0.5278719 -0.19555958 -0.080983184 -0.043802015 0.2297695 -0.14131011 -0.18041833 0.42280504
0.51552737 0.054564375 -0.03215506 0.49913418 -0.18021148 -0.19615044 0.58619326 -0.19370387
0.058093105 -0.139499 -0.45882586 0.403793 -0.30441716 0.23613596 0.113202125 -0.50123644
-0.44501507 -0.6148603 0.00021970765 -0.6485488 -0.18038161 0.44104 -0.29090127 0.2587584
-0.6418601 -0.50607157 0.49406186 -0.30252904 0.42231688 -0.13996446 -0.63957393 -0.08621902
0.43068123 0.49678534 -0.23370707 0.59171134 -0.5421552 -0.62157863 0.38043916 0.22165433
0.42739847 0.61435467 -0.57995534 0.09698904 -0.30007955 -0.04884555 -0.22053482 -0.48001197
0.3288395 -0.020856317 0.057630703 0.08774934 -0.4896125 -0.5481332 0.54865515 -0.46860698
0.0618111 -0.20280093 0.2166314 0.4679003 -0.33009323 0.60874814 0.49318573 -0.20435308
0.55327827 0.4163694 -0.45716804 -0.18619828 -0.5846467 -0.1266204 0.5750667 -0.03577334
-0.1115643 0.34309903 -0.413963 -0.009654702 -0.25718674 0.27313328 0.5991011 -0.19515039

layers.4.bias f4 [16]
00000000: aba1 163e 3305 063e 63b5 25be 5c44 2b3e
00000010: 37d3 0abe cd2a 41be 1b7c 043e 9a3e 1fbe
00000020: 639f 053e 9235 253e 6c62 0dbe 42ae 213e
00000030: 8cce 1cbe 1d1a 143e f03b 193e 4502 06be
0.14710109 0.13087921 -0.16182475 0.16725296 -0.13557135 -0.18863983 0.12937967 -0.15551224
0.13049082 0.16133717 -0.13807076 0.1578913 -0.15313166 0.14463086 0.1496427 -0.13086803

predict.weight f4 [1, 16]
00000000: 5611 a63e 482c f03e 74b6 b7be 32dc 943e
00000010: 7159 ccbe 1f01 89be 3dbb f63e 79b7 bbbe
00000020: 09a3 e33e 3049 9e3e de7e b8be e9df a03e
00000030: 908c bdbe 7789 b43e c90d cd3e 42f8 c7be
0.324351 0.46908784 -0.35881388 0.29074246 -0.39911988 -0.26758668 0.48189726 -0.36663416
0.44460323 0.30915213 -0.36034292 0.3142083 -0.37021303 0.35261127 0.4004958 -0.39056593
