demo/data/example/models/model_dim16_lay3.pth (torch, 6215 bytes, 9 tensors)

linear.weight f4 [16, 1]
-0.2618724 0.597792 -0.40216565 -0.0908519 -0.15091825 0.37063754 -0.5526459 0.19944453
0.92253864 -0.21146238 0.45368898 0.35115206 0.5764322 0.5566921 -0.09604013 0.28090942
00000000: 2414 86be e608 193f a8e8 cdbe 9010 babd
00000010: 508a 1abe 34c4 bd3e 347a 0dbf 303b 4c3e
00000020: 7e2b 6c3f 9889 58be ec49 e83e 34ca b33e
00000030: 1091 133f 6083 0e3f b0b0 c4bd 5cd3 8f3e

linear.bias f4 [16]
0.6061133 0.16470635 0.8170873 -0.5582572 0.16754949 0.45600975 0.770558 -0.53735936
-0.88977814 -0.3108921 0.6961421 0.8839916 0.8615773 0.6090313 0.62762713 0.8507931
00000000: 3e2a 1b3f c8a8 283e a22c 513f f2e9 0ebf
00000010: 1892 2b3e 1c7a e93e 4a43 453f 6290 09bf
00000020: 80c8 63bf 402d 9fbe 5e36 323f 464d 623f
00000030: 5490 5c3f 7ae9 1b3f 2cac 203f 94cd 593f

conv_0.weight f4 [16, 16]
0.119004615 0.39914507 0.33106557 -0.20787284 0.1584359 0.26175103 -0.21019621 0.364331
-0.286097 0.21642262 -0.2582585 -0.13783413 0.36591503 -0.2439317 0.34043413 -0.0023429925
0.07902905 -0.19661982 -0.36516693 0.069998905 -0.0743665 -0.2528907 -0.015318701 -0.35161257
-0.08171201 -0.33389607 -0.39852017 -0.2452425 -0.28587064 0.055595513 0.19101496 0.34709698
-0.20458795 -0.2833505 -0.26461843 0.18522422 0.15512227 -0.17319004 0.42285487 0.12627734
0.4157126 -0.09247098 0.041035872 0.16021913 -0.22923568 0.10150779 0.219301 0.3563127
-0.30328715 0.22643504 -0.1011175 0.30417478 0.28837633 0.20588581 -0.14541885 0.26601854
-0.019712986 0.22870395 0.2101019 0.11203882 0.32570323 0.22926964 0.013380609 -0.22903493
-0.42160898 -0.037613317 -0.30931517 0.22273254 -0.41243875 0.3848061 0.02415311 -0.12440465
-0.073771335 -0.12001547 0.31945777 0.2856239 -0.023423215 -0.1155499 -0.0967498 0.32163176
0.38360718 0.11212425 -0.1731295 -0.26564008 0.32317528 0.4031478 -0.2076516 -0.110462785
-0.27894026 0.23190294 -0.24262166 -0.17537235 0.056475412 0.3250297 -0.04287599 -0.26687393
-0.43171644 0.07465067 -0.03560053 0.1305784 -0.26470676 -0.31341678 1.8737746e-05 -0.19487756
-0.14748506 -0.43231812 -0.018719163 0.32432473 0.4099185 -0.39256105 0.31257352 -0.24274549
0.22039796 -0.30193907 -0.04281647 -0.08465667 -0.10568239 0.08650309 -0.15742871 0.18754688
0.30986688 -0.20472567 0.2350273 -0.3913612 -0.113774925 -0.21326455 -0.20831078 -0.31871822
-0.39573285 0.046110705 -0.18097648 0.37520117 0.08541687 0.08834646 -0.36754632 -0.015064735
0.30355448 -0.13990308 -0.20004919 -0.14610218 0.051600296 0.34621614 -0.24608985 -0.057609174
-0.18030094 0.43271387 -0.21766452 0.2504773 0.018603537 -0.3004877 0.04173985 0.12297413
0.33333585 0.10279301 0.28879488 -0.2154037 -0.011247707 -0.30488038 -0.06458065 -0.25728104
-0.27145353 -0.20158537 -0.3526996 0.048936386 -0.3182232 -0.41527092 0.22406271 -0.3425884
0.15375039 0.35091385 0.42612866 0.07566493 -0.0011358275 -0.15975183 -0.35327956 -0.12271541
0.12694487 0.082188144 -0.31059146 0.11672098 -0.2614005 -0.21443672 0.0141107105 0.30315584
-0.26818866 -0.18397498 -0.14732535 0.3269308 0.20892468 0.3348825 0.10172774 0.42885628
-0.28605145 0.41549337 0.41241017 0.38298875 0.38970914 -0.038048103 -0.24501626 -0.20424174
0.36312538 0.26407447 -0.07021829 0.40388444 -0.23182102 0.017298346 0.39873347 -0.13892284
-0.011801735 -0.06824844 0.37165794 0.010040283 -0.36071187 0.17935735 0.42061207 -0.20849547
0.2235536 0.11020247 0.16066936 -0.32031053 -0.37170646 0.3792869 0.35233933 -0.19880243
0.4280878 -0.33240637 0.19033684 0.3939845 0.19707386 -0.38686442 -0.3555794 0.059097614
0.30162898 -0.326598 0.033988155 0.116184555 -0.09327067 -0.39912942 -0.034787994 0.05114197
-0.026866315 -0.010530303 0.20468444 0.32069942 -0.33689725 0.115816616 -0.30729982 0.07558559
0.024655106 -0.26553726 0.099329256 -0.13535729 0.06158457 -0.028344944 0.30351463 -0.118100815
00000000: b1b8 f33d be5c cc3e 6d81 a93e 9edc 54be
00000010: 053d 223e 3b04 863e ad3d 57be 9889 ba3e
00000020: 4e7b 92be e49d 5d3e 753a 84be 6424 0dbe
00000030: 3759 bb3e 3bc9 79be 624d ae3e e48c 19bb
00000040: fcd9 a13d b556 49be 29f7 babe 965b 8f3d
00000050: 774d 98bd e47a 81be 4afb 7abc 9006 b4be
00000060: a058 a7bd 6df4 aabe d60a ccbe da20 7bbe
00000070: a35d 92be 1fb8 633d 6d99 433e b2b6 b13e
00000080: 817f 51be 5113 91be 117c 87be 6bab 3d3e
00000090: 5fd8 1e3e bb58 31be 6f80 d83e d94e 013e
000000a0: 48d8 d43e 6d61 bdbd 3b15 283d 7c10 243e
000000b0: c2bc 6abe 51e3 cf3d 7190 603e 9e6e b63e
000000c0: 7448 9bbe 96de 673e b116 cfbd ccbc 9b3e
000000d0: 10a6 933e bbd3 523e aee8 14be 9533 883e
000000e0: 217d a1bc 5e31 6a3e f424 573e 9c74 e53d
000000f0: 93c2 a63e a9c5 6a3e 583a 5b3c 2288 6abe
00000100: 22dd d7be 6c10 1abd 8f5e 9ebe 0014 643e
00000110: 2c2b d3be 4e05 c53e bedc c53c ddc7 febd
00000120: 6d15 97bd acca f5bd f88f a33e 4c3d 923e
00000130: 0be2 bfbc 6da5 ecbd c224 c6bd ebac a43e
00000140: 2968 c43e 66a1 e53d dc48 31be fa01 88be
00000150: 3b77 a53e 6369 ce3e 9fa2 54be 503a e2bd
00000160: 42d1 8ebe f777 6d3e d071 78be cf94 33be
00000170: c352 673d 4b6a a63e bc9e 2fbd b3a3 88be
00000180: f009 ddbe 73e2 983d ddd1 11bd 58b6 053e
00000190: a587 87be 2a78 a0be 012f 9d37 fc8d 47be
000001a0: 5306 17be cd58 ddbe ee58 99bc e40d a63e
000001b0: d6e0 d13e c3fd c8be a309 a03e 4692 78be
000001c0: 01b0 613e c297 9abe 5360 2fbd 7a60 adbd
000001d0: 0270 d8bd 8828 b13d fe34 21be 4a0c 403e
000001e0: dfa6 9e3e 9ba3 51be ffaa 703e 7f60 c8be
000001f0: d402 e9bd 0662 5abe 6c4f 55be 092f a3be
00000200: 7f9d cabe 94de 3c3d e651 39be 5e1a c03e
00000210: 0aef ae3d fdee b43d 082f bcbe 14d2 76bc
00000220: 7e6b 9b3e c142 0fbe b2d9 4cbe cf9b 15be
00000230: d55a 533d 3e43 b13e fafe 7bbe 99f7 6bbd
00000240: cfa0 38be ac8c dd3e 73e3 5ebe 903e 803e
00000250: 7266 983c 86d9 99be 68f7 2a3d dcd9 fb3d
00000260: ffaa aa3e 2485 d23d ecdc 933e ca92 5cbe
00000270: 4d48 38bc 4819 9cbe dc42 84bd 57ba 83be
00000280: f5fb 8abe 656c 4ebe 0b95 b4be 8571 483d
00000290: 27ee a2be 649e d4be b270 653e bf67 afbe
000002a0: be70 1d3e fbaa b33e 892d da3e 37f6 9a3d
000002b0: 0ce0 94ba fc95 23be 0fe1 b4be 3852 fbbd
000002c0: d6fd 013e 4252 a83d d805 9fbe 690b ef3d
000002d0: 49d6 85be 4d95 5bbe 9c30 673c 3e37 9b3e
000002e0: 0650 89be f063 3cbe 75dc 16be 7963 a73e
000002f0: 5af0 553e b875 ab3e a256 d03d 0d93 db3e
00000300: 5675 92be 8cbb d43e 6d27 d33e 1a17 c43e
00000310: f587 c73e 54d8 1bbd 8be5 7abe bf24 51be
00000320: 92eb b93e c534 873e 9bce 8fbd f1c9 ce3e
00000330: 7d62 6dbe 43b5 8d3c cb26 cc3e ca41 0ebe
00000340: 105c 41bc d7c5 8bbd f349 be3e 0080 243c
00000350: 3aaf b8be 74a9 373e 775a d73e d67f 55be
00000360: 3ceb 643e d5b1 e13d 8286 243e beff a3be
00000370: 4f50 bebe e431 c23e d265 b43e dd92 4bbe
00000380: 532e db3e 2b31 aabe a9e7 423e 56b8 c93e
00000390: bbcd 493e 1813 c6be 810e b6be 5710 723d
000003a0: 1d6f 9a3e da37 a7be 2a37 0b3d 2bf2 ed3d
000003b0: b104 bfbd b15a ccbe db7d 0ebd 3e7a 513d
000003c0: bf16 dcbc 4b87 2cbc cc98 513e b732 a43e
000003d0: cc7d acbe 4331 ed3d 6756 9dbe 9ecc 9a3d
000003e0: 81f9 c93c 80f4 87be 236d cb3d 1a9b 0abe
000003f0: 1a40 7c3d a833 e8bc 4566 9b3e d7de f1bd

conv_0.bias f4 [16]
0.0 0.0 0.0 0.0 0.0 0.0 0.0 0.0
0.0 0.0 0.0 0.0 0.0 0.0 0.0 0.0
00000000: 0000 0000 0000 0000 0000 0000 0000 0000
00000010: 0000 0000 0000 0000 0000 0000 0000 0000
00000020: 0000 0000 0000 0000 0000 0000 0000 0000
00000030: 0000 0000 0000 0000 0000 0000 0000 0000

layers.0.weight f4 [16, 16]
-0.051215887 -0.1711453 -0.14399189 -0.40705013 0.15041414 0.20986219 -0.05571114 0.013816068
0.28992346 0.2874691 0.03891773 0.2869005 0.20533076 0.23050943 -0.19254164 0.15105577
-0.38970307 0.036820084 -0.11743503 -0.34602422 0.21977544 -0.14403473 -0.20851539 0.37370566
-0.2913557 -0.23756102 0.07601372 0.34397304 0.42227188 -0.35289955 -0.2950085 -0.027948717
0.12048294 -0.06894433 0.2642254 -0.19392855 0.30217656 0.11992085 -0.28576332 -0.0027888787
-0.30560315 0.15204152 0.301049 0.04462882 -0.22427452 -0.34463784 0.07370944 0.19230302
-0.2643363 -0.40788507 -0.42567664 0.22993006 -0.21026266 0.3216233 0.1969653 -0.36524522
-0.13223165 -0.3133712 0.13399538 0.09868696 0.039030727 0.20315371 -0.2162148 0.15171324
-0.38965723 0.39065647 -0.21530843 0.28743413 0.20533799 0.29657114 -0.050834164 0.377815
-0.1281667 0.3871735 0.109552376 -0.23576173 0.09531463 -0.29093432 0.20029695 0.003636568
-0.11955559 0.045683865 0.33638677 0.24179482 0.00594064 0.42538282 0.18714274 -0.26096535
0.029622776 -0.07689584 0.25055474 0.1375777 -0.25842732 -0.17459615 0.39154962 -0.2967441
0.3916671 -0.3004689 -0.34272763 -0.34381235 -0.17287646 0.26032466 0.07025803 -0.19223575
-0.27720642 -0.00047675433 0.02594574 -0.3151717 0.02882139 -0.08483048 0.012769645 0.24807346
0.23021871 -0.2440896 -0.20531088 -0.1899305 -0.385418 -0.021770887 0.10881391 -0.32884243
-0.066566795 0.18758306 0.3741995 0.06935614 0.041705318 0.33474937 -0.23228833 0.19992432
-0.23163855 -0.09193802 -0.123012275 0.34417287 0.025581412 0.17320213 0.3990015 0.33471933
-0.19104697 0.4317279 -0.15860991 0.28481618 0.17931786 -0.19816792 0.073805295 0.11813158
-0.42174748 0.1296703 -0.3285227 -0.18560542 0.36461678 -0.18429331 0.18041152 -0.10590357
0.24919112 -0.2207786 0.36149195 -0.3884844 -0.33515164 -0.061349858 -0.21110255 0.004773531
0.29452878 -0.23885748 0.43179154 0.11656876 0.018079706 0.14030881 -0.05959491 0.11141547
0.29187974 0.41982245 0.01809643 0.42433655 -0.23494822 0.26641265 -0.026576318 -0.06256214
-0.3425801 0.24977225 -0.12218647 -0.1896962 0.4232405 0.22216928 -0.26420048 0.24459769
0.014350946 -0.40354678 -0.15343753 0.26957592 -0.040280838 -0.30192596 0.29634163 -0.42080972
0.23463504 -0.040779788 -0.16793361 0.06914239 0.3840506 0.050186343 -0.09272748 0.3295012
0.053610034 -0.20540984 0.16224875 -0.3206283 -0.38472417 -0.11257452 -0.10721522 -0.35542682
0.34863052 0.25469583 -0.09299208 0.22926205 -0.0019327753 0.1116702 0.3317517 -0.08827053
-0.4136929 0.24347816 0.27196434 -0.26550642 0.42612398 0.39267886 0.3807767 -0.023909107
-0.27104902 0.2945319 -0.12235743 0.03211727 0.40292773 -0.33320466 0.24349272 0.23353364
-0.21192417 0.18132693 0.30929542 -0.032235067 0.4116918 0.1536998 0.35456312 -0.16311637
-0.23557714 -0.07229187 0.14516823 0.36053154 0.07158165 0.16540448 -0.3023781 0.31443888
0.23399444 -0.100933164 0.3165572 7.278298e-06 0.085032254 0.39284655 0.13324866 0.38095537
00000000: c0c7 51bd b740 2fbe 9c72 13be e068 d0be
00000010: 2a06 1a3e 1de6 563e 5d31 64bd ca5c 623c
00000020: d970 943e 262f 933e 3368 1f3d 9fe4 923e
00000030: 3a42 523e aa0a 6c3e a329 45be 5dae 1a3e
00000040: 2987 c7be a8d0 163d c781 f0bd 162a b1be
00000050: d00c 613e d77d 13be 0f85 55be 5956 bf3e
00000060: 932c 95be 3243 73be 15ad 9b3d 3c1d b03e
00000070: 0534 d83e 40af b4be 5b0b 97be b5f4 e4bc
00000080: c2bf f63d af32 8dbd 8d48 873e 3595 46be
00000090: e3b6 9a3e 1099 f53d 924f 92be 9fc5 36bb
000000a0: 0478 9cbe c6b0 1b3e 1823 9a3e b6cc 363d
000000b0: 38a8 65be 5f74 b0be faf4 963d 15eb 443e
000000c0: 1657 87be 50d6 d0be 4af2 d9be c972 6b3e
000000d0: 184f 57be cfab a43e 46b1 493e 6c01 bbbe
000000e0: bc67 07be 3172 a0be 1636 093e 641c ca3d
000000f0: afde 1f3d 8707 503e 6a67 5dbe b75a 1b3e
00000100: 2781 c7be 2004 c83e d079 5cbe 912a 933e
00000110: 1f44 523e 2cd8 973e 7c37 50bd f870 c13e
00000120: 223e 03be 9b3b c63e ff5c e03d 866b 71be
00000130: 5134 c33d 58f5 94be a51a 4d3e 7d53 6e3b
00000140: 90d9 f4bd 011f 3b3d e33a ac3e 1099 773e
00000150: b3a9 c23b c7cb d93e 59a2 3f3e 409d 85be
00000160: 77ab f23c 917b 9dbd b648 803e 2be1 0c3e
00000170: 9650 84be 55c9 32be 3179 c83e d8ee 97be
00000180: 9788 c83e 0fd7 99be ff79 afbe 2c08 b0be
00000190: 8706 31be 4649 853e 71e3 8f3d 73d9 44be
000001a0: 00ee 8dbe e2f4 f9b9 298c d43c 2f5e a1be
000001b0: d61a ec3c 9abb adbd c637 513c f806 7e3e
000001c0: 74be 6b3e a0f2 79be 043d 52be 247d 42be
000001d0: 8255 c5be dc58 b2bc d4d9 de3d 095e a8be
000001e0: 2c54 88bd c615 403e 1497 bf3e 980a 8e3d
000001f0: 32d3 2a3d 4564 ab3e fedc 6dbe f6b8 4c3e
00000200: a832 6dbe 004a bcbd dced fbbd 6d37 b03e
00000210: 1c90 d13c e65b 313e ed49 cc3e 5560 ab3e
00000220: d1a1 43be 700b dd3e a36a 22be 6dd3 913e
00000230: 1a9f 373e 88ec 4abe 3b27 973d f8ee f13d
00000240: 49ef d7be 4bc8 043e 2134 a8be 590f 3ebe
00000250: 0daf ba3e 63b7 3cbe ccbd 383e f9e3 d8bd
00000260: f52b 7f3e c913 62be 7915 b93e 6de7 c6be
00000270: ff98 abbe fd49 7bbd 442b 58be 486b 9c3b
00000280: 7acc 963e 0e97 74be c813 dd3e 9abb ee3d
00000290: e41b 943c 1dad 0f3e cb19 74bd cb2d e43d
000002a0: 4371 953e f8f2 d63e f73e 943c a442 d93e
000002b0: 4496 70be 3d67 883e 94b6 d9bc 9420 80bd
000002c0: a966 afbe 4cc4 7f3e e63c fabd b83f 42be
000002d0: fbb2 d83e 5880 633e 4945 87be d177 7a3e
000002e0: 3b20 6b3c af9d cebe ba1e 1dbe db05 8a3e
000002f0: 85fd 24bd 0a96 9abe 17ba 973e 5f74 d7be
00000300: 2b44 703e b508 27bd caf6 2bbe 869a 8d3d
00000310: 48a2 c43e 3290 4d3d e8e7 bdbd 62b4 a83e
00000320: 3296 5b3d f556 52be 8924 263e 6429 a4be
00000330: 91fa c4be 788d e6bd a793 dbbd 81fa b5be
00000340: b37f b23e 7e67 823e a272 bebd acc3 6a3e
00000350: 2d55 fdba 59b3 e43d 5cdb a93e 2ec7 b4bd
00000360: 8ecf d3be 5752 793e e93e 8b3e 75f0 87be
00000370: ec2c da3e 340d c93e 2af5 c23e 08dd c3bc
00000380: f0c6 8abe e3cc 963e 8896 fabd 668d 033d
00000390: 8b4c ce3e cd99 aabe 2856 793e 7123 6f3e
000003a0: a602 59be c4ad 393e f85b 9e3e eb08 04bd
000003b0: 45c9 d23e 7b63 1d3e 4c89 b53e fa07 27be
000003c0: 223b 71be c30d 94bd fba6 143e 9797 b83e
000003d0: 6699 923d cb5f 293e 4dd1 9abe 22fe a03e
000003e0: 3d9c 6f3e 0cb6 cebd c913 a23e 1b38 f436
000003f0: 6425 ae3d 2f23 c93e 5672 083e 950c c33e

layers.0.bias f4 [16]
0.0 0.0 0.0 0.0 0.0 0.0 0.0 0.0
0.0 0.0 0.0 0.0 0.0 0.0 0.0 0.0
00000000: 0000 0000 0000 0000 0000 0000 0000 0000
00000010: 0000 0000 0000 0000 0000 0000 0000 0000
00000020: 0000 0000 0000 0000 0000 0000 0000 0000
00000030: 0000 0000 0000 0000 0000 0000 0000 0000

layers.1.weight f4 [16, 16]
0.054354485 0.280654 0.3954287 0.15884778 -0.02720984 -0.241678 0.23691677 -0.27710044
-0.26301354 0.088038914 -0.3600725 -0.12018612 -0.24599043 0.1735952 0.07071744 0.29153353
-0.23813063 0.23446955 0.4289914 0.31803092 -0.14836356 -0.25197214 0.012236884 0.37065265
-0.08450605 0.15611114 0.3189227 0.37156945 0.43031213 -0.1002632 0.105345935 -0.33069417
-0.35477275 -0.4314179 -0.4232445 0.27985272 0.28984815 0.08967839 0.405328 -0.25392172
0.1372894 0.23120283 0.18461893 -0.19193104 -0.21739332 0.046524223 0.10326656 0.23705107
0.26063952 0.26138258 0.3211021 0.13482608 0.21265453 -0.38191026 0.41139007 0.29799855
-0.033303738 0.17934099 -0.3243266 -0.075026244 -0.1908472 0.01689391 0.33275637 0.19098894
-0.3001754 0.1977351 0.014475554 -0.3111182 0.19570419 -0.27738157 0.20291132 0.39522138
0.0767637 -0.18796922 -0.25940102 0.0930742 0.15170719 0.33558157 -0.4268888 0.20852262
-0.41530108 -0.42961508 0.050395038 0.36857674 0.15104146 -0.107138045 0.21196768 0.14417621
0.30939823 0.26316133 0.013126282 -0.13177328 0.34789208 -0.11736127 0.21538647 -0.05942395
-0.26800525 0.057263535 0.19813195 0.06215894 0.17551523 0.16321227 0.27158546 0.27975467
-0.12129 0.045625277 0.39713854 0.20497122 -0.1337964 0.40124798 -0.3196817 0.39255047
0.25188482 -0.068578444 -0.19189806 0.15265745 0.34588888 -0.23251602 -0.148736 -0.42984322
0.025104502 -0.13065629 -0.42514342 -0.15958437 -0.088670574 -0.20087406 -0.3380606 0.106689885
-0.24288848 0.30787277 0.43295693 -0.0814057 -0.11049716 -0.30364212 0.35472065 -0.41326043
-0.14520164 0.17440769 -0.43227825 0.19866157 0.08348755 -0.38795957 0.027154194 0.28864977
-0.11987956 0.38088542 -0.19947705 0.2639607 -0.4065439 -0.15872228 0.09176019 0.0653714
-0.27521208 0.42350167 0.15379643 -0.3938983 0.19751386 0.006290153 -0.1752608 0.2727566
-0.08210917 0.33206424 -0.089237615 -0.23912539 -0.19069187 0.07565977 -0.14848647 -0.21568678
-0.14310879 0.33617133 0.24231029 -0.3668044 -0.18058366 -0.34497264 -0.013313349 -0.29171172
-0.36497992 -0.4148156 0.19767584 -0.029517937 -0.1742802 0.26470917 0.23019642 0.105567016
-0.16599898 -0.34448045 0.39925197 0.20024917 0.3530681 0.12762816 -0.0012047907 0.1394176
0.0026851757 -0.2920826 0.31280473 0.115573436 0.09745161 -0.032327052 -0.24878457 0.21584465
-0.03272488 0.19658554 0.25330615 -0.19799878 0.20868616 0.05251488 0.21450306 -0.18260254
0.048213873 0.097580604 0.37013718 0.25519323 -0.36913857 0.15266432 0.17947674 0.22147723
-0.36772254 -0.08350438 -0.08284923 -0.086347304 0.15487836 -0.16799805 -0.3862392 0.180553
-0.16897467 -0.10228626 0.06568726 -0.06786631 -0.36705762 0.085406855 -0.34539175 0.05122998
-0.027389785 0.15113123 0.41591418 -0.14005299 -0.05422771 -0.119358875 -0.19062333 -0.29998472
-0.08482315 -0.15334584 0.3846102 0.11404546 0.14476912 -0.36533672 0.09515724 -0.41116396
-0.39366055 0.34453362 0.23138252 -0.3836128 0.21913531 -0.08470819 -0.22936101 0.4049521
00000000: cfa2 5e3d e2b1 8f3e a175 ca3e fea8 223e
00000010: 2ce7 debc 707a 77be 4f9a 723e 1ce0 8dbe
00000020: b6a9 86be bf4d b43d 6c5b b8be 2424 f6bd
00000030: eae4 7bbe f1c2 313e 4ed4 903d e243 953e
00000040: 84d8 73be c918 703e c3a4 db3e f3d4 a23e
00000050: 9eec 17be 7e02 81be 367d 483c 2fc6 bd3e
00000060: 8211 adbd 99db 1f3e d649 a33e 5a3e be3e
00000070: df51 dc3e cb56 cdbd 9cbf d73d bf50 a9be
00000080: c6a4 b5be cfe2 dcbe 81b3 d8be db48 8f3e
00000090: fa66 943e 4ea9 b73d 2787 cf3e 0702 82be
000000a0: 9895 0c3e 6fc0 6c3e bf0c 3d3e 9289 44be
000000b0: 5b9c 5ebe 2f90 3e3d 6b7d d33d 84bd 723e
000000c0: 8b72 853e f0d3 853e 7f67 a43e d90f 0a3e
000000d0: 1cc2 593e be89 c3be b8a1 d23e 4493 983e
000000e0: 8069 08bd 2aa5 373e 230e a6be 5ca7 99bd
000000f0: 736d 43be 1965 8a3c 0b5f aa3e 9b92 433e
00000100: 97b0 99be 127b 4a3e e02a 6d3c e24a 9fbe
00000110: ae66 483e f504 8ebe fcc7 4f3e 755a ca3e
00000120: 4936 9d3d 017b 40be 36d0 84be b09d be3d
00000130: 2159 1b3e 59d1 ab3e 2b91 dabe f486 553e
00000140: 58a2 d4be 82f6 dbbe 076b 4e3d 17b6 bc3e
00000150: 9daa 1a3e 316b dbbd 0e0e 593e eea2 133e
00000160: 7269 9e3e 15bd 863e 9e0f 573c 93ef 06be
00000170: e91e b23e 1b5b f0bd 458e 5c3e 8766 73bd
00000180: fc37 89be 2b8d 6a3d 1ae3 4a3e 5f9a 7e3d
00000190: 44ba 333e 1e21 273e 400d 8b3e 013c 8f3e
000001a0: e466 f8bd 92e1 3a3d be55 cb3e fae3 513e
000001b0: ec01 09be 6070 cd3e 52ad a3be 60fc c83e
000001c0: 0cf7 803e db72 8cbd ed80 44be 3c52 1c3e
000001d0: 5918 b13e ae18 6ebe 404e 18be 6914 dcbe
000001e0: f5a7 cd3c c3ca 05be 66ac d9be 166a 23be
000001f0: eb98 b5bd eeb1 4dbe 4716 adbe 3a80 da3d
00000200: c2b7 78be 80a1 9d3e 88ac dd3e 08b8 a6bd
00000210: 564c e2bd fb76 9bbe f29d b53e df96 d3be
00000220: bdaf 14be ee97 323e 9353 ddbe f06d 4b3e
00000230: 85fb aa3d a3a2 c6be 7972 de3c e7c9 933e
00000240: 6a83 f5bd 6a03 c33e b643 4cbe db25 873e
00000250: 8626 d0be 1888 22be c4ec bb3d 71e1 853d
00000260: 99e8 8cbe 36d5 d83e d07c 1d3e 0aad c9be
00000270: 1341 4a3e a11d ce3b 9177 33be c1a6 8b3e
00000280: da28 a8bd 5304 aa3e 36c2 b6bd 49dd 74be
00000290: bb44 43be 82f3 9a3d d60c 18be ffdc 5cbe
000002a0: 1c8b 12be a61e ac3e 3020 783e c9cd bbbe
000002b0: ecea 38be 41a0 b0be 3c20 5abc 3d5b 95be
000002c0: a6de babe b662 d4be 896b 4a3e 9acf f1bc
000002d0: 8276 32be f687 873e 9cb8 6b3e 8533 d83d
000002e0: a3fb 29be be5f b0be c16a cc3e 1e0e 4d3e
000002f0: 58c5 b43e f5b0 023e 11ea 9dba 7dc3 0e3e
00000300: c6f9 2f3b da8b 95be f127 a03e c4b1 ec3d
00000310: b694 c73d 5f69 04bd 62c1 7ebe 6106 5d3e
00000320: 860a 06bd b84d 493e 58b1 813e 31c0 4abe
00000330: d3b1 553e d819 573d b1a6 5b3e 29fc 3abe
00000340: e97b 453d 57d8 c73d 9f82 bd3e b0a8 823e
00000350: bbff bcbe 0954 1c3e c0c8 373e edca 623e
00000360: 2146 bcbe 5804 abbd dbac a9bd dbd6 b0bd
00000370: 6f98 1e3e ae07 2cbe 25c1 c5be e3e2 383e
00000380: b207 2dbe 757b d1bd 0b87 863d 7efd 8abd
00000390: faee bbbe cae9 ae3d 30d7 b0be 87d6 513d
000003a0: 8b60 e0bc 25c2 1a3e b4f2 d43e 0d6a 0fbe
000003b0: e01d 5ebd 6d72 f4bd c332 43be 9997 99be
000003c0: c2b7 adbd b106 1dbe a1eb c43e ab90 e93d
000003d0: 5b3e 143e 6a0d bbbe cde1 c23d 1584 d2be
000003e0: e08d c9be b666 b03e 8aef 6c3e e668 c4be
000003f0: 0265 603e 7d7b adbd 9ddd 6abe e255 cf3e

layers.1.bias f4 [16]
0.0 0.0 0.0 0.0 0.0 0.0 0.0 0.0
0.0 0.0 0.0 0.0 0.0 0.0 0.0 0.0
00000000: 0000 0000 0000 0000 0000 0000 0000 0000
00000010: 0000 0000 0000 0000 0000 0000 0000 0000
00000020: 0000 0000 0000 0000 0000 0000 0000 0000
00000030: 0000 0000 0000 0000 0000 0000 0000 0000

predict.weight f4 [1, 16]
0.048341364 0.046367377 0.10990548 -0.022643656 0.24122012 -0.18736392 0.09483695 0.22063392
-0.03060931 -0.2438865 0.11545965 0.090914965 0.18607047 0.1519666 -0.24766481 -0.14332688
00000000: 9801 463d b8eb 3d3d 2016 e13d 307f b9bc
00000010: 6802 773e 54dc 3fbe e039 c23d dced 613e
00000020: 60c0 fabc 62bd 79be 1c76 ec3d a031 ba3d
00000030: 4289 3e3e 229d 1b3e d89b 7dbe 48c4 12be
