demo/data/example/models/model_dim2_lay2.pth (torch, 2767 bytes, 7 tensors)

linear.weight f4 [2, 1]
000000 87 85 0c bf 78 42 ff bd
       -0.54891247 -0.1246385

linear.bias f4 [2]
000000 e6 53 f2 3d 0b 1a dc 3e
       0.118324086 0.4298862

conv_0.weight f4 [2, 2]
000000 45 c5 52 bf d9 9d 1a bf 59 08 17 3e 3f 09 09 3f
       -0.8233226 -0.60397106 0.14749278 0.53529733

conv_0.bias f4 [2]
000000 2c 66 c3 bb 0f 6f c4 bb
       -0.0059631076 -0.0059946845

layers.0.weight f4 [2, 2]
000000 9a ef 4d 3f 06 16 8a 3f 2c 3b 81 bf e9 ce 93 3f
       0.8044373 1.0787971 -1.0096183 1.1547519

layers.0.bias f4 [2]
000000 da 76 c4 3b 6e 73 c4 bb
       0.0059956135 -0.0059952056

predict.weight f4 [1, 2]
000000 96 d1 f7 be 17 0f c5 3e
       -0.4840209 0.38488075
