data/example/models/model.pth (torch, 2963 bytes, 7 tensors)

embedder.weight f4 [2, 2]
-0.33258727 1.0445025 -0.92137605 1.6626595
00000000: e148 aabe 42b2 853f 4ddf 6bbf 07d2 d43f

linear.weight f4 [8, 3]
-0.2270231 0.37301013 0.32814237 -0.4719201 0.12083998 0.42596516 0.3530561 0.56773996
0.55063456 0.3519494 0.5096075 0.2639799 0.28430545 0.32704502 -0.31229597 0.07339684
0.09016858 0.31015942 0.5323962 0.1642653 -0.11137468 0.054881673 -0.43250868 -0.049121115
00000000: be78 68be 2ffb be3e 4702 a83e 839f f1be
00000010: f47a f73d 1b18 da3e c5c3 b43e 6857 113f
00000020: 63f6 0c3f b632 b43e a375 023f 6028 873e
00000030: 7c90 913e 7272 a73e 42e5 9fbe 1551 963d
00000040: 4eaa b83d 37cd 9e3e 1e4b 083f 2a35 283e
00000050: 6918 e4bd 9bcb 603d c771 ddbe 3933 49bd

linear.bias f4 [8]
0.27690515 -0.42964637 0.50347614 -0.25895324 -0.487354 -0.32131392 -0.49660465 -0.14399606
00000000: 83c6 8d3e 9cfa dbbe d0e3 003f 8595 84be
00000010: 7786 f9be 4283 a4be f742 febe b473 13be

conv_0.weight f4 [8, 8]
-0.6068484 0.17604849 -0.374171 0.55197 -0.543754 -0.39086965 0.3622449 0.4267985
0.5305749 0.48946425 0.1744551 0.16008262 -0.4489157 -0.09756055 0.21564679 0.44954613
0.061711546 -0.44652104 0.24010524 0.56926227 0.17318183 -0.58065325 -0.18753496 0.5890177
0.0061912443 0.35578123 0.1700482 0.49756503 0.12021348 -0.28472006 0.10811847 0.50966686
-0.047947012 0.1860697 -0.6110252 -0.060305264 0.35616666 -0.15146002 -0.553169 0.5929431
-0.0627015 -0.15217316 0.51583415 0.5514944 0.12958916 0.38631704 0.27034378 -0.12504867
0.012397672 0.25534812 0.084051155 0.4610743 0.051968608 -0.11106578 0.3473904 -0.23739006
0.28282097 -0.55263066 0.27260163 -0.12317438 0.610551 0.03435045 -0.4228443 0.3543335
00000000: 6b5a 1bbf 0e46 343e 5793 bfbe e84d 0d3f
00000010: 7633 0bbf 1120 c8be 2a78 b93e 5585 da3e
00000020: c2d3 073f 0f9b fa3e 5ca4 323e b3ec 233e
00000030: 47d8 e5be d3cd c7bd 83d2 5c3e e92a e63e
00000040: 3fc5 7c3d 689e e4be 26de 753e 2cbb 113f
00000050: 9456 313e b1a5 14bf 2a09 40be ddc9 163f
00000060: ecdf ca3b f528 b63e 1e21 2e3e d8c0 fe3e
00000070: 7c32 f63d d4c6 91be 376d dd3d 8779 023f
00000080: 1664 44bd 0e89 3e3e 266c 1cbf a702 77bd
00000090: 7a5b b63e 5618 1bbe 7c9c 0dbf 1ecb 173f
000000a0: a569 80bd 48d3 1bbe b50d 043f bd2e 0d3f
000000b0: 05b3 043e 59cb c53e 806a 8a3e c20c 00be
000000c0: 9b1f 4b3c fdbc 823e 0323 ac3d ee11 ec3e
000000d0: 09dd 543d 7576 e3bd 28dd b13e 6116 73be
000000e0: e9cd 903e 3479 0dbf 7192 8b3e d942 fcbd
000000f0: 124d 1c3f 0fb3 0c3d 0c7f d8be 336b b53e

conv_0.bias f4 [8]
0.0 0.0 0.0 0.0 0.0 0.0 0.0 0.0
00000000: 0000 0000 0000 0000 0000 0000 0000 0000
00000010: 0000 0000 0000 0000 0000 0000 0000 0000

layers.0.weight f4 [8, 8]
-0.5333806 0.12790364 0.42965078 0.58605564 -0.24824509 -0.04303437 -0.09472879 0.26287505
0.04996584 -0.571908 0.20146397 -0.18877101 -0.49018607 0.46115187 -0.08229936 0.031671554
-0.5010298 -0.18753234 0.18627447 -0.0992116 -0.4278165 -0.022368517 -0.41076395 0.006192704
0.15420397 0.51413697 -0.054831978 -0.3696973 -0.4161719 -0.5626666 -0.17348091 -0.44144255
0.2301931 0.31178844 -0.5119839 0.21477225 0.57928216 -0.086596094 0.017253153 -0.45353347
0.13989061 0.47493577 -0.020864414 -0.14391607 0.41503945 -0.46647274 0.3899894 0.4507945
0.56322265 -0.44061282 -0.35888252 0.53521436 0.18568724 -0.41800904 -0.1892969 -0.34967503
0.41742042 0.5404294 -0.30424872 -0.27250797 -0.56102246 0.43025377 -0.6079121 -0.5795459
00000000: a28b 08bf 2cf9 023e 30fb db3e be07 163f
00000010: f633 7ebe cf44 30bd 2b01 c2bd 8f97 863e
00000020: fba8 4c3d 9068 12bf 924c 4e3e 304d 41be
00000030: abf9 fabe 191c ec3e 918c a8bd 08ba 013d
00000040: 7d43 00bf 7a08 40be bcbe 3e3e 742f cbbd
00000050: c40a dbbe 2e3e b7bc a74f d2be 2bec ca3b
00000060: a5e7 1d3e 7b9e 033f 7f97 60bd f748 bdbe
00000070: 7c14 d5be eb0a 10bf fba4 31be c204 e2be
00000080: bdb7 6b3e bca2 9f3e 6011 03bf 42ed 5b3e
00000090: d64b 143f 4b59 b1bd 7c56 8d3c 8a35 e8be
000000a0: 7c3f 0f3e c82a f33e d9eb aabc bc5e 13be
000000b0: 0d80 d43e 84d5 eebe b1ac c73e 89ce e63e
000000c0: 5c2f 103f 0198 e1be 73bf b7be cf03 093f
000000d0: cc24 3e3e 4805 d6be 0cd7 41be 9b08 b3be
000000e0: 21b8 d53e 9559 0a3f 7dc6 9bbe 2a86 8bbe
000000f0: 2b9f 0fbf 394a dc3e 21a0 1bbf 1f5d 14bf

layers.0.bias f4 [8]
0.0 0.0 0.0 0.0 0.0 0.0 0.0 0.0
00000000: 0000 0000 0000 0000 0000 0000 0000 0000
00000010: 0000 0000 0000 0000 0000 0000 0000 0000
