demo/data/model_dim8_lay1.pth (torch, 2391 bytes, 5 tensors)

linear.weight f4 [8, 1]
000000 12 a0 23 be b0 c7 28 3f aa 32 57 3f 10 9f 45 3f
       -0.1597903 0.659297 0.8406168 0.77195835
000010 3f 50 e4 3e 7e b7 73 be d4 4a f4 be 60 9b 36 bf
       0.44592473 -0.23800465 -0.4771334 -0.71330833

linear.bias f4 [8]
000000 09 54 2f bf 9b bd 49 3f 22 c0 18 3f 0c 13 03 bf
       -0.684876 0.7880494 0.5966817 -0.5120094
000010 a7 32 19 3f 38 55 0d bf 16 3e ad 3e bf c5 be be
       0.59842914 -0.5520816 0.3383643 -0.37260243

conv_0.weight f4 [8, 8]
000000 e0 67 cf be 60 56 15 3f aa 03 12 bf ee 03 0b bf
       -0.40508938 0.5833492 -0.5703684 -0.5430287
000010 e2 51 10 3e 42 ae ed 3e 2e 90 23 bf bf ef 07 bf
       0.14093736 0.4642201 -0.63891876 -0.531002
000020 ef ac ec 3e 5a 21 ce be ac ec ef 3e 28 84 b4 be
       0.46225688 -0.4025982 0.46860254 -0.35257077
000030 6a 72 4e bf 97 ca 22 3e 16 7b 2a be 8e a0 f4 3e
       -0.8064333 0.15897594 -0.16648516 0.47778744
000040 88 7e 7a be 98 ba 7d 3e e0 58 23 3f ba 43 64 3e
       -0.2446233 0.24778211 0.6380749 0.2229146
000050 f5 30 4f bf 30 c0 b6 be 9c e6 81 3e 90 d9 2e 3f
       -0.8093408 -0.35693502 0.25371253 0.68300724
000060 12 2e 72 3e a0 8b b2 3d c3 a7 8b 3e 4a 22 80 3e
       0.23650387 0.087180376 0.2727643 0.2502616
000070 9e 47 da 3e 9a b3 bc be b4 cb c8 be 9f 0b 83 3e
       0.42632765 -0.36855775 -0.39217913 0.25594804
000080 43 ed db bc d6 96 12 bf e8 91 af 3e 2f 5f 18 3e
       -0.026846534 -0.5726141 0.34291005 0.1488006
000090 8e ef 4c 3e 58 9d c9 3d c9 de 3a 3f f0 1b ff 3e
       0.20013258 0.09844464 0.72996193 0.49826002
0000a0 f5 54 0a 3e 4b 21 4c 3b 99 70 40 bf 20 7d cc 3e
       0.13508971 0.0031147774 -0.7517181 0.39939213
0000b0 6a a0 a2 be e0 42 a7 be fb 7c 76 3c 6a a1 a0 3e
       -0.3176301 -0.3266821 0.015044446 0.3137315
0000c0 8a b2 36 3e 13 3b 68 be 6a 74 de be 27 ec 40 bd
       0.17841545 -0.22678785 -0.43448192 -0.047100212
0000d0 0a be 21 3f 73 04 b3 3e c5 c9 e3 3e 0b 06 28 be
       0.631806 0.34964332 0.44489875 -0.16408555
0000e0 27 15 29 be 2c c3 30 3f 5e 76 4a bf 1b 00 ce bd
       -0.16511975 0.6904781 -0.79086864 -0.10058614
0000f0 5d 08 fa bc 96 4d bc be 8f 9b 8b bd f9 84 4b be
       -0.030521566 -0.36777943 -0.0681678 -0.19874944

conv_0.bias f4 [8]
000000 35 a2 a1 bd 92 d9 9c bd ec dc 27 3e fb f9 03 3e
       -0.07892267 -0.07658686 0.16392869 0.12888329
000010 72 8c 51 be 68 d8 c7 3d 44 80 20 3e 54 4d 33 3e
       -0.20463732 0.09758073 0.1567393 0.17509967

predict.weight f4 [1, 8]
000000 f8 d1 99 bb 2a c4 f3 3d 1b 77 b3 be 7c 67 88 be
       -0.0046942197 0.1190265 -0.35051808 -0.26641452
000010 dd 20 a3 3e 80 86 26 bd 8f ce 07 bf 7f 75 a7 be
       0.3186101 -0.040655613 -0.5304956 -0.3270683
